family-EHR-graphs/results/a1_TestDisease_model.pth (torch, 4810 bytes, 5 tensors)

static_linear1.weight f4 [20, 2]
00000000: fa10 a43e c16a df3e 9d04 26bf a3bb 263f
00000010: d193 e33d 0fc4 96bd 6c2e 16bf 51e3 883e
00000020: 969e f9be 5bf4 b2be 3c70 ff3e a8c8 1ebf
00000030: 1bb1 f93e 38c7 14be 9b79 bb3e d41f 84bd
00000040: 35eb 45bd 73d5 15bf a0e0 eb3e 33e9 b53b
00000050: 626c 3ebd 6110 1d3f eebf 9fbe 0e90 063f
00000060: ef52 e5be c4c7 593e b478 c8be bd34 c33e
00000070: 7abb 23bf 8798 133f bc33 833e f506 12bf
00000080: 27cc abbe 236c 0cbe 033f b7be 28e0 9bbc
00000090: 2436 343e 5c21 b6be ae12 c03e c1ea 1dbf
0.32044202 0.43636134 -0.6485079 0.6513006 0.11112178 -0.07361614 -0.58664584 0.2673593
-0.48753804 -0.34952053 0.49890316 -0.6202493 0.48767933 -0.14529121 0.36616215 -0.06451383
-0.048320014 -0.5852882 0.46069813 0.005551481 -0.04649008 0.6135312 -0.31201118 0.5256356
-0.44789836 0.21267611 -0.3915459 0.38126174 -0.6395794 0.57654613 0.25625408 -0.57041866
-0.33554193 -0.13713126 -0.35790262 -0.019027784 0.17598778 -0.35572326 0.3751425 -0.6168633

static_linear1.bias f4 [20]
00000000: 6d88 21bf 66d9 8e3e 9a25 5dbe f2e2 16be
00000010: f532 24bf 809d 7d3e 309e 2dbf fe87 c23c
00000020: 9f9f b23d 5858 b2be 59e8 a93d fc68 a8be
00000030: c930 5c3d a609 b23e 74a3 f4be 28e3 30bf
00000040: e2b9 45bd 8743 ee3e b1ba 2a3e 3253 4fbd
-0.63098794 0.27900237 -0.21596375 -0.1473501 -0.64140254 0.24767113 -0.678195 0.023746487
0.087218516 -0.34833026 0.0829627 -0.32892597 0.053757463 0.34772986 -0.47780955 -0.6909661
-0.048272975 0.46535894 0.1667278 -0.05061645

static_linear2.weight f4 [20, 20]
00000000: b81f 0bbe c8ca 613e 6ca6 8fbd dc51 10be
00000010: 3ea8 94bd a756 353d 6c4f 373d e9bb eb3d
00000020: 26c2 383d 2cd8 253d ef78 0cbe da85 5ebe
00000030: 22ff 903d 46f1 563d 3d98 483e 0a33 e53d
00000040: c579 54be 9f50 2dbd 88eb d7bd 160e 27be
00000050: 229a 1fbe 43ef c9bc cac8 2fbe 18e8 7fbc
00000060: 93d3 c0bd 8171 2dbe 1466 133e b2c5 363e
00000070: 3777 85bd fbfe 463e 12d0 2a3e 9ed7 32be
00000080: eb76 a0bc 9747 acbc f512 9cbd 2f54 b6bd
00000090: 0f58 2bbe 4f37 ac3d 0c8f 723c ec12 46be
000000a0: 7baf a3bd bf6d e3bd f113 81bc 6d12 bb3c
000000b0: c98b 453e 6866 f13d 50fc 563d d8e8 3fbe
000000c0: c133 60bd 7171 a23d 0a8f fc3d 6df9 18be
000000d0: 5836 4a3d bbaf 50be c62e 1bbe d805 04be
000000e0: 31e3 11be 68af 823d bb24 f6bd 53fb 13bd
000000f0: e776 51be d12c 2abe 2d05 1fbe 1437 913d
00000100: 92b7 a3bc fe06 babd c6f9 673d bfa3 263e
00000110: 2174 95bc 8c35 1cbe d4a8 783d 8b89 96bd
00000120: 4b2a 3e3e aecd 50be ccac 27be 86cd 9abd
00000130: 27ca 113d 9bc8 c83c d442 3d3e 0eb2 43be
00000140: 77b6 563c d677 d4bd 82e1 463d 314a 9ebc
00000150: 3d85 cdbd a5d7 4dbe 5849 613e 7930 283e
00000160: 8350 b0bd ad90 04be 9baa 853c e417 06be
00000170: 131f e1bd cdb0 63be facf 06be 252c b6bd
00000180: e81d a73d 3da7 153e 4ad0 55bd 1931 22bc
00000190: 9617 54bd 5970 5e3e 88da 363e d434 76bc
000001a0: e16a 023e 24d9 8ebd e553 673e 5eda 843d
000001b0: f7b8 0a3e 32f0 5fbe 1103 3ebe d9be a8bd
000001c0: 3766 37bd 7ba0 cebd 2701 ffbd ac5a e43b
000001d0: 79f5 8d3d 7f76 1cbe be94 983d 07c2 153e
000001e0: 7332 39be 6e64 4c3e 4ba3 d93d bf57 113e
000001f0: 1359 0b3e c9b8 063e b4e6 a73d ebc5 933d
00000200: 9788 87bd 3954 10be 2b28 b9bc 511a 34be
00000210: 2ff6 463e aa98 53bd c5b7 383e 9779 a2bd
00000220: f491 9c3d 563a 253e a25c 47be 8801 873d
00000230: 4509 31bd e466 41be 8852 19be c10d 04be
00000240: 5b94 d23d a444 f03d 3a53 393e d524 d1bd
00000250: bc52 74bd 1a1e 5dbe c743 a6bc 7d8b 3e3d
00000260: 9373 0f3e 5f3e 15be 80af 453e 0daf db3d
00000270: 6287 293e d147 353e 28af 29be 220c e73c
00000280: 3350 5abe 21e4 b4bd 48e9 513e d9df 03bd
00000290: a46f 68bd 2ef7 17be 19c7 dfbd 8db7 dc3d
000002a0: 2734 173e bcd8 5b3e cc9e 07be 3386 3b3e
000002b0: e542 403e a2b4 82bc e54c 5a3e 2d6d e4bd
000002c0: af67 243e bee5 ce3c 12ab 233e 4fb2 fb3b
000002d0: be4d 1fbe 047f 9cbd 01b5 433c 7c19 0ebe
000002e0: 9e78 5ebe 8428 48be ab65 7a3d 8337 063e
000002f0: d0ae 3cbe 48ca 063e b40e 333e 412d 29bd
00000300: a33a 0c3e 9067 2abd c0db 433e 5c35 debd
00000310: 9cbe 01bd dfaf 8bbd aa6c c13c efe9 4e3d
00000320: 91dc 4bbe 2db8 533e 5202 1c3e 3943 38bd
00000330: 0dd9 33be e307 3abe 1d0d 39bd 011c 4cbe
00000340: a66c 3c3e 0b39 4c3e cccc 193e 835f 36be
00000350: aa86 a7bc 58a1 5d3e fd9b c4bd 86cd 1a3d
00000360: cf1b 27be 985c 2b3e 0471 53be b568 5f3e
00000370: 7c09 b73d cfff 29bd b40f 583c 0720 223e
00000380: bcb6 303e 834a 63be db06 64ba 78ac 993d
00000390: 6fc3 f63c e447 92bb 9914 33be 80a2 33bd
000003a0: ef40 f73c 59f8 9bbb 0d77 69bd 1439 003e
000003b0: 4b81 e23d b79d 923d c865 5abe 088f 0b3e
000003c0: 1f47 9c39 b0d6 bdbd cbd5 d5bd 402f 913c
000003d0: a8b9 473e 6882 3c3d 2504 bfbd a4f5 bf3d
000003e0: c53c 673b 7934 b83d 1e8f 29be a954 55be
000003f0: 1e6c 84bd fe2c ab3d 1ea4 00be bafa 67bd
-0.13586318 0.22050011 -0.07014164 -0.14093727 -0.07258652 0.04427209 0.044753477 0.115104504
0.04510703 0.04048936 -0.13718008 -0.21730748 0.07079913 0.05247619 0.19589324 0.111913756
-0.20749576 -0.042313214 -0.10542971 -0.16313967 -0.15586141 -0.024650222 -0.17166439 -0.0156193
-0.094153546 -0.1693783 0.14394408 0.17848852 -0.06516879 0.19433205 0.16680935 -0.17465064
-0.019587955 -0.02103023 -0.07620803 -0.089027755 -0.1673281 0.08408987 0.014804613 -0.19343156
-0.079924546 -0.11104917 -0.01575658 0.022835935 0.19291605 0.117871106 0.052486718 -0.18741167
-0.054736856 0.079317935 0.1233197 -0.14938898 0.049368232 -0.20379536 -0.15154561 -0.12892854
-0.14246823 0.06381112 -0.120187245 -0.036128353 -0.20455514 -0.16618659 -0.15529318 0.070905834
-0.019984994 -0.09083365 0.056634687 0.16273402 -0.018243851 -0.15254802 0.060707882 -0.07350453
0.18570821 -0.2039096 -0.1637451 -0.07558732 0.035593178 0.024509719 0.18482524 -0.19110891
0.013105026 -0.103744194 0.048554905 -0.019322487 -0.10035179 -0.20101793 0.22000635 0.16424741
-0.086091064 -0.12945814 0.016316703 -0.13095051 -0.10992255 -0.22235413 -0.13165274 -0.08895139
0.08160001 0.14614578 -0.052200593 -0.009899401 -0.051780306 0.21722545 0.178568 -0.015027244
0.12736084 -0.0697501 0.22590597 0.06486963 0.13547121 -0.21868971 -0.18555857 -0.08239526
-0.044775214 -0.10089203 -0.12451392 0.0069688167 0.06931586 -0.15279578 0.07450245 0.14624797
-0.18085651 0.19960186 0.10626849 0.14193629 0.13608198 0.13156427 0.081983 0.07215484
-0.06617849 -0.14094628 -0.022602161 -0.17588164 0.19429849 -0.051659264 0.18038853 -0.07933348
0.07645026 0.16135535 -0.1946893 0.06592089 -0.04322173 -0.18886906 -0.1497289 -0.12895872
0.10282203 0.11731842 0.18098155 -0.10212103 -0.059649214 -0.21593514 -0.02029599 0.046519745
0.14008932 -0.14574574 0.19305229 0.10726748 0.1655555 0.17703177 -0.16570723 0.028204028
-0.21319656 -0.08832575 0.20499146 -0.0321959 -0.056747094 -0.14840385 -0.10926647 0.10777197
0.14765988 0.21469396 -0.1324417 0.18312912 0.18775518 -0.015955273 0.21318395 -0.11153636
0.16055177 0.025256034 0.15983227 0.007681168 -0.15557 -0.07641414 0.01194501 -0.13876909
-0.217257 -0.19546705 0.061132114 0.13107114 -0.1842606 0.13163102 0.17486078 -0.041302923
0.13694243 -0.04160267 0.19126797 -0.10850021 -0.03167592 -0.06820654 0.023611385 0.050516065
-0.19908358 0.20675726 0.1523526 -0.044985984 -0.17563267 -0.18167071 -0.04517852 -0.19932558
0.18400821 0.19943635 0.1501953 -0.17809872 -0.020449955 0.21643579 -0.09600065 0.03779366
-0.16319202 0.1673454 -0.20648581 0.21817286 0.08937356 -0.041503724 0.013187338 0.1583253
0.17257208 -0.22196393 -0.00086985313 0.07503599 0.030122487 -0.0044641364 -0.17488326 -0.043856144
0.03018233 -0.00475983 -0.0569983 0.12521774 0.11059817 0.07158988 -0.21327889 0.13628781
0.00029807628 -0.09269464 -0.104411684 0.017722726 0.19504416 0.046022803 -0.093269624 0.09373024
0.0035284024 0.08994383 -0.16558501 -0.20833077 -0.06465934 0.08358191 -0.12562606 -0.056635596

static_linear2.bias f4 [20]
00000000: 86ae 67be 45b5 3bbe 071c d9bd 5bfb 53bc
00000010: af7d 5b3e a2db ccbe 6ea1 98bd a5c8 be3d
00000020: 2218 f33d 6f90 dd3c 28de b83b 77cb a43d
00000030: ef60 1f3d 46ff 423e 13d0 21be 2cd0 303e
00000040: 9d17 ec3c c408 cabe cd1c 72be 3e09 2abb
-0.22625169 -0.18330868 -0.10601049 -0.012938346 0.21434663 -0.40011317 -0.07452665 0.09315614
0.11869837 0.02704641 0.0056417175 0.0804662 0.038910802 0.19042692 -0.1580203 0.17266911
0.028819853 -0.39459813 -0.23643799 -0.002594545

final_linear.weight f4 [1, 20]
00000000: 9d9f b03d 949e 473e 5672 63be 7c1c 54be
00000010: 3b6b 80bd f0eb 883c 2073 b43d 910f 543e
00000020: 2c81 2ebd c037 7d3d 03e7 4a3e ee1b 2cbe
00000030: 1d20 fdbd e90c 72bc d8a7 3fbe f323 63be
00000040: 3e73 6f3d bc85 383d fc92 0d3d 5c70 a0bd
0.08624194 0.19494087 -0.22211584 -0.20713991 -0.062704526 0.016714066 0.08811021 0.20709063
-0.042603657 0.061820745 0.19814686 -0.1680753 -0.12359641 -0.014773586 -0.18716371 -0.22181682
0.058459513 0.045049414 0.034564003 -0.07833931
