family-EHR-graphs/results/A2_TestDisease_model.pth (torch, 5770 bytes, 5 tensors)

static_linear1.weight f4 [20, 14]
00000000: 8fee 003e 6fc4 0ebb c0e0 fbbe 5067 41bd
00000010: 0992 2ebe 25dd 98be 4f91 c1be 7c0d 203e
00000020: 7f29 c93b 276d 80be 7ac2 21be bb39 fa3d
00000030: 6842 953d cb35 f7bd 2ac7 43be 8c1a c3bd
00000040: c18b 4a3e 9f23 b83d 74e9 09be f523 8abd
00000050: 9c51 8bbc 6ebc 2d3e 40c8 0bbe b1bb 583e
00000060: 7fe7 833e 0ee2 64be 9435 5cbd 8866 7f3e
00000070: 2148 fcbd 6a0a 69be 546c 2bbd ca25 823d
00000080: 7a4c 32be a5ed 443e a923 743e e942 853e
00000090: 7afa 2b3d 4e61 753e 936c 69bd a03a 5abe
000000a0: 86ba 84ba 7246 20be eb17 34be 9e1e ccbd
000000b0: 993a f63d 5be6 073e 8173 6ebd 0a91 c1bc
000000c0: fe39 0e3e 6246 8fbd 2b86 dfbc cb15 4dbe
000000d0: 360f 81be 4cc4 76be 43a1 4b3e 5fba 663e
000000e0: 9633 4bbe 9897 18be 0808 66be 4321 1f3d
000000f0: f755 e13d eb4d 28be 7dec 5d3e 119b 4cbe
00000100: 17f3 06bd 1db0 5abd 8d1f 84be fa07 c43c
00000110: b090 403e 1603 1cbd 03a1 203e 2240 da3e
00000120: a71e 9a3e 5eeb 813e 6588 6ebd 61b5 af3e
00000130: 4c58 e7bd 017f 71bc fd64 32be 5050 2d3e
00000140: 6a6e bb3d 9ed4 f33d d8f4 0fbe 0918 403e
00000150: 27eb 623d 9f3e 65be 89fb 08bf b20a f5be
00000160: 9bcd e1bd 9f04 79be 93c4 16bc 774b 063e
00000170: c11a 93be cc67 d1bc 33e5 93bd 1cfd 8abd
00000180: 55fd ae3e 619b 6bbe 3c94 9abd f672 17be
00000190: b7a4 35be 126e db3d 1480 683d 7b95 093e
000001a0: 0bb3 843e 8ef8 5f3e 5ce3 abbd 4440 7e3d
000001b0: be15 4b3e 5ec3 4d3e e487 113e f3f7 293e
000001c0: 0f64 c23d 83c9 743e a7d9 263e 7507 c03b
000001d0: 699b 373e ccc7 1dbd 6f26 e43d dcdf b9bd
000001e0: 11bc 84be 19f6 4f3e 8794 fdbd 6fbf 6bbd
000001f0: c5f1 febe 39d1 703c d8d0 0ebd c750 083e
00000200: 0960 413d 127e 5abe 0888 97bd 5a69 d9bc
00000210: 59a2 7fbe f64f 1b3e d021 b73d 03ad 943c
00000220: b0de 9c3d cd2c b63d 82bc 14be 53ce 72be
00000230: 23ca fb3c 892d 7cbe ac60 66be 7447 35be
00000240: 2494 42bd df37 9cbd 22d7 0dbe eae2 333e
00000250: 6343 483d 94fe 65be 9a0b a9bd a69b 82bd
00000260: 1eb2 113f 6489 16be ca3a 843d 57ea db3e
00000270: 0867 083f 1f97 fb3e de0e abbd 5680 ba3e
00000280: dad7 4b3e 96b0 21bd df6d 413d 2cc7 dabd
00000290: 9328 b03e 6a86 07be 3bd2 91be 847f 40be
000002a0: 1cdc bf3c 4be9 c63d ff1c 233e d823 153e
000002b0: 5066 eb3d a74e 233e 3a7c 8c3e 1770 21be
000002c0: b04f acbb 53b9 0bbd edb8 79bc 8f0b ee3b
000002d0: 6674 debe 061f d43d 3e05 80bc 28f9 81be
000002e0: 0f13 d83d 0f5e ea3d 669d 343c 15b1 143e
000002f0: f1b3 553d 1778 58be bcc9 59bd 638d 72be
00000300: 3cc5 babd efc9 d9bd f284 84be 30e8 0b3e
00000310: 0a54 193d bed6 173f d61f 253f d1c7 033f
00000320: 7c96 c43d 5feb ca3e 882b 3d3e 0d9a 723e
00000330: 9e62 6b3e e3d5 3f3e d40f f1bc 2031 ac3e
00000340: 2da5 16bf 72a2 b73d 391d 86be 49b7 6b3e
00000350: 60e9 43be 6c5c 093e 4165 e2bd e814 41be
00000360: 819d 0ebe e3e5 0fbe 899f 91bd 48e8 7e3e
00000370: 1f52 943d 6c1c dcbd ad43 323e 8d06 81be
00000380: 15df 5a3e 9089 97be 3d3b 1bbe 4735 5fbe
00000390: aab3 9dbd cce6 8fbe a677 83bc c721 6a3d
000003a0: 016c 44be c65a 69be 5e61 99be 654f 4dbe
000003b0: 0913 113f 9d40 0e3e 9c4d 94bd 8eaa a73d
000003c0: e0ae 87bb dea6 843e d709 123d 9a7f 243e
000003d0: 33f0 b53d 4626 88be d44b 2dbe c0ca 80be
000003e0: 4f80 bebd 3d71 fdbd d1de bdbd d3bc 313c
000003f0: 5b30 be3d 1976 8ebe b673 9cbe 99f6 2cbf
0.12591003 -0.0021784564 -0.49194908 -0.047217667 -0.17047895 -0.2985622 -0.37806174 0.15630144
0.00613898 -0.25083277 -0.15796843 0.122180425 0.072880566 -0.12070807 -0.19118944 -0.09526548
0.19779874 0.08991169 -0.13467962 -0.067451395 -0.017006688 0.16966411 -0.13650608 0.21165349
0.25762555 -0.22351858 -0.053762034 0.24941456 -0.12318445 -0.22757879 -0.041851357 0.06354864
-0.17411986 0.19231279 0.23841728 0.2602761 0.04198692 0.239629 -0.05698831 -0.21311426
-0.0010126389 -0.15651873 -0.17587249 -0.09966777 0.12022895 0.13271467 -0.05821562 -0.02362873
0.1388931 -0.06995846 -0.027285656 -0.20027845 -0.25206918 -0.24098319 0.19885735 0.22532032
-0.19843897 -0.14901578 -0.22464001 0.03885008 0.110027246 -0.16435973 0.21672244 -0.19981028
-0.032946672 -0.05339061 -0.2580532 0.023929585 0.18805194 -0.03808888 0.15686421 0.42627054
0.3010151 0.25374883 -0.058235545 0.3431807 -0.11296138 -0.014739753 -0.17421336 0.16925168
0.09151919 0.11905788 -0.14058244 0.18759169 0.05540004 -0.2238717 -0.5350881 -0.47859722
-0.11025544 -0.24318169 -0.00920214 0.13114725 -0.2873135 -0.02556219 -0.07221451 -0.06786558
0.34177652 -0.23008491 -0.07547805 -0.14789948 -0.17738615 0.107143536 0.05676277 0.13435929
0.2591785 0.2187216 -0.08392975 0.062073007 0.19832513 0.20094058 0.14211994 0.16598491
0.09491741 0.23904996 0.16293965 0.005860264 0.17930378 -0.03852062 0.11140143 -0.09075901
-0.25924733 0.20308723 -0.12381845 -0.057555612 -0.4979383 0.01469832 -0.034867138 0.13312064
0.047210727 -0.21337155 -0.07398993 -0.026539493 -0.24964274 0.15167221 0.08941996 0.018148905
0.07659662 0.08895264 -0.14525035 -0.23711519 0.030736035 -0.24626745 -0.22497815 -0.17703038
-0.04750456 -0.07627844 -0.13851598 0.1756703 0.04889239 -0.22460395 -0.08254166 -0.06377344
0.5691241 -0.14700848 0.064565256 0.42952225 0.53282213 0.49138734 -0.08352445 0.36426038
0.1990656 -0.039475046 0.047223922 -0.1068252 0.34405956 -0.13234869 -0.28480706 -0.18798643
0.023420386 0.09712466 0.1592903 0.14564455 0.11494124 0.15947972 0.27438527 -0.15765415
-0.005258523 -0.034112286 -0.015241844 0.0072645615 -0.4344818 0.1035748 -0.0156275 -0.25385404
0.1055051 0.114437215 0.011023855 0.14520676 0.05217356 -0.2113956 -0.053170905 -0.23686747
-0.09119651 -0.10634219 -0.2588268 0.13662791 0.03743366 0.59312046 0.645017 0.5147677
0.09599015 0.396327 0.18473637 0.23691578 0.22986838 0.18733935 -0.029426493 0.3363123
-0.5884579 0.08966531 -0.2619417 0.23019136 -0.19131994 0.13414162 -0.11054469 -0.18855631
-0.1392727 -0.14052539 -0.07110507 0.24893296 0.07242226 -0.107476085 0.17408629 -0.2520031
0.21374162 -0.2959714 -0.15159316 -0.21797667 -0.07700284 -0.28105772 -0.016048264 0.05716112
-0.19181825 -0.22788534 -0.29957098 -0.20049818 0.5666967 0.13891836 -0.07241365 0.081868276
-0.00414072 0.2590856 0.035653915 0.16064301 0.08883705 -0.265917 -0.16923457 -0.25154686
-0.09301817 -0.12375114 -0.092710145 0.010848242 0.09286567 -0.27824476 -0.3055703 -0.6756378

static_linear1.bias f4 [20]
00000000: 3e5e 0f3f 7b97 bebc da1c 513e 61f3 77bd
00000010: 8bf9 6cbe 02c0 09bf eaf5 053f e3a8 a2bd
00000020: 4e03 37bd d88b 003e 181c 7f3e ac4f d9be
00000030: 977c d3be 72cd 713c ae5e 1ebf d80c ddbd
00000040: 1421 cb3e 5fb9 123e 6fe7 023f fbe4 f3be
0.5600318 -0.02326559 0.20421162 -0.06053484 -0.23142068 -0.53808606 0.5232836 -0.07942369
-0.044680886 0.12553346 0.2491306 -0.42443597 -0.41305992 0.014758455 -0.6186322 -0.107934654
0.39673674 0.14328526 0.5113439 -0.47635636

static_linear2.weight f4 [20, 20]
00000000: 3949 9a3a 79db 8a3d c398 3d3c dd02 b7bd
00000010: f9f9 39be 9c77 483c 3565 c83d eea7 19be
00000020: 3c8f 3cbe ceff 83bd 70b1 273d c0b5 34be
00000030: a558 d1bd b386 d9bc 1b50 10bf c5f7 11be
00000040: f58a 5b3d 194c 5f3d 35f8 a03d 87db 803d
00000050: 539f 943d f755 edbd c89e 4a3e 0a89 e43d
00000060: b81d 4a3b a2c8 19bd a3c8 c93d 11c5 513e
00000070: 1cab 0fbe 6066 523e 2156 09be 45e3 5fbe
00000080: 1727 293e 8384 04be 1e0b 24bd 84d0 0a3d
00000090: d2a5 31bd 36db 0abe 0043 41be e050 fc3d
000000a0: 1f9d f33c dd57 fd3d e649 4d3e 006b 3d3e
000000b0: ef87 29be 8e3a 143d b497 54bd f7e6 f93c
000000c0: ee51 6bbe 08b6 e53d 7854 833c cc0c 20be
000000d0: 7339 2fbe 8d2a bc3d 578e 493d fd02 45be
000000e0: 4fbc 413e 0b9f e03d 6cef cbbd 8804 68be
000000f0: 8828 f8bd ed2d 54be ca1a cd3d 453a 64be
00000100: eb33 fb3c 176a b53d 86ac 583e da51 23be
00000110: c78a 2dbd f62e 2fbd f9a2 59bd bd6f 92be
00000120: b9d0 80bd 1813 233e 8ff8 27bf debb 39be
00000130: 6d17 983d c653 55be 4fcf d93d 6509 cebb
00000140: 4f32 bfbc a87c eabd 45ae fa3d cc40 56be
00000150: 22ed 4ebe 7e64 df3d 425f d13a b4d5 603d
00000160: 1425 ee3d f160 3c3e 531c 4fbc 6bef fd3d
00000170: 5807 3f3e af0f 3cbe ed61 053f 5b38 f83b
00000180: 6dcf 48be c146 7b3c 2fe1 5cbd 7093 a63c
00000190: b564 8abc f7fd 453e ce33 d43d 6c8d d83d
000001a0: 90a6 103e d30f 48be 305c efbd 1054 b03d
000001b0: 8810 ae3c 5b51 fe3a 16d9 333c 8425 23be
000001c0: eb02 263e 57da a13a 43e9 1fbe 475c 6cbd
000001d0: 5c69 a7bd b691 1fbe cd94 493e e079 5a3b
000001e0: d8a1 163e 04d7 58be 2752 223e aee1 503e
000001f0: fa28 1abd 624d 35be 200b 09be b30b fd3d
00000200: 529f 383b d3a1 1a3e d9e4 b83d 9f97 02be
00000210: 09f7 58bc 301e 06be 3b0c de3d 3252 e1bd
00000220: 1ab7 80bd f768 573e e1f5 163e ed1c 01be
00000230: 30e8 463c c3cd 11bd 765f ea3c 9c54 2ebe
00000240: ab43 d5bc cfab 62bd 0ccf 3c3e ab60 553e
00000250: f43d 5ebd 0869 94bd 456e 9abd df57 1d3e
00000260: d602 1f3e 90c4 04be 4c67 ffbc 6043 b6bd
00000270: 6fcc 11be bb05 0a3e 6d93 c6bd 9f35 aebd
00000280: 00d1 15bc d9a6 ac3c 69f4 0d3d 5b99 403e
00000290: 71f8 7c3c 944e f83d 0c5e 24be 0800 b93c
000002a0: 59e8 f5bd d30f b9bd 1295 053e ab57 dd3d
000002b0: fd98 9a3b 95d3 87bd 93ff 1ebe 32eb 7dbd
000002c0: 1a8b f9bc b1fd f3bd 35d0 86bc 71d2 88bd
000002d0: e29c 3b3e 2e72 de3d 85a1 18be 48b2 2ebd
000002e0: fd73 f0bc 42a2 61be 22f8 5a3e 94ba 05be
000002f0: 5e93 193e a838 563d dac2 813e 3d09 84bd
00000300: 41a8 6dbe f5ca f83d e095 eebe dbb4 5dbe
00000310: 464f 4dbb 3852 393e 5a85 5a3d 010e 18be
00000320: 9bcb 09be 2d9a b73d a908 533d 43b0 763d
00000330: cfdc 2dbe 5e36 66bc 039a 5ebe de0c 163e
00000340: e947 523d 149a 7bbd f833 a53d 5dd6 5a3d
00000350: 03a0 24bd 438b 22be 5af8 bbbd 0b10 89bc
00000360: 7669 f5bd ad32 473d dd59 47bd 4bbd 1f3d
00000370: 8904 11be f0f5 37bc 8f34 4d3e 1051 e0bd
00000380: 8769 2f3e b167 443e b759 13be 3890 363e
00000390: 9bd5 393e ff2e dbbc c3dc d83c 3790 e53d
000003a0: c573 683e 5b47 723d 5038 a03e 79da 0f3d
000003b0: f20d 21be 98b0 433e ff4f e6bd b7b2 ef3d
000003c0: ac9f 75bd ab15 8d3d 65c5 9c3c 26a9 033c
000003d0: 89fc 523e dba6 923c f5ff c7bd ae46 ff3d
000003e0: f370 4b3e 5ebd 193c f127 16be a7b6 fc3d
000003f0: f4e8 613c 58d2 c6bd 03a7 d13e 37da 4bbe
0.001177109 0.06780142 0.011572066 -0.08936093 -0.18161763 0.012235548 0.09784929 -0.15005466
-0.18414015 -0.06445275 0.040940702 -0.17647457 -0.10221986 -0.026553487 -0.5637223 -0.14254673
0.053599317 0.05451593 0.07859842 0.062918715 0.07256951 -0.11588662 0.19787133 0.111589506
0.0030840468 -0.037544854 0.098527215 0.20485331 -0.14030117 0.20546865 -0.13411762 -0.2186404
0.16518818 -0.12941174 -0.040049665 0.033890262 -0.04337103 -0.13560185 -0.18873215 0.12320113
0.029738007 0.12370274 0.20047721 0.18497849 -0.16555761 0.036188655 -0.051902488 0.03050564
-0.22980472 0.1121636 0.016031489 -0.15629882 -0.17111759 0.091878034 0.04920801 -0.19239421
0.1891949 0.10967835 -0.099577755 -0.22657979 -0.12117106 -0.20720644 0.10014875 -0.22287853
0.030664405 0.08858126 0.21159562 -0.15949193 -0.042368677 -0.042769395 -0.05313394 -0.28600875
-0.06289811 0.15925252 -0.65613645 -0.18138072 0.07426343 -0.20832738 0.10635244 -0.006287741
-0.023339419 -0.114495575 0.122402705 -0.20923156 -0.20207646 0.10907839 0.0015973824 0.054891303
0.11628166 0.18396355 -0.01264103 0.12399181 0.18655145 -0.18365358 0.5210255 0.0075750775
-0.19610377 0.015336693 -0.05392569 0.020333976 -0.016893724 0.19335161 0.103614435 0.10573849
0.14126039 -0.19537286 -0.11687505 0.08609784 0.021248117 0.0019402908 0.01097705 -0.1593228
0.1621205 0.0012348396 -0.15616326 -0.05770519 -0.081743926 -0.15582928 0.19685669 0.0033336803
0.14710176 -0.21175772 0.15851651 0.2039859 -0.037636735 -0.177053 -0.1338315 0.12355747
0.0028171134 0.15100794 0.09028024 -0.12753151 -0.0132424915 -0.13097453 0.108421765 -0.11002006
-0.06284924 0.21036135 0.14742233 -0.1260869 0.012140319 -0.03559662 0.028609972 -0.17024463
-0.026033243 -0.05533963 0.18438357 0.20837657 -0.0542583 -0.072465956 -0.075405635 0.15365551
0.15528426 -0.12965608 -0.031177185 -0.088995695 -0.14238141 0.13478749 -0.09696088 -0.08506321
-0.009144068 0.021075653 0.034656916 0.188085 0.015440092 0.121243626 -0.16051501 0.022583023
-0.120072074 -0.09036221 0.13045147 0.10807737 0.0047179447 -0.06632153 -0.15527181 -0.061991878
-0.030461837 -0.11913622 -0.016456703 -0.066807635 0.18321565 0.10861622 -0.14905365 -0.04265049
-0.029352183 -0.22034553 0.21383718 -0.13059455 0.14997622 0.052300125 0.25343972 -0.064470746
-0.23208715 0.12148086 -0.4659872 -0.21651022 -0.0031327768 0.1809777 0.05334983 -0.14849092
-0.13456576 0.089649536 0.05152193 0.06022669 -0.16978763 -0.014051048 -0.21738438 0.14653346
0.05133811 -0.061426237 0.08066553 0.05342709 -0.04019166 -0.15873437 -0.09178229 -0.016731283
-0.11983006 0.048632313 -0.048669685 0.038998883 -0.14161886 -0.01122807 0.20039581 -0.109529614
0.17130099 0.1918018 -0.14389692 0.17828453 0.1814789 -0.026755808 0.026472455 0.112091474
0.22700413 0.05915008 0.31292963 0.03512046 -0.15727976 0.19110334 -0.11245727 0.11704009
-0.059966728 0.068888985 0.019137094 0.008035934 0.20604147 0.017901829 -0.09765617 0.12464653
0.19867305 0.009383528 -0.14663674 0.12339526 0.0137884505 -0.09708089 0.40947732 -0.19907461

static_linear2.bias f4 [20]
00000000: 0274 2d3f 3cbd 42be 3e9b 44be 324a 173f
00000010: 804c d1bd 3dac d0bd c535 51bd 56fc 54be
00000020: 9950 cfbd 52a7 ca3e 139f 20be 534c 3fbe
00000030: 25e3 73be bb62 50be 7858 273e 9eed 093e
00000040: 68b9 c13e 7088 8ebc 6657 ea3e caa8 483e
0.6775514 -0.190175 -0.19199845 0.5909759 -0.10219669 -0.10189102 -0.05107667 -0.20799384
-0.10122795 0.3958078 -0.15685682 -0.18681459 -0.23817118 -0.20350163 0.16342342 0.1346955
0.37836766 -0.017399043 0.45769805 0.19595638

final_linear.weight f4 [1, 20]
00000000: 4ea4 29bf 0875 293d 2f46 15be 29f1 2abf
00000010: 93bd 8d3e b1cd 3c3e 8546 47bd b729 04be
00000020: 56b2 f7bd 779b 46bf 18cf ca3c dc79 9f3e
00000030: 15ae cf3e fee4 a33e 34b8 28be cd29 983d
00000040: 6d42 febe 4a60 2b3e e425 57be 0f6f 0fbd
-0.66266334 0.041371375 -0.14577554 -0.6677423 0.27683696 0.1843784 -0.048651237 -0.12906538
-0.12094562 -0.7758097 0.024756953 0.3114766 0.40562502 0.32010645 -0.16476518 0.07429848
-0.49660054 0.1673595 -0.21010548 -0.035018023
