family-EHR-graphs/results/A3_TestDisease_model.pth (torch, 5450 bytes, 5 tensors)

static_linear1.weight f4 [20, 10]
00000000: 9e09 1a3e 56cb 1c3f 0a33 6cbe e246 473e
00000010: 0cf2 41be fd4e 95bd 24e4 4ebe 0c79 8d3e
00000020: bd44 823d 6328 193e 8f4b 2ebe f829 8f3e
00000030: 4224 963e 0077 7bbe d5f3 7dbe b58e 983e
00000040: 9c4e cfbc a87c 94be cf2a a0be bcc4 ebbc
00000050: 3da5 53be 272f 6abe 2333 3cbe d2d7 e4bd
00000060: 7701 16be 7a1a 433e b7c4 5d3e ad89 29be
00000070: 0b26 2a3d 5a6f 313d 5ad7 883d 62d7 cd3e
00000080: f4cc 5c3e f197 42be 3740 433e 1ca8 d0be
00000090: ec7f 7bbe eb9f 1e3e 3b42 a6be b901 8e3e
000000a0: f24c 3bbd 3339 0ebd ddb3 313e 5a36 b13b
000000b0: 84ad 9a3e 329d 5e3e e50f ffbc 0d0a 0cbe
000000c0: a013 6bbe b609 863e 36b4 94be 74c7 92be
000000d0: 5054 d4bd 126e 43be e641 84be 514d 88be
000000e0: 531e 5c3e 3bd3 1c3e df32 7b3e fc7b e2bd
000000f0: 6116 363c 0b2c 7e3f ce28 68be ba0f 15bd
00000100: e6d8 64bd e7c0 9cbd 7924 5f3e 8730 ab3d
00000110: b0de 28be c1ac a2be 11cb 383e 2ce0 06bd
00000120: 7cf3 5e3c 1479 b93e 5971 173e d252 1fbe
00000130: 144b 78bd ef68 9ebc 06b9 943d 9e1b 76be
00000140: c8ec 373e 9247 633e f921 fabb 97b5 93be
00000150: 2c12 edbc e6f8 543e e466 28be 3792 c2bd
00000160: 5c13 7fbe c5eb ebbd 6f82 5b3e c7b8 463f
00000170: fe15 c63d 86bc 95be aa1c 1ebe 2408 543e
00000180: e5c6 5b3e c291 29bd ca46 b93d 04a6 a0bd
00000190: 45c2 91be f9a4 0ebe f274 a4bd b945 c0bd
000001a0: b32b 073c 7846 94be ec14 d03d 806a 393d
000001b0: 0a7c fe3d 6bf5 52bd 026e 363e d907 1bbf
000001c0: fd5f 383e 04a1 ff3c 68df 663d b9b5 2fbe
000001d0: 9d0b 13bc 6ba3 513d 32b8 973d 6a0e 633e
000001e0: b56b 2e3e 7ce3 cfbe 0c49 4e3e d011 003e
000001f0: e67a 37be a90b e03d 9094 363e 31fc 09be
00000200: 39f9 a03e e495 b9bd eae0 f4bc b347 57bc
00000210: dfec b4bd 4167 3fbd a295 2abe 6889 6abe
00000220: 384d 7b3e 23b7 2b3e ac62 8c3e f46d efbc
00000230: b062 a33d f2e8 5abf 7757 54be ee2f 7ebd
00000240: f4ea 213e aa24 bbbd 833f 7bbe 6a5d 3dbe
00000250: a678 50bd 0079 563e 1cbe 54be b3b2 ed3d
00000260: ffce efbd 7e7a 93bd 4a84 bcbd eec7 30be
00000270: ab60 abbd 2017 f5bd f502 913e bf98 d6bc
00000280: fc62 dcbc 6d27 5a3e ed83 073d 4337 85be
00000290: 497f 25be 1f04 d03d b3bb 5ebd dca5 a0be
000002a0: fcea 14be c2a2 993e d70c dabc b4a2 f2bd
000002b0: e603 85bd 694f 573d ce34 99be 2ef5 8b3d
000002c0: eb66 62be a09b 533e 71d8 d8bc d3ee 96be
000002d0: c7a8 91be 3566 57be 87eb e13a c2b0 4c3d
000002e0: fb09 cb3d 92ec 5a3c c645 1d3e cf95 9d3d
000002f0: cd11 03be 0681 163e d4be 8f3e 52b1 78bb
00000300: 6448 46be 0b55 833d d691 abbe c038 a83e
00000310: 4764 4ebe c70e bd3e 5963 bfbd a5b9 db3c
0.15042731 0.61247766 -0.23066345 0.19460633 -0.1893999 -0.072904564 -0.20204216 0.27631414
0.06360767 0.14956813 -0.17021011 0.27961707 0.29324538 -0.24557114 -0.24800046 0.29796377
-0.025306039 -0.29001355 -0.3128266 -0.028780334 -0.20668502 -0.2286955 -0.18378882 -0.11173977
-0.14648996 0.19053069 0.21657072 -0.16556425 0.041540187 0.043319084 0.066817 0.40203387
0.21562558 -0.19003274 0.19067465 -0.40753257 -0.24560517 0.15490691 -0.32472405 0.2773569
-0.045727678 -0.03472252 0.17353769 0.0054080905 0.30210507 0.21739653 -0.031135509 -0.13675709
-0.22956705 0.26179284 -0.2904374 -0.28667796 -0.10367644 -0.19084957 -0.25831527 -0.26621488
0.21495943 0.15314953 0.24531125 -0.110588044 0.011113734 0.99285954 -0.22671816 -0.03639195
-0.055870913 -0.07653981 0.21791257 0.08358865 -0.16491199 -0.31772426 0.18046214 -0.03292863
0.013607856 0.36225188 0.14789332 -0.15558937 -0.060618475 -0.019337146 0.07261853 -0.24033973
0.17961419 0.2219527 -0.0076334444 -0.2884948 -0.02893933 0.20798072 -0.164455 -0.095005445
-0.24909729 -0.11519579 0.21436475 0.776257 0.096721634 -0.29245394 -0.15440622 0.2070623
0.21462591 -0.04139877 0.09046705 -0.07844165 -0.28468528 -0.1393012 -0.08030118 -0.093882985
0.008250165 -0.28960013 0.101602405 0.045267582 0.12426002 -0.05150358 0.17815402 -0.6055885
0.18005367 0.031204708 0.0563654 -0.17159165 -0.008974937 0.05118124 0.07408179 0.22173467
0.17033274 -0.40603244 0.20145053 0.12506795 -0.17917976 0.10939724 0.1783011 -0.1347511
0.31440142 -0.090617925 -0.029892404 -0.013139653 -0.08834242 -0.04672933 -0.16658643 -0.22903979
0.24541175 0.1676908 0.2741903 -0.029227234 0.079778075 -0.85511696 -0.2073649 -0.062057428
0.15812284 -0.091378525 -0.24535947 -0.18492666 -0.05089631 0.20944595 -0.20775646 0.1160635
-0.11709403 -0.07201098 -0.0920492 -0.17263767 -0.08368047 -0.11967301 0.2832257 -0.026195882
-0.026902668 0.21304102 0.0330848 -0.26018724 -0.16161837 0.10157036 -0.054378223 -0.3137654
-0.14542764 0.30006987 -0.02661745 -0.118474394 -0.06494884 0.052565966 -0.299231 0.06833874
-0.22109573 0.20664835 -0.026470395 -0.29479083 -0.2844908 -0.21035083 0.001723633 0.049973257
0.09914013 0.013362067 0.15358648 0.07694589 -0.12799759 0.14697656 0.28075278 -0.0037947488
-0.19363552 0.06412705 -0.33509701 0.32855797 -0.2015544 0.36925337 -0.09345121 0.02682192

static_linear1.bias f4 [20]
00000000: 326c 1abf 7580 63bd afc1 8ebe a438 14bf
00000010: 3695 fd3d be2c 80bd a174 52be 21dc bbbe
00000020: 928c e6bd e60c 92be f8a9 1a3d 1c1a 983e
00000030: 1468 14bd 1eb6 0cbe 5845 ef3e 8725 3d3e
00000040: 0c7c 25be 520e b33d 5c1f 3bbe c834 2ebe
-0.6032134 -0.055542428 -0.27882144 -0.57898927 0.12381975 -0.06258534 -0.20552303 -0.36691383
-0.112572804 -0.28525466 0.03775975 0.2970742 -0.03623207 -0.13741347 0.46732593 0.18471347
-0.16160601 0.08742966 -0.18273681 -0.17012322

static_linear2.weight f4 [20, 20]
00000000: b0b6 61be fe67 283e 0a26 593e a26d 353e
00000010: 7fba 963d 1f55 ecbd 756c f23d dd91 52be
00000020: 1b8c 28be ae6e 613e 90d2 403e 8af3 1a3e
00000030: f082 503d 9325 3cbc bd6e 9f3d 41cd e33d
00000040: 233a a03d 8648 45be 85d6 51be 2210 9cbd
00000050: 419c 253d c59e 5a3d 443e 553e a6ab bcbc
00000060: 5b40 563e e1d1 53be dfcd 99be 215f 163d
00000070: 98f5 233d 3acb 71be 37f7 44be 326f 5c3d
00000080: 40e4 233d 49f4 0fbe 8d4e 4e3e b7ad 5dbe
00000090: ea9a 1ebd 30f4 9ebd 3e25 a73d 2ec3 e3bc
000000a0: 7226 4cbe 974c 513e 67c5 d6bd 6065 e2bd
000000b0: ed1c fa3d 6812 7dbd 8647 f63e f570 253e
000000c0: 9fe5 8ebd 5e38 3f3e 2bcc 48be 18b9 93bc
000000d0: 2b74 21be 60d4 58bd 6b43 923c 4c83 97bd
000000e0: f9c8 55be 4bd4 593d 1220 fb3c c79e 113e
000000f0: 283f 7b3d 420d 353e 0dd6 fdbd d993 2a3d
00000100: 9584 87bd 6d79 18be e0e6 2d3e 24c0 403d
00000110: 4733 cb3d 2c33 e63d b17b 2cbd 31cb 15bd
00000120: 4dfa cc3d 7141 e93d 8505 02be fce9 6abd
00000130: 320c 56be a81a 0c3e e393 c53d 86fc 87be
00000140: ed32 fa3d f9fb 3c3e 43d5 d4bc ce4d b83d
00000150: be8d 4c3e 9b52 ebbd bbdd 773e 274f 98bd
00000160: e7cf 183e 94b0 233d 1114 14be 98a5 54be
00000170: 3d90 a03d a893 203e a7fe 57be 6f11 babd
00000180: 7527 33bd daac 49bd 073b 0fbe e907 e53c
00000190: aff6 b83d a50a 17bd 5c90 153e 6570 2ebe
000001a0: 670d 7bbd 7a14 a23d fc89 a13d 954b 773d
000001b0: 07f9 fbbc d1ae ac3d 56bd afbd a564 45be
000001c0: ae7f d7bd 0c92 8cbc d69d a93c ffac 1dbe
000001d0: 8e32 c2bc 9860 0ebe c976 623e 3f50 573c
000001e0: 42b3 53be 340e 493d 2b44 543d da2b 88bc
000001f0: 5a06 0e3d 8970 9cbc c277 03bd becd 4dbe
00000200: 48d0 043e 40cd d13d e450 4b3e 7407 b33c
00000210: e03b 2bbd 323f 2c3e bdf2 91bd 7f03 173e
00000220: edda 4a3e e8ab 8ebd 19b6 643b 05cd 3bbe
00000230: 868e 9abd dca9 563d b7ee 9abd 120f f7bc
00000240: 9c94 57be 088e 7b3d 10d3 f73d b926 aebc
00000250: 56c5 4bbe 2777 24be 6034 8f3d 23ec 56be
00000260: 2c35 aebd 03e6 b1bd e5f9 4f3c 15b9 3abe
00000270: 2e4b 8cbd be98 d13c f787 b73d 293c 41be
00000280: 4cc6 5abe 259c be3d 16db 02be f6f2 93be
00000290: 9eb9 803d 13df b7bd 0a87 8bbe ad84 a13d
000002a0: 217f 63be 1111 dbbd 3711 59be 0970 3f3e
000002b0: 143c e33d b66b 9b3d 7dcb 2c3e bf41 f83c
000002c0: 52b4 07be bcca e1bd 5b9c 5dbe a734 793d
000002d0: e8cf 6abd 5b51 42bc 0545 e9bd a095 a3bd
000002e0: 2723 58be 773e 0a3e 7164 fc3d 1b66 f63d
000002f0: 3538 17be 8d91 6cbc c853 013e e74b 22bd
00000300: 31d5 3ebd e480 5c3e 7512 0ebd 18c2 31be
00000310: 78c1 143e 8301 53be d362 babd ecd3 43be
00000320: a787 3bbe abfd 423e 9154 073e 2d92 08bd
00000330: 501b d0bd a3e1 133e cfed c0bd 138d 473b
00000340: b0d7 083c 121e 67be 8a9c 533e eea8 07be
00000350: 5323 65bd 3e0c 18be b412 153e 497d dcbd
00000360: 5f48 2cbd ded3 e43d 1329 fdbc 2d57 233e
00000370: a4f7 12be 762f 1a3d d1f7 0b3e 2e25 f8bd
00000380: dac8 04be ff9e cc3d 8061 02be 70d1 82bd
00000390: 316f 0cbe 4f7a 403e c252 26be 1185 ab3d
000003a0: eddc c7bd 5e3e 5bbe 2961 0ebe 4361 e23d
000003b0: 7fb1 8d3c 2812 eebc 2e1b eb3d 31f0 5b3c
000003c0: 0c4d 8cbd 8369 093e 71a3 fb3d f919 2fbe
000003d0: 1ee4 51be 921d 41be 786d 0cbe 139b e9bd
000003e0: 890b 013e 2b07 133e e337 de3d e8a8 293e
000003f0: 3013 e8bd 434d f03d 7123 ec3d 5971 8e3d
-0.22042346 0.1644592 0.21205917 0.17717603 0.0735979 -0.11539673 0.11837093 -0.20563455
-0.16459696 0.22014877 0.18830323 0.15131965 0.05090612 -0.011483568 0.077847935 0.111231335
0.07823589 -0.19265947 -0.20491989 -0.076202646 0.04043222 0.05337407 0.20824534 -0.023031067
0.20922987 -0.20685531 -0.3003988 0.036711816 0.04002914 -0.23612681 -0.1923493 0.05381698
0.040012598 -0.14058031 0.20147152 -0.21648298 -0.038721956 -0.07761419 0.081614 -0.02780303
-0.1993654 0.20439373 -0.1048687 -0.11054492 0.122125484 -0.06178513 0.48101443 0.16156371
-0.069773905 0.18673846 -0.19609134 -0.018032596 -0.15766971 -0.05293691 0.017854413 -0.0739809
-0.20877446 0.053180974 0.03065494 0.14220725 0.061339527 0.17680839 -0.123943426 0.041644905
-0.06617085 -0.1489007 0.16982603 0.04705824 0.0992189 0.11240229 -0.04211015 -0.03657073
0.100086786 0.11389435 -0.12697418 -0.05735205 -0.2090309 0.13682044 0.09647348 -0.26559848
0.122167446 0.18455495 -0.025980597 0.08999215 0.19975945 -0.11490365 0.24205677 -0.07436972
0.14923058 0.03996332 -0.1446078 -0.20766294 0.07840011 0.15681326 -0.21093236 -0.090853564
-0.0437388 -0.04923711 -0.13987361 0.027957873 0.09031426 -0.036875386 0.1460585 -0.17035063
-0.06129208 0.07914062 0.078876466 0.060374815 -0.030758394 0.08431781 -0.08581035 -0.19276674
-0.105224 -0.017159484 0.020705145 -0.15398024 -0.023705747 -0.13904035 0.22115625 0.013141691
-0.2067385 0.04908581 0.051822823 -0.016622473 0.034674026 -0.01909663 -0.03209663 -0.20098016
0.12970078 0.102442265 0.19855076 0.02185414 -0.041805148 0.16820982 -0.07126377 0.14747427
0.19810076 -0.06966382 0.0034898578 -0.18339927 -0.075467154 0.052408084 -0.075650625 -0.030158553
-0.21052784 0.06141475 0.12100804 -0.021258699 -0.19899496 -0.16061078 0.069924116 -0.20988517
-0.085062355 -0.086864494 0.012693857 -0.18234666 -0.06850277 0.025585528 0.0896148 -0.18870606
-0.21364707 0.09307126 -0.12778887 -0.28896302 0.06285404 -0.08978095 -0.27251464 0.07886634
-0.22216465 -0.106966145 -0.21197973 0.18695082 0.11095443 0.075889036 0.168745 0.030304788
-0.1325238 -0.11024997 -0.21641676 0.06084123 -0.05732718 -0.011860217 -0.113901176 -0.07987523
-0.2110716 0.13500391 0.12323845 0.12031194 -0.14767535 -0.014438999 0.12629616 -0.039623167
-0.046590034 0.21533543 -0.03468557 -0.17359197 0.14526927 -0.20606045 -0.091008805 -0.1912381
-0.18313466 0.19042079 0.13215853 -0.03334253 -0.101614594 0.14441542 -0.094203584 0.0030449077
0.008352205 -0.22570065 0.20665184 -0.13248035 -0.05594189 -0.1484842 0.14557916 -0.10766084
-0.042061206 0.11173223 -0.030903375 0.15951224 -0.1435228 0.03764292 0.13668753 -0.121164665
-0.12967244 0.099912636 -0.12732506 -0.06387603 -0.13714291 0.18796657 -0.16242507 0.0837499
-0.09758935 -0.2141051 -0.13904251 0.110537075 0.01729655 -0.029061392 0.114797935 0.013423965
-0.06850633 0.13419156 0.12287033 -0.17099752 -0.20497176 -0.18858936 -0.13713634 -0.11406531
0.12602057 0.14358203 0.10850503 0.16568339 -0.11331785 0.117334865 0.115301974 0.06955213

static_linear2.bias f4 [20]
00000000: 3620 50be 6d15 203f acb6 20bf 0752 c8bc
00000010: 9ced d9be a1ee ed3d 2ec0 103e 9a8c 3dbe
00000020: 612b 2b3f dda6 e3bc cda6 3abd bbbc c33d
00000030: 6bd3 a9bd a4cb 94bd 74a0 b73e 42ef 15bf
00000040: ea33 06be f485 f1be 5552 c13d d281 57bd
-0.20324787 0.62532693 -0.62778735 -0.024453176 -0.42564094 0.116177805 0.1413581 -0.18510666
0.66863066 -0.027789528 -0.04556923 0.09557482 -0.08292278 -0.07265404 0.35864604 -0.58568203
-0.13105741 -0.4717251 0.09439532 -0.05261404

final_linear.weight f4 [1, 20]
00000000: c3d4 273e 2201 c4be e9ab 333d 7653 39be
00000010: f574 7c3e 95b5 d8bd a699 223e 5573 b33d
00000020: e44e acbe 08bc 9bbc 2326 1c3e da58 f33b
00000030: 9483 403e bba7 593e 821d 5fbe 58a5 3c3d
00000040: 5605 d2bd e25c a73d 4f9f 28be 6c31 f7bd
0.16389756 -0.38282114 0.04386512 -0.18098244 0.2465399 -0.10581509 0.15878925 0.08762232
-0.3365394 -0.019010559 0.15248923 0.0074263634 0.18800193 0.2125539 -0.217886 0.04605612
-0.10254924 0.08172013 -0.16467021 -0.12069973
