family-EHR-graphs/results/A4_TestDisease_model.pth (torch, 34798 bytes, 9 tensors)

lstm.weight_ih_l0 f4 [80, 20]
00000000: a2b7 f8bd 0efa 0a3e 80df 153d 85e1 f3bb
00000010: 39db a8bd 805e 793e 1eae 873d 697d 543e
00000020: 4a43 b9bd dcb2 f43d 4d51 c0bb 362c 73bc
00000030: 269c 3cbd aa31 6cbd 37fb 3d3d a79a f7bc
00000040: 81b2 6c3e d814 b43d 2865 313e 9227 8a3e
00000050: 3e9d 723d f8fa 263e 8d3c 223e 6f93 0fbd
00000060: 0dde 903c ca95 66be f3c7 70be 08a8 283d
00000070: a9dd 99bd 9c2b 3a3e e5b4 52be 4739 bdbd
00000080: 976c 49bd 8ad4 6cbe 3dbe d53d be5e cfbd
00000090: d937 58be b5c7 953e 88bd 22be 6a9f ddbd
000000a0: 2449 57be 7284 003e 58bb 8f3e 210c 17bd
000000b0: 3f7a 023e 1e3f d43d 8d07 693d f16f 673d
000000c0: d21c b4bc b52a 093e 7a36 1bbe 84c6 77be
000000d0: e59b b53c dcb4 aa3d 476d 46bc 4057 bf3d
000000e0: 5953 333e 2e59 fa3d 5828 033d 50a6 6d3d
000000f0: 0a06 40be e930 303e 6666 2d3b 6cd1 1dbc
00000100: 2403 09b9 a820 ba3d b7ab a03d 21c9 a5bd
00000110: 9dbb 61be 3657 22be c2c8 9a3d e681 fbbd
00000120: b550 9b3e b1de b0bd ab0e 513e 86df 78be
00000130: 634b 1ebd d8b4 0fbd 4ecf 0d3c aa7d 48bd
00000140: 9ab4 63be d6fa 803d b980 7cbe 32fd 49be
00000150: 3ef9 80bd 870f c6bd 2dda 24be 8c8b c0bd
00000160: 69da 46be 8b31 af3d 98b0 1a3e ce9e b9bd
00000170: 7cd7 2f3d cdf1 9dbd 58ef d6ba 5e72 8d3d
00000180: 3d91 2abe 311e 5cbe ca5b b63d 138b 553e
00000190: 461f a5bc 950e 3e3e cd53 803c f664 46be
000001a0: 2657 073e 3229 4c3e 0817 08be a953 8b3c
000001b0: f442 353e 7fd7 d7bd 5d84 5b3e 9bcb 443e
000001c0: 7bd4 57bd 7040 16be 04da b03b dcda d93d
000001d0: db87 893e 8345 d3bc 4bb4 f8bd bcb2 24be
000001e0: 3db3 af3d 7ddb 9abe 68b4 d0bd ae85 82bd
000001f0: c36d fbbd a122 fdbd a08a cb3d 6e35 193e
00000200: 068e 733e c889 5bbc 797c 813d 6682 eb3c
00000210: 3581 ccbd 60f8 373e 1f4c e7bd 9a31 3abe
00000220: 2bea d33d 1e9b ac3e b5be 923d a7d1 e83d
00000230: a064 00bc 018b 94bd f812 90be 8ca4 243e
00000240: 06bb 443e c50a 24be d14c 463d fe5d 313e
00000250: d4ca 83be 1fb8 733e 7be3 033d a5cb d5bd
00000260: 12ea 3bbd 1081 42bc 7e64 55bd 7682 31be
00000270: 8679 db3d b21a eb3c 0958 793e e1e6 8c3d
00000280: 0a6a 003e d982 15bc 7373 103e 70c2 1c3e
00000290: 38eb 283d 9af9 6b3d 653c 68bc b265 353c
000002a0: f985 1e3e ae5b 963d 3198 cdbd d5f3 6fbe
000002b0: b51b 2bbe e4fe 123e 9631 363e ae99 1fbe
000002c0: 4dad 50bd dc4f 183e 7b9c ddbc 9b27 833e
000002d0: e8da 3ebe 7f3a 8abd 6102 56be a1b6 643e
000002e0: 0665 8dbd 1c1e dc3d 15e0 05be 1d9f 95be
000002f0: 0dc0 bf3d 03cc dcbd c214 003e a241 9bbd
00000300: 9b27 dbbd e9d2 7f3a cdad a9bd 1b6d 593e
00000310: 9886 e23d 72bd 5a3e 2218 d7bd ad58 9b3d
00000320: a7d9 3f3e bec8 a8bd d33b 5f3e cc47 6c3e
00000330: 1a85 afbd 9690 3e3e 4f70 5a3d 9f04 cd3d
00000340: 1116 6f3e b785 e13d d236 8fbd ee50 9ebe
00000350: cef3 213e 37aa f33d 785b 2abe 973a a73d
00000360: 3110 993d bb4b 4bbe d16b 0dbd ebe0 453e
00000370: 9e51 beba 9871 473e a2f6 b2bd d029 503e
00000380: 67c1 4dbc 1f6d 113e f870 3cbe 9e79 ad3d
00000390: 7c71 5abd a87c e2bd d5c1 78bd 6635 2dbe
000003a0: d7bd 1bbe ac89 de3d eb06 f53d 1b8b 593d
000003b0: 63bd d73d c09e 3ebe c193 01be 9dac a9bd
000003c0: 96e5 513e 085f e1bd 6758 b2bd fb9e 103c
000003d0: b563 183d e75d 003e d675 91bd c18a e8bc
000003e0: 28d8 15be 8b4c 87bd 895e 423e e1f5 ef3d
000003f0: ad44 2b3c 9c0d e0bd cd22 85bc ed29 043d
-0.121444 0.13571951 0.0365901 -0.0074426555 -0.082449384 0.24352455 0.06625007 0.20750965
-0.090460375 0.11948177 -0.005869067 -0.014842084 -0.046047352 -0.05766455 0.046382155 -0.030225111
0.23114969 0.08793038 0.17323744 0.26983315 0.05923199 0.16306674 0.15843411 -0.035052713
0.017684007 -0.22518077 -0.23513775 0.041175872 -0.075129814 0.18180698 -0.20576818 -0.092394404
-0.049175825 -0.23127952 0.10436676 -0.101254925 -0.21115054 0.29253927 -0.15892613 -0.108214214
-0.21023995 0.12550524 0.2807262 -0.0368768 0.12741946 0.10363601 0.056891967 0.05650324
-0.021986399 0.13395198 -0.151575 -0.24196821 0.022169063 0.083352774 -0.012111015 0.093428135
0.17512263 0.12224041 0.032020897 0.058019936 -0.18752304 0.17206158 0.002645874 -0.00963245
-0.00013066508 0.0908826 0.07845252 -0.08095003 -0.22044225 -0.15853581 0.07557823 -0.122806355
0.30335012 -0.08636225 0.20415752 -0.24304017 -0.038646113 -0.035084575 0.008655382 -0.048947968
-0.22236863 0.06297843 -0.24658479 -0.19725493 -0.06297539 -0.0967093 -0.16098852 -0.094016165
-0.19419254 0.085543714 0.15106428 -0.09063493 0.04293011 -0.077121355 -0.0016398234 0.069065794
-0.16656967 -0.21495892 0.08904226 0.20853834 -0.020156514 0.1856025 0.01566496 -0.19374451
0.13216838 0.1993759 -0.13290036 0.017007666 0.17701322 -0.105391495 0.21437211 0.19218294
-0.05269287 -0.14673018 0.0053970832 0.10637447 0.26861462 -0.025789982 -0.12143763 -0.16083807
0.08579109 -0.3024558 -0.1019066 -0.063731536 -0.12276795 -0.123601206 0.0993855 0.14961788
0.23784646 -0.013399549 0.063225694 0.028748702 -0.09985582 0.17965841 -0.11293816 -0.18182984
0.10347398 0.33712095 0.07165281 0.11368113 -0.007836491 -0.072530754 -0.28139472 0.16078395
0.19211969 -0.16019733 0.0484131 0.17321011 -0.25740683 0.23800705 0.032199364 -0.10439233
-0.045877524 -0.011871591 -0.05209779 -0.17334923 0.10716538 0.028699253 0.24349989 0.06879974
0.1254045 -0.009125435 0.1410654 0.15308547 0.041239947 0.057611085 -0.014174555 0.011071609
0.15480794 0.07341705 -0.10038794 -0.23432858 -0.16709788 0.14355046 0.17792353 -0.15585968
-0.050946523 0.14874214 -0.027052155 0.25616154 -0.18638194 -0.067494385 -0.20899345 0.22335292
-0.06904034 0.107479304 -0.13073762 -0.29222956 0.09362803 -0.107811 0.12507918 -0.07580878
-0.107009135 0.0009758906 -0.08285103 0.21233027 0.11060828 0.2136133 -0.1050265 0.07585273
0.18735372 -0.082414135 0.21800165 0.23074263 -0.08570309 0.18609843 0.053329762 0.10010647
0.23348261 0.11011832 -0.06992878 -0.3092112 0.1581566 0.118977 -0.16636455 0.08165472
0.074737914 -0.19853108 -0.03452665 0.1932408 -0.0014520173 0.19476926 -0.08738448 0.2032845
-0.012558318 0.14201783 -0.18402469 0.08470462 -0.053330883 -0.110589325 -0.060731728 -0.16914901
-0.15209137 0.108661026 0.1196421 0.053111177 0.105341695 -0.18615246 -0.1265402 -0.082848765
0.20497736 -0.11004454 -0.08708268 0.008826966 0.037204463 0.12535821 -0.071025535 -0.028386476
-0.14633238 -0.06606396 0.18981375 0.117168196 0.010453385 -0.10940096 -0.016251946 0.032266546

lstm.weight_hh_l0 f4 [80, 20]
00000000: 17c5 3a3d 9df2 903e db59 4e3d 6c76 703d
00000010: ed5d 88be e267 2c3e c2eb 39be 728b 18be
00000020: 0edc e83d 1ef5 c0bd 1085 62be 79cc 01be
00000030: 34bb bb3d 41a8 9fbe 6507 98bd 19a5 46be
00000040: 44a8 983c 8548 c039 e086 053e ea76 d1bc
00000050: f871 813d a022 5abd fe86 64be 6f21 2b3e
00000060: de88 d63c db53 dbbd d187 69be 9d79 20be
00000070: 81a2 acbb 2c73 6bbe f5f9 5cbe b703 24be
00000080: 444b a0bd 98b7 89be 59d9 c13d 95f3 22be
00000090: 8bd8 1ebe 77fc 3fbe 5070 9cbc 09c2 d13d
000000a0: 3349 843e f306 d73d d407 4cbe 876d 073e
000000b0: 8eb0 34be 4932 5c3e 7c6c cfbc e693 dbbd
000000c0: 9ada ac3d a5a3 4e3e 469d e8bd f702 7b3e
000000d0: 7a94 06be c4a3 3bbc 6ea7 e13d 26d5 75bd
000000e0: 0e4b 0bbe ce63 db3d 73d7 813e d015 f8bd
000000f0: dc4a c23d 57cf 043d 0a92 cc3d c17c 073e
00000100: 5857 7cbe bccf 613e c8da cebd 6b3a 77bd
00000110: 62c9 4abe ccf8 8bbc 9a57 263e cf6a 4d3e
00000120: abbe 9a3d e36a 0bbe cf79 01be 8d12 04be
00000130: 5aa3 173e 489f c53d 03e8 b43d 2367 353e
00000140: 2af4 773d 1a6b 3bbe 7897 02be 97d7 98bd
00000150: 54f9 c13d f325 10be 240a 633e 0352 a1bc
00000160: f0f6 a63d 521e fa3d a769 a5bd 450f f2bd
00000170: 9863 893e 44b5 733e da5d a03d 9038 f1bd
00000180: b24c 59bc 9771 3d3c d6ec 00be b653 133c
00000190: 52b1 12be 64f7 683e f4b8 b33c 3f52 8d3d
000001a0: 9b33 ef3c 3588 dd3d f29a e13c 7110 5d3e
000001b0: ff6b 9f3d d017 9a3c c1e7 c8bd 0920 0d3e
000001c0: d874 043e 85dd 8ebe 4db8 13bd 7ace 0fbe
000001d0: 5aa0 0f3e 6377 353e 554c 84bd 02e1 0b3e
000001e0: 7f8f b03c 1244 7e3e 3a88 87bd 7f05 34bd
000001f0: 9960 513d 2135 d03d de05 3a3e aa1d 84ba
00000200: 36bd 0ebe 13de 8ebd 4d37 5abe 38f0 86be
00000210: a4f0 06bc ea67 38be d0a7 5e3e 7da7 303e
00000220: cb1b 843e ad64 003e 9df7 043d 3337 5ebe
00000230: 31ab b1bb 106f 353e 4f46 64be 5761 65bd
00000240: 1463 3fbe 119e 09be fd91 2e3e 517d 793d
00000250: c340 d73d 010e 8bbe 3919 863d 65a0 c5bd
00000260: 638d 4e3d a54e f23c 3b09 8abe 9240 3abe
00000270: 2127 70be 8868 773d 2b7c 1d3e c9ed 133e
00000280: 88d6 63be c55b 383e 7d72 48bc d507 523e
00000290: cd39 f4bd 2282 1cbe 5cb4 78be 2ca2 f43d
000002a0: d8bf a4bd c725 383e cd26 42be 3dfa 3d3e
000002b0: 36b0 3a3d f049 41be e7b7 20be 90d1 523c
000002c0: 0a9f 83be c094 a7bd 2f3e 843e bd14 e7bd
000002d0: 457b a5bc a2e5 b23d de23 64be 4b58 15be
000002e0: 3eb9 06be eace 7ebe a0ba 47be 45f9 8c3d
000002f0: d94f 943d a0ac f33d 6161 00be c1de ff3d
00000300: 2827 f33d 827b b03d 0cd6 f2bd b38c b8bd
00000310: bfc3 5bbe f40f 9bbd 969d 90bc d9df ddbd
00000320: cd14 c33d 88dd 32bd eb80 13be 09a0 7fbe
00000330: 66a8 c73d 81ff b53c ae8e 363e 7f10 0ebe
00000340: 3c49 e53c 1f89 873d 6506 3abe 696a 443e
00000350: b4c0 afbc 482f a03d f810 13be 8c13 3abe
00000360: 438a 223e 9db2 36be 688d ee3d 374c 36be
00000370: 556f c2bd 20e3 36bd e784 c73d a497 32be
00000380: 3c26 2f3d 4044 ed3c b744 67be 73ff 383d
00000390: cb2b ea3d be07 98be ce5b 89be 8916 e6bd
000003a0: 8dfe 66be 8ffd 943b 46a2 5ebe ea82 dcbb
000003b0: d585 c2bd 3c6c f23d d09f e6bd 9a4d 243e
000003c0: d357 c43d 1c51 1dbc 6de6 0dbe 1774 8b3c
000003d0: f6d6 273e b6c3 fd3c d48c 1b3d 20f6 35be
000003e0: 4fce bdbd 2a1a 233e a0ca 50bd dc1c 50bd
000003f0: dfa7 cd3d 7337 3ebe 91ff 8abc 8728 25be
0.045598116 0.283101 0.05037866 0.058706686 -0.2663416 0.16836503 -0.1815634 -0.14896944
0.11370097 -0.094217524 -0.22121072 -0.12675656 0.091665655 -0.31183055 -0.074232854 -0.19398917
0.018634923 0.00036675125 0.13039732 -0.025569398 0.06320566 -0.053255677 -0.2231712 0.16711973
0.02618831 -0.107093535 -0.22805716 -0.15671392 -0.0052683954 -0.22993153 -0.21579726 -0.16017042
-0.07826856 -0.26897883 0.09465284 -0.15913232 -0.15512292 -0.18748651 -0.019096524 0.102420874
0.25837097 0.10499372 -0.19924861 0.13225375 -0.17645475 0.21503557 -0.025320284 -0.10721569
0.084401324 0.20179613 -0.113581225 0.2451285 -0.13142577 -0.011452619 0.11018263 -0.060017727
-0.1360285 0.107123956 0.25359687 -0.121135354 0.094869345 0.032424297 0.09988792 0.13231184
-0.24642694 0.220519 -0.10100323 -0.060358446 -0.19803384 -0.017086409 0.16244355 0.20060275
0.07555898 -0.13614993 -0.12644123 -0.12897702 0.14808407 0.09649521 0.08833315 0.17715125
0.060535587 -0.18302575 -0.12753093 -0.074629955 0.09471384 -0.14076976 0.22171837 -0.019692427
0.08152568 0.122128144 -0.08076792 -0.11819319 0.26833797 0.23799616 0.07830401 -0.117783666
-0.0132629145 0.011562726 -0.12590346 0.008992126 -0.14325455 0.22750622 0.021938778 0.06900453
0.029199412 0.10816995 0.027539704 0.21588303 0.077842705 0.018810183 -0.098098285 0.13781752
0.12935197 -0.2790338 -0.036064435 -0.14043608 0.14026013 0.17721324 -0.06459872 0.13660052
0.0215528 0.24830654 -0.0661778 -0.043950554 0.051117513 0.101663835 0.181663 -0.0010079641
-0.13939366 -0.06975951 -0.21310158 -0.26355147 -0.008236084 -0.1800839 0.21743703 0.17251392
0.25802454 0.12538405 0.032462705 -0.21700744 -0.005422019 0.17718148 -0.22292446 -0.056001034
-0.18690139 -0.13439204 0.17047878 0.060910527 0.10510399 -0.27159122 0.065477796 -0.096497335
0.050427806 0.029578516 -0.26960167 -0.18188694 -0.23452426 0.060402423 0.15379398 0.14446177
-0.22249806 0.18003757 -0.012234327 0.205108 -0.11925087 -0.15284017 -0.24287552 0.11944994
-0.08044404 0.17983161 -0.18960114 0.1855249 0.045578204 -0.18875861 -0.15695153 0.012867346
-0.25707275 -0.08182669 0.25828692 -0.112832524 -0.020200381 0.08735205 -0.22279307 -0.14584462
-0.13156602 -0.24883619 -0.19504786 0.06883482 0.07241792 0.1189816 -0.12537147 0.12493659
0.11872703 0.08617307 -0.118572325 -0.09011211 -0.2146139 -0.07571402 -0.017653268 -0.10833711
0.09525452 -0.0436683 -0.14404647 -0.24963392 0.09748916 0.02221656 0.17827865 -0.1387348
0.027989022 0.06617951 -0.18166502 0.19181217 -0.021454193 0.07821518 -0.14361942 -0.18171519
0.15873055 -0.17841573 0.11648065 -0.17802511 -0.09493891 -0.044650197 0.09742146 -0.17440659
0.042761073 0.028963208 -0.22584806 0.04516549 0.11434134 -0.29693407 -0.26827854 -0.11234767
-0.22558041 0.004546828 -0.2174159 -0.0067294734 -0.09498183 0.1183705 -0.112609506 0.16045228
0.09587064 -0.0096018575 -0.13857432 0.01702313 0.16390595 0.030977111 0.0379761 -0.1776967
-0.09267866 0.1592795 -0.05097449 -0.050808772 0.100417845 -0.1857584 -0.016967567 -0.16128741

lstm.weight_ih_l0_reverse f4 [80, 20]
00000000: f73a cf3d 3b6b 02bd 6d6f 113e 4607 b93e
00000010: c674 973e 8f4d 983e 310b 323c af5d 033e
00000020: 56a4 313e d8a0 64bd 2df0 113e 4af8 7abe
00000030: a549 f63d 824d 753e 45fc 603e 7d6b a33e
00000040: 0fc1 bb3d 119e 7d3e 3eba e43d 9ff5 7c3d
00000050: d401 01be e591 80be 8335 b4bc 7cf4 093e
00000060: ee8e 533e 538f bf3d 6f86 273e 41db c3bd
00000070: ae85 603e 5d65 8c3e c32e 2d3e 86a2 96bd
00000080: a4e4 b23e b4ff b13e 7399 a43d 67dd 823e
00000090: 1426 843e 5d70 7c3e 8be3 40bd 9aec 8c3e
000000a0: f6c5 6dbd d670 c33c e464 2d3e 1c5c 433d
000000b0: 170b d83d c79c 84be 1e3b 9c3e d2ca 763e
000000c0: e7ad 933d ddac a43c 1780 16be c722 07be
000000d0: dd25 bfbd 3d69 cebd ada0 9b3e 2514 00be
000000e0: a3ed 8b3d 8027 063e 41ab 7a3e 0191 af3e
000000f0: 79f3 83bd a147 28be b31d 693e 97a1 6dbd
00000100: ac6f 9f3e 9843 0fbd 7433 68bd d43d 4a3e
00000110: a520 383e 43fd 8f3e 29ef b9bc 149e 83bd
00000120: 36af 073e 4ab2 413d 1789 dbbd 92e3 9d3d
00000130: 663f 57be 18ef bbbc d949 90bc f79a a03d
00000140: cbdb 3f3d 41ed f83c 6bb5 61bd 947a 523e
00000150: 7d5c 69be fcf3 5c3e 91e9 813e 91b1 583e
00000160: 5102 55bd 5eec 3c3e 3b3f 483d 6028 b8bd
00000170: 8ab1 39bc e5f5 a23d ba5c bd3e 8cc2 113d
00000180: 1113 303e a5b1 893d 7067 eb3d d48e ec3d
00000190: 164e 813e da70 9c3e 830a 053e 91a3 5d3c
000001a0: e21e e63a 9369 a23e 86a5 0e3e a6d3 51be
000001b0: fd56 07bd 7ca7 e8bc 5538 9c3e 9f2b 7c3d
000001c0: 31dd d53d e6b6 ce3d ac06 8b3e a828 233d
000001d0: 0acb ec3c 6794 883e b552 3e3e 63a0 5b3e
000001e0: 55d4 0dbd 62db 853e c90f d43d f5a1 81bd
000001f0: a119 b73d 7f76 9ebd 7a01 bdbd 7159 3ebe
00000200: 23f7 efbd 33e2 8f3d 88a8 eebb ecbc 623e
00000210: 4ceb 25bd 4ac3 5bbe 1661 14be bf7f 223e
00000220: f929 833d 78a7 e03d 9c72 5c3e 01a7 053e
00000230: bdcf 603a a8b7 d63c 60ca 523e f377 e8bb
00000240: d539 da3d 8586 343d 4648 103d 00cb 193e
00000250: 16e6 de3d 6361 953e a2c9 783e 5ec3 4d3d
00000260: 18f7 b4be 87aa 9a3e a742 983e 8bfd afbd
00000270: a42e 4dbd 9c6d d5bd d773 913e cd15 c63e
00000280: 909c 14be 35bb bb3c 75a6 ce3d 9230 453e
00000290: cfe0 133e 7b57 e3bc c73a b73e 08cd 163e
000002a0: ee6d 9a3e 6fd8 1bbe 8c69 683d 087d 9d3e
000002b0: 03c6 48bc 3bbf e7bc cb43 93be d651 293e
000002c0: 6de8 cf3d c545 4c3e 2359 92bd e5b0 4fbe
000002d0: e403 8cbc 3696 233e 9786 7e3e b135 2cbd
000002e0: f474 083d 2f7a 623d 588b 193e b812 3a3e
000002f0: 94e5 963e 4a15 853e 42e0 683e f396 3cbe
00000300: 48e3 443e ffaf 113e f297 3fbe 209d 02be
00000310: df64 083e 7c88 30bd 16b3 59bd 2589 073e
00000320: 98b7 3abe 1043 1fbd 74d5 583d ccad 5d3e
00000330: 1b56 eabd 201e 733e c0dd 0a3d 0d6e 06be
00000340: 2a92 afbd 25f6 9f3d 0212 7cbe 9df7 efbc
00000350: 1f8e 9ebe d33c 9b3e 287c 49be 9d9d 083e
00000360: 3e40 04be be8c 8abd 84e0 6abd b868 023e
00000370: d850 b9bd ecbf c63c 28eb 603e 8243 da3d
00000380: a71e ae3d 6bf6 48bd 2c67 8f3e 9c22 103c
00000390: b7a1 8abd 84b5 dcbd 01f6 803d 9f0c 893e
000003a0: 187a a63e 20fc c5bc 2926 793c 01d3 6ebc
000003b0: 758b eabd 7897 b03e 4552 813e 3091 9c3d
000003c0: 48e3 883d cf4d 52bd c3be 31bd b8a0 843e
000003d0: 21e3 833e 783b 383d 013a f43d 3e07 b23d
000003e0: a7b7 5e3e 3f92 833d 2e75 67be 8070 993e
000003f0: 1653 f23d f024 823b 6e8a 943e 9637 843e
0.101186685 -0.031840544 0.14202662 0.36138362 0.2958128 0.29746673 0.010866926 0.12828706
0.17347845 -0.055817455 0.14251776 -0.24508777 0.12025765 0.23955348 0.21971233 0.31917945
0.091676824 0.24767329 0.111683354 0.06175768 -0.12598354 -0.2511131 -0.021998173 0.1347217
0.20659992 0.09353509 0.16359876 -0.09563304 0.21925995 0.27421084 0.1691237 -0.07355218
0.34940064 0.34765399 0.080370806 0.25559542 0.258103 0.24652238 -0.047092002 0.27524263
-0.05805012 0.023857515 0.16933018 0.047695264 0.1054899 -0.25900862 0.30513853 0.24100807
0.072109036 0.020101959 -0.146973 -0.1319686 -0.09333394 -0.10078666 0.30396023 -0.12507685
0.06832435 0.13101006 0.2447939 0.34290317 -0.06442923 -0.16433574 0.22765236 -0.058015432
0.31139886 -0.03497657 -0.056689695 0.19750148 0.17981203 0.2812291 -0.022697048 -0.064266354
0.13250431 0.04728917 -0.10719507 0.07709421 -0.21020278 -0.022941157 -0.017613338 0.07842057
0.04684047 0.030386569 -0.055104654 0.20554572 -0.22789188 0.21577448 0.2537351 0.21161486
-0.052004162 0.18449542 0.048888426 -0.08992076 -0.0113338325 0.07957057 0.36984807 0.035585925
0.17194773 0.06723336 0.114943385 0.1155068 0.25254887 0.3055485 0.12992291 0.013527767
0.0017556811 0.31721172 0.1393033 -0.20490894 -0.033041943 -0.028400175 0.30511728 0.061565038
0.104425795 0.10093479 0.27153528 0.039833695 0.02890541 0.26675722 0.18586238 0.21447901
-0.034626324 0.26143938 0.10354573 -0.06329719 0.08940435 -0.07737445 -0.09228797 -0.18588807
-0.117170595 0.07025566 -0.007283274 0.2214238 -0.0405076 -0.21461216 -0.1449016 0.15869044
0.0640449 0.10969442 0.21528095 0.13051988 0.00085758773 0.026210621 0.20585012 -0.007094377
0.10655562 0.0440736 0.035225175 0.15018845 0.10883729 0.29175863 0.24295667 0.050235145
-0.35344768 0.30208227 0.29738352 -0.08593281 -0.050093308 -0.10421297 0.2840869 0.38688508
-0.14512849 0.022916416 0.10090343 0.1925681 0.14441226 -0.027751675 0.3578703 0.1472665
0.30161995 -0.15219282 0.056741282 0.30759454 -0.012254241 -0.028289428 -0.2876266 0.16535124
0.101517536 0.1994849 -0.07145908 -0.20282324 -0.017091699 0.1597527 0.2485603 -0.04204339
0.03331466 0.055292305 0.14994562 0.18171203 0.2947203 0.25992805 0.22741798 -0.18416958
0.19227326 0.14227293 -0.18710306 -0.12755251 0.1331973 -0.04309891 -0.053149305 0.1323591
-0.18234098 -0.038882315 0.05293794 0.2164833 -0.114422046 0.2374196 0.033902884 -0.13127919
-0.085728005 0.0781062 -0.24616244 -0.029292876 -0.30967805 0.30319843 -0.19676268 0.13341375
-0.12915131 -0.06765126 -0.05734302 0.1273526 -0.09048623 0.024261437 0.21964705 0.10657407
0.0850194 -0.049063127 0.280084 0.008797314 -0.06769126 -0.10776809 0.062969215 0.26767442
0.32515025 -0.024168074 0.015206852 -0.014576674 -0.114523806 0.3449056 0.2525808 0.0764488
0.066839755 -0.051343735 -0.043394815 0.2590387 0.25759223 0.04497859 0.11925126 0.086927876
0.21749745 0.064243786 -0.22603294 0.29968643 0.11832254 0.0039716884 0.29011863 0.2582366

lstm.weight_hh_l0_reverse f4 [80, 20]
00000000: 5718 943e 6113 cc3e 6dee bebe 2a66 873e
00000010: 89ff b83d ba7d c4be ef7c 3f3e ac20 553c
00000020: 0677 6b3e 78ba a23e 423e 663e 8768 413e
00000030: a396 b83e 70a8 aebe fe12 cdbc 5187 963e
00000040: b3ef b63e 1632 bb3d 9fe6 c33e 01b1 0e3e
00000050: 1ca4 c03e dce5 ae3e 95d9 f4be e557 193d
00000060: 165c e43d 59ac e2be fe6a df3e f3b1 ab3e
00000070: 8d54 d93e 6528 a13e 4828 b1bc ca43 973e
00000080: 1ed4 5c3e 5fca bebd f540 64bd e7a7 4d3e
00000090: e9ce 433e c862 81be 2f3d 9f3e e259 463e
000000a0: 2b7f d93d 6642 443e 1626 d93d 4c7c 443d
000000b0: 3bd2 79bb de50 79be fa18 813d 5adb 623d
000000c0: aff6 343e ef64 8e3e 9386 693e 4df3 863e
000000d0: 2ac3 763e 58eb b0be a13b 64bc aebd 9b3d
000000e0: a5d6 963e a590 23be f43c a93b 5e0e 863e
000000f0: 743c 51b9 4787 21be e344 05be 4895 4b3e
00000100: 2d8b 1d3e a734 9b3d cf59 3b3e 746e 653e
00000110: 82d5 aabd 66cc 4d3e 429c 193d ecd7 d1bd
00000120: 3281 9dbd 500a 34bd b4d9 81bc 0c17 af3a
00000130: 1da6 973d 5cbb ca3d 7ba6 1cbe a0c3 7fbd
00000140: b0a6 033d d453 c4bc 5d36 9fbe 1483 f23d
00000150: c1a6 673e 6224 acbe 89a1 ac3d 2c8f fa3d
00000160: e0ef b13e 4aa5 633e cfcb 3d3d 94c2 2c3e
00000170: 02db 713e 852f 58be 940b 4b3d 3119 a33d
00000180: 0644 913e baf9 23be 7e5a 223e c28e 8b3c
00000190: a39f d93e 2441 763e c042 7ebe 5b9b 973e
000001a0: 5c32 b03d 96b7 9bbe a0f2 dc3d 738b 8b3e
000001b0: c5eb 403e a89e 673e e72c efbd 7a43 bf3e
000001c0: 3347 4a3e 7110 be3c 2a50 37bc 500f e93e
000001d0: 3b4e 983e dd56 31be d4bb a63e 380a 983e
000001e0: d5b7 74be 5fcd 97bc b176 78bc 2374 f9bd
000001f0: dc50 343e 8a04 503e dce9 21be fe41 143e
00000200: d1dc 1d3e c755 d73d 4c75 d1bd 5dda 1ebc
00000210: 4968 50be ba6a 403d ad61 1abe 8207 c33c
00000220: 545e a03d af6e 45be 65f3 5dbe 7fdf 33be
00000230: bf01 443e 8655 1e3e 1173 41be 93b8 aa3d
00000240: 306b eebd b11d f93d d743 97bd 47db 0b3e
00000250: 846a 62bd a566 8c3e f0b2 a93d a22f da3c
00000260: 3675 3e3e f9a4 e73c be6e 30be 97a4 563e
00000270: 2f5f 333e 805b f13d fe28 3b3e ee52 f6bc
00000280: 8887 823e 6456 1c3e 30c8 e4be ac34 313d
00000290: b73b 8c3e 77a7 59bd 4e8a 563e 4ba8 553c
000002a0: 3690 123d 484d 403d 9c57 fe3c 1584 c73e
000002b0: 20ef 283d 4528 a6be be00 94be 372f 613e
000002c0: 1b75 7a3e d5ae ac3c 11af 893e 21f4 c33e
000002d0: 5118 873e 02df 673d 8b2e c3be 2149 c53e
000002e0: 8091 ea3e 5690 67be c3a4 a23e aa19 323e
000002f0: d06f 933e d254 e93e b491 753c 9471 c43e
00000300: ef13 613d f2fa 94be f854 e5be d033 bd3d
00000310: 8bcf de3e 04f3 25be 917e 383d ccd8 703e
00000320: 4777 9a3c a1bd 083e 8db0 aabd 01e3 05bd
00000330: babc 1a3e 44c4 6cbd 0baf 273e 707c 713e
00000340: 86b2 e3bc 5b28 bb3d 64f2 4cbe ae40 2dbe
00000350: e8f5 323d 6a45 2bbe 617a 94bd 1a8b 3a3d
00000360: 21d8 203e db20 143e 19e3 a0bd eecc 3f3a
00000370: d576 df3e 45a1 693e 59c8 e2be 37b4 abbc
00000380: 4a23 413e 0c42 d3bd 61ce 4f3e 3482 cd3e
00000390: 82af 833c 9594 a03e dfa7 643e 239e 233e
000003a0: e3eb 863d 61d8 96be 9953 96bd fe12 943e
000003b0: e94d a13e e4ab 24be 3bce ae3e e4d1 d13e
000003c0: 2118 923e 00a9 073e d465 cebe b7cf 003e
000003d0: 0b89 cb3e 6bc9 49be a6e9 353d 4434 843d
000003e0: 99b5 053e 56f5 4b3d 08c1 403e dcdb 6d3e
000003f0: ca81 993e 101f e9bd a994 8b3c 65b8 2b3e
0.2892482 0.39858535 -0.3729128 0.26445132 0.090331145 -0.38377172 0.18700002 0.013008278
0.22994623 0.3178289 0.22484687 0.1888753 0.36052427 -0.34112883 -0.02503347 0.29400113
0.3572975 0.091404125 0.38261887 0.13934709 0.37625206 0.34159744 -0.47822252 0.03743734
0.111503765 -0.44272116 0.43636316 0.33534202 0.4244732 0.3147613 -0.021625653 0.29543906
0.21565291 -0.09315943 -0.05572601 0.20083581 0.19121899 -0.25270677 0.31101367 0.19370225
0.106199585 0.19165954 0.106029674 0.0479701 -0.0038119692 -0.24347255 0.06303592 0.05538497
0.17672227 0.2781138 0.22805242 0.263575 0.24097887 -0.34554553 -0.013930232 0.07604538
0.29460636 -0.15973146 0.005164737 0.26182836 -0.00019954314 -0.1577426 -0.1301456 0.19881165
0.15385123 0.07578402 0.18295978 0.22405416 -0.08341505 0.20097503 0.037502535 -0.10246262
-0.07690658 -0.043955147 -0.01585088 0.0013358309 0.074047305 0.09899017 -0.15297882 -0.062442422
0.032141387 -0.023965754 -0.31096163 0.118414074 0.22622205 -0.33621508 0.08429248 0.12234339
0.34753323 0.22231022 0.046336945 0.168711 0.23618701 -0.21111877 0.04957159 0.07963789
0.2837221 -0.16013232 0.15854833 0.017035846 0.42504606 0.24048287 -0.2483015 0.29610714
0.08603355 -0.30413502 0.107884645 0.2725483 0.18839939 0.22619116 -0.11678486 0.37356168
0.19753723 0.0232012 -0.011188546 0.45519495 0.29747185 -0.17318292 0.32565176 0.29695296
-0.23898251 -0.018530546 -0.015165017 -0.121803544 0.1760897 0.20314232 -0.15811867 0.14478299
0.15416266 0.105144076 -0.10227451 -0.009695617 -0.20352282 0.046976782 -0.15076323 0.023807291
0.07830492 -0.19280504 -0.21674879 -0.17565726 0.19141291 0.15462312 -0.1889155 0.08335986
-0.11641538 0.12163866 -0.07385986 0.13657866 -0.055277362 0.27422062 0.08286083 0.026634041
0.185994 0.028276907 -0.17229745 0.20961224 0.17516778 0.1178503 0.18277356 -0.03006884
0.25494027 0.1526733 -0.4468398 0.043263122 0.2738931 -0.053138223 0.20951197 0.013040612
0.03578206 0.0469487 0.031047635 0.38967958 0.041243672 -0.32452598 -0.28906816 0.21990667
0.24458735 0.02107946 0.26891378 0.38272193 0.2638574 0.05660916 -0.38121447 0.38532355
0.45814133 -0.22613654 0.31766328 0.17392603 0.28796244 0.45572525 0.014988352 0.38367903
0.05495065 -0.29097706 -0.4479139 0.09238398 0.43517718 -0.16205984 0.045042578 0.23520201
0.018855704 0.13353588 -0.08334456 -0.03268719 0.15111056 -0.05780436 0.16375367 0.23582625
-0.027795088 0.091385566 -0.2001434 -0.16919205 0.043691546 -0.16725698 -0.072499044 0.045542814
0.15707447 0.14465658 -0.078558154 0.00073166087 0.4364535 0.22815426 -0.44293478 -0.020959957
0.18861118 -0.10315332 0.20293571 0.401384 0.0160749 0.3136336 0.22329663 0.15978293
0.065879606 -0.2946196 -0.07340164 0.2892074 0.31504753 -0.16081196 0.34141716 0.40980446
0.28534034 0.13248062 -0.40312064 0.12579237 0.39752993 -0.19705741 0.044412278 0.064552814
0.13057555 0.049794517 0.18823636 0.23228401 0.29981834 -0.11382878 0.01703866 0.1676956

combined_linear1.weight f4 [20, 42]
00000000: b93d 64bd 2738 c93d 4d75 4a3d 5d6b 0b3e
00000010: 62ee eebd cee2 11be 9d9c 0dbe 0405 76bd
00000020: c9ba b2bd a734 e3bb d35b 1d3d 403f 053e
00000030: 5117 3d3d c1f3 d43d 9542 df3a 9ec2 f53d
00000040: e288 c63d 76b4 f7bd d91f 0a3d 1452 d53d
00000050: 9c21 d63d efcb 663d f39a e83d c7fd cfbd
00000060: ab73 eabd 337b 083e 519b 703d b882 82bd
00000070: 48b7 91bd e633 dabc e8dc f6bc 0e0d b3bd
00000080: 42c5 273d 08b9 f5bd fa1e d4bc fdb8 163e
00000090: bf0c 07bc 013c fabd a57b 97bd ed48 183e
000000a0: 6dc4 d8bb a498 e2bd 95c0 0bbd e069 c7bb
000000b0: d6c9 d0bd f96b a0bd 00ea aabd d0ce 70bc
000000c0: 2f7b dd3d 544c 23bc 5c79 7a3d c843 07be
000000d0: 936e f23d aa9c fcbd 6e09 0a3e c57e f03d
000000e0: a687 1b3d 88ba bcbd 16aa 11bd ab91 60bd
000000f0: acf5 10be d4a6 06bc dd37 e9bc 5ceb fb3c
00000100: 03d6 e33d 0f40 593d 255f 07bd 4454 f4bd
00000110: e999 8d3c 8e7e 913c 1e3c f4bd d6a6 0b3d
00000120: 57bf a7bd e57b c3bd ce67 913d d0c9 403d
00000130: adef 503d 128c 173e 08f4 cdbd 45e7 4e3d
00000140: 3193 003e 5bff 15be e7af a33d cc7d 033d
00000150: 4941 03be 1c48 c1bc 6393 a9bd 94b8 eebc
00000160: b549 d73d a34d 64bc 1b09 493b 9d8b 1a3d
00000170: ddb6 513d 1226 2bbd 0381 093d d05a 04be
00000180: 4185 a43d 44c8 ba3d c174 163e e95c d6bc
00000190: 682f a33d f4de a43d 46e9 923d cb44 dd3d
000001a0: ed55 683c c7f7 fcbd def5 0abc c82d 003e
000001b0: 7808 c23d b80f e63d 6781 b23c 55b4 3a3d
000001c0: b802 e93d 4b28 b9bd 9254 c1bd c3b3 c63c
000001d0: 53e7 2c3d b100 183e 8425 bb3d 3849 a83d
000001e0: 4e09 9abd ee35 56bd eccd 6b3d 250f afbd
000001f0: 7c03 933d 073e 193e f3a0 393d 6f00 0f3f
00000200: 4121 4abe ca62 06be d5ce b53d 1d2e a43d
00000210: 6eb8 47bd dbca 493d 9669 05be 3f94 27be
00000220: 4e50 f2bc 8d76 953c c137 373d a3e2 1fbe
00000230: 19c1 8d3c 64f2 8f3c 535d 98bd 638b 49bc
00000240: 2875 91bd fafa 533d 7ea6 823d 43f1 9cbd
00000250: 8381 95bd e081 0bbd 4eb7 9c3c fd09 d43c
00000260: ecc7 c0bd 486f b23d 1a4f 55bc 798d 843c
00000270: 3b0e 4fbe 8e34 8dbd 5d11 803d 94c0 39be
00000280: fae8 d93a b93e a53c 618f 8e3d 095c bfbd
00000290: a049 00be 1011 74be fd00 c4bd d4ac 2cbe
000002a0: 757b 503b 7c54 55bf 98b0 0cbb ac35 a9bc
000002b0: 45fc ce3d ae03 aa3d 87ee e83c cf80 363e
000002c0: bf67 243e 0408 e4bd 5677 07be b999 41bd
000002d0: e1e7 20be 54b2 9f3d 1526 cd3d 2989 9bbd
000002e0: 34a0 923d 88fc f9bd 5437 f2bd 2a2c 8f3c
000002f0: b3f4 63bd fb6a 06bd 9a20 dc3d d769 ed3d
00000300: 9171 593e dbfd 5ebd 8269 53bd afd3 f73d
00000310: 2e80 c9ba 0fea 5ebd 2daa 08bd 11d0 46bc
00000320: ca64 38bd d6c0 1ebd d1f3 563e ef0f 363e
00000330: af3c 2a3d 7e82 c33b 74eb 323e 3de1 813d
00000340: 382a f13d 95a6 0d3d 2ad1 dabd 727d 08be
00000350: 1ec1 bf3d 715b c63d a308 c6bc e347 eebd
00000360: 03f3 7d3d 7543 073e 3a71 153e d13a 60bd
00000370: beab 1cbd 4e9a f83d 4d04 efbd f733 ebbd
00000380: b1b7 8bbd 9e22 fe3c 6529 d1bd 8236 97bc
00000390: a04c f5bd 2426 8f3d 70ec 9abb 29c5 fbbd
000003a0: 3a1c f13d d3b3 763c 7625 2ebd 6076 c73b
000003b0: 9259 d73d fe03 07bd 4b54 253d dc40 5abd
000003c0: b16b a3bc 5bc6 0a3e 1a01 1cbb 4fd2 1cbe
000003d0: 8720 de3d 3d4c c0bd 0e8b d53b 01c0 ffbd
000003e0: 45d5 c03d 59e2 153e ae80 6e3d d454 a9bc
000003f0: 379a 90bd 94ad c8bd c8ce e13c 4bbb 0f3d
-0.055722926 0.09825163 0.049428273 0.13615175 -0.11666562 -0.14246675 -0.13829274 -0.060063377
-0.08727033 -0.006933767 0.03841765 0.13012409 0.046164814 0.10398055 0.0017033393 0.12000011
0.09694077 -0.12094967 0.03372178 0.10416046 0.10455629 0.05634683 0.11357679 -0.10155826
-0.11447843 0.13328247 0.05874187 -0.06372589 -0.07115036 -0.026636075 -0.030134633 -0.08742724
0.040959604 -0.119981825 -0.025893677 0.14719005 -0.008242785 -0.12218476 -0.0739663 0.14871569
-0.0066152127 -0.1106427 -0.034119207 -0.0060856193 -0.10194747 -0.07833094 -0.08345413 -0.014697745
0.10814511 -0.0099669285 0.061150894 -0.1320945 0.118374966 -0.12334569 0.1348016 0.11742929
0.03797116 -0.092152655 -0.035562597 -0.05482642 -0.14156216 -0.008218486 -0.02846902 0.030751877
0.11124804 0.053039607 -0.03304972 -0.11930135 0.017285304 0.017760541 -0.11925529 0.034094654
-0.08190792 -0.095451154 0.07099877 0.047067463 0.051009823 0.14799526 -0.10056311 0.050513525
0.12556149 -0.14648192 0.07992535 0.03210239 -0.12817873 -0.023593955 -0.08280065 -0.029140748
0.105121054 -0.013934526 0.0030675593 0.0377308 0.051199783 -0.041784354 0.0335703 -0.12925267
0.08033229 0.09120229 0.14692976 -0.02616735 0.079680264 0.080503374 0.071733996 0.10804137
0.014180643 -0.12351947 -0.008481471 0.12517464 0.094742715 0.11233467 0.02179022 0.045582134
0.11377472 -0.090408884 -0.09439959 0.024255639 0.042212795 0.14844014 0.09138015 0.0821709
-0.07521306 -0.052297525 0.05756943 -0.085478105 0.07178399 0.14965068 0.04531951 0.55860037
-0.19739248 -0.13123623 0.08877341 0.08016608 -0.04875987 0.049265724 -0.13028559 -0.16365145
-0.029579308 0.018245006 0.044730905 -0.15613799 0.01730399 0.017571636 -0.07439675 -0.012301299
-0.07102424 0.05175302 0.06379412 -0.076632045 -0.07300093 -0.034059405 0.019130375 0.025883669
-0.09413132 0.087126315 -0.013019348 0.01618074 -0.20220272 -0.0689479 0.06253312 -0.18139869
0.0016625219 0.02017151 0.06960941 -0.09343726 -0.12528086 -0.23834634 -0.09570501 -0.16862804
0.0031811867 -0.8333204 -0.0021467563 -0.020655476 0.1010671 0.08301483 0.028434051 0.17822574
0.16055201 -0.11134341 -0.13229117 -0.047265742 -0.15713455 0.07797685 0.10017029 -0.075945206
0.071594626 -0.1220637 -0.11826959 0.017477114 -0.055653285 -0.03281687 0.10748406 0.11592453
0.21234728 -0.054441314 -0.051614292 0.12100922 -0.0015373284 -0.054422434 -0.033365417 -0.012134568
-0.045017995 -0.03875812 0.20991446 0.17779516 0.04156178 0.0059664836 0.1747263 0.06341789
0.11775631 0.034582693 -0.10684426 -0.13329104 0.09363006 0.0968541 -0.02417404 -0.11634805
0.061999332 0.13209327 0.14593974 -0.05474359 -0.038249724 0.12138806 -0.11670742 -0.11484521
-0.06822146 0.031022366 -0.102129735 -0.018458609 -0.11977506 0.069896966 -0.0047278926 -0.12293465
0.11772962 0.015057522 -0.042516194 0.0060871094 0.10515131 -0.03296279 0.04036359 -0.05328451
-0.019948812 0.13552229 -0.0023804368 -0.15314601 0.10846048 -0.09389541 0.0065168208 -0.12487794
0.09415678 0.14637126 0.058228187 -0.020670332 -0.07060664 -0.097987324 0.027564421 0.035090726

combined_linear1.bias f4 [20]
00000000: 0919 c4bd 7107 a43d e229 a0bd 209b 83be
00000010: 0764 843e 4500 f1bd e3ec 8d3a 7465 0fbe
00000020: 288c 313e 9da6 12be 1ab0 9c3d 26c6 1c3c
00000030: 36fa 1cbe 4e56 283d a134 053e 8b6a a2bc
00000040: cb02 1bbe bfb3 67bc 7957 b1bd b58e 0abe
-0.095750876 0.08009232 -0.078204885 -0.25704288 0.25857565 -0.117676295 0.0010828044 -0.14003545
0.17338622 -0.1432137 0.07650776 0.009568727 -0.15329823 0.04109793 0.13008358 -0.019826194
-0.15137784 -0.014141976 -0.08659262 -0.13531001

combined_linear2.weight f4 [20, 20]
00000000: a22b 0bbe e541 053e 9bce b4bc 179b 913e
00000010: 444a 8bbe 082f 9b3d 5f0a 35be 1335 a9bc
00000020: d9c2 b5bd 70c4 113e 6c11 0f3e ebbc 45bd
00000030: 3686 14bc f505 c83b a102 403e 0e16 c83a
00000040: c091 0a3e b086 05be e725 533e c2e3 013e
00000050: 0da2 593e 63fd 4d3e 50ee 2abd 95e8 183e
00000060: 3770 95be ceee 86bd cec9 20be a9a4 7a3d
00000070: 8dde 2e3d dd99 483e 9557 a03d 1806 89bd
00000080: 949e 5ebd 1716 da3c 40ee d43c bea8 b93c
00000090: fb84 59be 528b b03d a685 4bbe e994 4c3e
000000a0: 78de 0dbd a2b4 debc 2429 2abe 38fb 63bd
000000b0: 23d4 a8bd 5910 453e c0e8 033e a946 0dbd
000000c0: 1d5b 88bc dd1d f4bd dfe4 2dbc a9a6 d13d
000000d0: 34f0 433e 9e03 ddbd bdb9 bb3d 4c8e 46bc
000000e0: f93c e63d e206 663d 7c43 2bbe 9111 de3c
000000f0: d02a 61bd 1e2d 1f3e 912f d2bd 1e5b 253e
00000100: b149 cdbe 048b 7dbd 12a6 56be e48c 8e3d
00000110: 3a1e 01be 5db8 52be 554b f7bd 796c 0a3e
00000120: 0161 183e dd09 453e b444 913d 9d65 2f3d
00000130: af13 a33d 8e8a 13be 8ea3 fd3c 695f a8bd
00000140: 4b5c bebd f5f0 0dbe 189c 31bc bdf2 273e
00000150: f005 6abe d97e 1c3e 5590 533d 150a 4cbe
00000160: 25fa ea3d 6a06 e5bd c008 52be 813e 78bc
00000170: f04a 47be c071 363e 2a86 fc3d 3646 a03d
00000180: ce50 e43d b895 b6bc cba2 9c3d 9a3b 7abd
00000190: 1dbc 8b3c 2467 3dbe 3d44 ad3d e777 f53d
000001a0: e4c9 0c3d 4879 1e3e c484 2bbe 3fa5 5e3e
000001b0: 5b48 2dbe f087 ae3c c1b2 44be d162 7bbc
000001c0: 3ad8 243e 1097 6dbc 2193 393e b0c6 7c3d
000001d0: 6885 53be ac2b 29be 3b11 4abe ebf7 e23d
000001e0: 1ff3 a2bd fc61 32bd db84 2f3e 9c7d 853e
000001f0: 563a 21be bc66 123e 5644 f2bd f2c2 9c3d
00000200: d564 dabd 5269 673d badd f1bd 88c0 dabd
00000210: 4731 fdbd 25dd 42be a74e ed3d 50ec cf3d
00000220: 962b 723d f95d 1d3e 5e08 403e 0017 c43d
00000230: 0935 fbbc 2260 173e c67e c7bd e2f8 b6be
00000240: 81a6 873e 3cc9 253e f651 5a3c 5ff3 cbbc
00000250: dd6e 063e 62cf 3f3c bc5d fd3c ab6f 683d
00000260: 2468 393e 5fb0 913d 1f33 ddbd 0401 0f3e
00000270: c214 1dbe be9f 0cbc abe1 5abe 429c fc3d
00000280: b4f7 163e 3569 d639 cdae 44bd 18c2 563e
00000290: 4251 8fbe 456d 323e 694b 893c 110d 233d
000002a0: f925 2bbe facf 8dbd 786b a63d e701 a93c
000002b0: d48a 253d c7c7 88bd ef4d c33d 8563 a13d
000002c0: 9b9c 0fbe 886d 23bd 364c 9bbd 151a b9bd
000002d0: 3c49 c93c 7c3c c63d 3887 14bc 7cd0 74bd
000002e0: fa2c 0f3e b8f8 1c3e 3538 58be 4423 9cbd
000002f0: 08c4 64be d780 cebc 3822 5abd 5fb5 36be
00000300: 6f89 c63c 7b2c 973d 5f5f 53be 57c6 093d
00000310: 7b00 d1bd 9df4 c8bd eec7 1e3e 5aac 473e
00000320: 598c 28be 24e3 2ebd 6c39 2dbd e590 083e
00000330: c032 42be d0ca 0a3d 0124 393d 9ed0 0abe
00000340: 286b cf3d 7c48 e93d ed35 79bd 76cc 403e
00000350: ca65 abbd eee0 03be d88a 4ebd 1b95 f6bd
00000360: e8d0 ef3d d05c cf3a 4828 1f3e 8e96 cdbc
00000370: bf13 093e 3824 16bb 1b1c 6ebd 51d7 76be
00000380: 45c3 0b3e a1fb 5fbd 90ac 963c d28e 9ebd
00000390: e95e 153e e2c3 1abe 9af6 ef3d 4630 193d
000003a0: cb9a 613e 7f2d 61bc 4c8d c13d 0617 46be
000003b0: c39d 91bd 6b9f 2c3e 8c86 c1bd c8b6 dcbd
000003c0: 4712 9e3d 865a 9bbd b49d 393e bab6 2bbd
000003d0: 5f06 533e 2cb8 d7bc 2818 2bbe 2843 7cbe
000003e0: 5f82 d83d 594c 12be e6f3 a83d 47cd e2bd
000003f0: 3360 a33d 33a7 33be 6577 5e3d a5b0 4fbe
-0.13590863 0.13013418 -0.022071173 0.28438637 -0.27205098 0.0757733 -0.17679738 -0.02065519
-0.08875055 0.14235091 0.1397149 -0.04827587 -0.0090652015 0.0061042258 0.18751003 0.0015265362
0.13532162 -0.1303966 0.20619927 0.12684539 0.21253224 0.2011619 -0.04173118 0.14932473
-0.29187176 -0.06588517 -0.15701982 0.06119219 0.04269271 0.19589944 0.07829205 -0.066906154
-0.05435045 0.026621861 0.025992513 0.02266347 -0.21242134 0.08620323 -0.19875202 0.1997868
-0.03463599 -0.027185742 -0.16617256 -0.055659503 -0.08243587 0.19244517 0.12881756 -0.034491215
-0.016645009 -0.119197585 -0.010613649 0.10236866 0.19134599 -0.107917055 0.09166286 -0.012118887
0.11242098 0.056158908 -0.16724962 0.027107986 -0.05497247 0.15544555 -0.10262979 0.1614804
-0.40095285 -0.061900154 -0.20961788 0.069604665 -0.12609187 -0.20578142 -0.12074915 0.13517942
0.14880754 0.19242044 0.07093182 0.042821515 0.07962739 -0.14408323 0.030961778 -0.08221323
-0.09294947 -0.13861449 -0.010840438 0.16401191 -0.22853827 0.15282764 0.051651318 -0.19925721
0.114734925 -0.11182864 -0.2051115 -0.015151621 -0.1946218 0.1781683 0.12330277 0.07825892
0.11148225 -0.022288188 0.07648238 -0.061091997 0.017057473 -0.18496376 0.08460281 0.1198576
0.034372225 0.15475953 -0.16749865 0.21742724 -0.16922133 0.021305054 -0.19208814 -0.015343384
0.16098109 -0.014501348 0.18122531 0.06171292 -0.20656359 -0.16520566 -0.19733135 0.11082443
-0.07956528 -0.043550476 0.17140524 0.26072395 -0.1574491 0.14297003 -0.1182944 0.0765437
-0.106637634 0.056496926 -0.11809869 -0.10681254 -0.123629145 -0.19029672 0.11587267 0.10152495
0.059123598 0.15367879 0.18753192 0.095746994 -0.030664938 0.14782766 -0.09740977 -0.35736758
0.2649422 0.16190046 0.013325205 -0.024896322 0.13128228 0.011707159 0.030928485 0.05674712
0.18106133 0.07113718 -0.10800766 0.13965231 -0.1533995 -0.008583007 -0.21375148 0.12334491
0.14742929 0.00040895646 -0.048018266 0.20972478 -0.27991682 0.17424496 0.016759591 0.039807383
-0.16713704 -0.06924434 0.08125967 0.02063079 0.0404156 -0.066787295 0.09536349 0.0788031
-0.14024584 -0.03989938 -0.075828955 -0.09038178 0.024571054 0.09679505 -0.009065442 -0.05976914
0.13982001 0.15329254 -0.21115191 -0.07623914 -0.22340405 -0.02520792 -0.05325529 -0.17842625
0.024235455 0.07381531 -0.2064185 0.033636417 -0.1020517 -0.09812281 0.15505955 0.1949934
-0.16459788 -0.042697087 -0.04229109 0.13336523 -0.18964672 0.033884823 0.04520035 -0.13556144
0.1012786 0.113907784 -0.060842443 0.18827996 -0.08369024 -0.12878773 -0.05042538 -0.12040158
0.117097676 0.0015820507 0.1554271 -0.025096204 0.13386439 -0.0022909772 -0.058132272 -0.24105574
0.13648708 -0.05468333 0.018392831 -0.077420846 0.14586987 -0.15113786 0.117169574 0.037399553
0.22031705 -0.013743757 0.09450778 -0.1934472 -0.07110169 0.16857688 -0.09449491 -0.1077705
0.0771833 -0.07585625 0.18126565 -0.04192231 0.20607899 -0.026332937 -0.16708434 -0.24634993
0.10571741 -0.14286937 0.08249645 -0.1107431 0.07977333 -0.1754425 0.054313082 -0.20282228

combined_linear2.bias f4 [20]
00000000: a499 5b3d 1fdd e2ba 1dcd 88bd 5f41 9b3d
00000010: 0617 ffbc adfe 96be 5314 b3bd ea7f 643e
00000020: bd5a c5bc e38c 16be 2548 7ebd c67b 783e
00000030: f0b9 923e f487 17be 7586 4cbe 356c 72be
00000040: 7817 8c3c dd12 e2bb 41a0 f4bd e5dc 793e
0.05361332 -0.0017308331 -0.06679747 0.07580828 -0.031138908 -0.29491177 -0.08744111 0.2231442
-0.024091119 -0.14702182 -0.06208052 0.24265966 0.28657484 -0.14797956 -0.19973166 -0.2367409
0.017101035 -0.0068992213 -0.119446285 0.24400671

final_linear.weight f4 [1, 20]
00000000: fc4a 313e eef2 123e 83a1 a23d d269 623e
00000010: 344d 37be b84d 473e dcbe 3e3e 6e91 87be
00000020: adae 9b3e fa61 39be 5032 2a3c aade 75be
00000030: 3cba a6be e12f 1f3e e362 53bd a84d 1abe
00000040: 84c7 a23d caf7 883d c3e4 a43c 1af7 b5be
0.1731376 0.14350483 0.07940962 0.2211068 -0.17900544 0.19463241 0.18627495 -0.26478142
0.30406705 -0.18103781 0.010387972 -0.24010721 -0.3256396 0.15545608 -0.051607978 -0.15068686
0.07948211 0.06687887 0.020128613 -0.35540086
