family-EHR-graphs/results/A5_TestDisease_model.pth (torch, 35758 bytes, 9 tensors)

lstm.weight_ih_l0 f4 [80, 20]
00000000: 2cb5 203e 1312 083e 890a e83d 0cda 0cbe
00000010: 98b7 573e 32df f13d 9096 863d e8c6 7739
00000020: 77b4 7abe a8aa 1b3e bb96 d4bd dce3 31be
00000030: 187e 423e 01c7 da3c dc90 81be 2397 3ebe
00000040: 3d25 fb3c 1353 0dbe 5f3a aabc 12b6 ed3c
00000050: f2db 8c3e d057 5cbd 2e59 a63e 98f8 af3d
00000060: 04f5 e93d b62d 833e 89ed dbbd c023 d1bd
00000070: 743f 26be 60f4 bd3d 2df2 72be 7af7 edbd
00000080: 939e 12be 8f73 b4bd 5161 bfbd 1e75 9bbe
00000090: 0f78 0d3e fbae dd3d c822 13be 09da 87be
000000a0: f9db f1bd 1771 8bbd 7fe0 373e 9317 6b3e
000000b0: 7de3 033e ea6b 813e 1db6 2dbe 3f10 283d
000000c0: 09ec 9a3e 076f d0bd 735c 6a3e 73ab 92bd
000000d0: f70f 6fbe 51bf 663d eee8 80bd d2fd 9e3d
000000e0: 8003 8d3e ee6b 873e f67c 3fbe 4ef3 133c
000000f0: e21f 2c3e 009d 773b 02ac 8e3e 1783 01be
00000100: c1a5 7bbe 19b7 c6be e161 47be 1a35 7fbe
00000110: f0dc 61be dbf6 fdbd ca0a 1f3d b271 253c
00000120: 9284 543b cfcd 68be b512 35be 0db9 8cbd
00000130: d970 073e 7fb7 86be f7b7 17be 4105 fcbd
00000140: c770 97bd 4e9e 16be 0fc7 27bd 8add cd3d
00000150: 2ee8 e83d 0ef7 5f3e 898f 333e 92df fabb
00000160: 9e16 66be 4fc4 f1bd 6c76 213e 8814 043e
00000170: fa14 93bd fb23 cc3c 5960 4e3d 73f4 833d
00000180: 12bd 07be d486 20be 840c ee3c c6f4 ccbd
00000190: 8c84 57bd 1274 e3bb e40a a1be 148d 063d
000001a0: 50a4 89bd d867 5cbd 64cf 313e 0870 0e3e
000001b0: 2856 f2bb 56cb b2bc 1635 183e 11bc e3bd
000001c0: a033 183e 7484 a03d dd77 eabd 750d 4ebd
000001d0: 38a6 943d 9b91 d33c 883b 653e 9eed 87bc
000001e0: a20a 893e 4fd1 13be 9057 9dbd f202 573e
000001f0: 64e0 34be e6af 543e 49ef d93d bcfc 2fbe
00000200: a877 a9be d473 4ebd b340 21be 81d0 213e
00000210: 8123 8abe 6b40 483d 36bc 853d 0c96 d2bd
00000220: 7e3b 083e d8cb cdbd 4751 af3d 39fd 003e
00000230: 3a43 08be 1f61 74bb f766 b7bd 37c2 92be
00000240: e62f ad3d 233b 6f3e 8ae8 973d b672 63be
00000250: 9718 9fbd 3d4a 213e e50a 87bd eba7 c5bd
00000260: 6e4f 2d3e a682 1f3d 0437 5e3e 7700 3ebe
00000270: 0798 76bd 756b 33be 43be 1d3c 2088 e63d
00000280: 0526 9abd ceea 3c3d 768f 5ebe 22c9 b0bd
00000290: 2909 f63d dc84 043e 22cb 823e b67f bc3d
000002a0: 0951 c8bd 9b98 8d3e 74a9 05bd afdd 7f3e
000002b0: e6d8 04be 393f 513e 1788 483e 99f3 b4bd
000002c0: 332e 023e aa74 d4bc 1952 3bbd 7884 edbd
000002d0: a021 2ebe d381 fd3d 8e6d 1bbd 95b3 88bc
000002e0: 98b1 ac3d 4f08 213e 61d5 7bbd d8b3 bd3c
000002f0: 378a 56be 9aad 8dbd a945 323d 6762 9a3d
00000300: 103a d8bd 4b8c 653e 026e 1cbd b92d 2c3e
00000310: 5d55 9abd e20d 92ba 9eba 4c3e 57ed 353e
00000320: 8a53 493d ca44 cc3d 52e7 423e bb77 a6be
00000330: 199d 45be 5d03 13be e6c0 98be 72dc 723e
00000340: b397 03be bd9e 99be 901a 223e a22d 403d
00000350: 0352 cabe ee4b aa3d 841b 393c 06a2 0dbe
00000360: d0c4 99bd d7f2 ee3c cda1 523d 4a27 963d
00000370: 6699 7abe 4a72 043e 8809 adbe 1e62 cb3d
00000380: 5d58 4c3e 31cf 72bd 200f 493e 9d6a 8bbd
00000390: c89e 05be b5ca 91be efd6 a3be f1e7 23be
000003a0: 8430 b3be ac15 d4bd b192 0d3e 2091 bdbd
000003b0: 7e11 203e 644f 9a3d bc99 e13d d906 aa3d
000003c0: 9eeb 8cbe b591 36be 9901 893d df8a 2e3e
000003d0: 7c4c 1d3e 9b22 47be 835d b2be 6aaa 0e3d
000003e0: 663e 5c3c 68e1 2f3e d246 cb3d a77b 4f3e
000003f0: 3f24 cd3c 1eca 433e fae7 cebd 7c39 b23d
0.15694112 0.13288145 0.113301344 -0.13755053 0.21066129 0.11810149 0.06571686 0.00023629854
-0.24482904 0.15201819 -0.10380312 -0.17372078 0.18993413 0.02670622 -0.2530583 -0.18612342
0.030657405 -0.13801222 -0.020779787 0.029017482 0.27511555 -0.053794682 0.32489914 0.08592337
0.11423686 0.25620812 -0.107386656 -0.10211897 -0.16235143 0.092751265 -0.23725195 -0.11619468
-0.14318304 -0.088111036 -0.093447335 -0.3036279 0.1381533 0.108243905 -0.14368737 -0.26533535
-0.118095346 -0.068086796 0.17956732 0.22958212 0.12879749 0.25277644 -0.16964002 0.04103112
0.30258206 -0.10177427 0.22886829 -0.071616076 -0.23345934 0.056334797 -0.06294428 0.07763256
0.27541733 0.2644953 -0.18700013 0.009030176 0.16809037 0.0037782788 0.27865607 -0.12647663
-0.24574949 -0.38811567 -0.19470932 -0.249226 -0.22056937 -0.124005996 0.03882865 0.010097908
0.003242765 -0.2273476 -0.17682917 -0.06871233 0.13226642 -0.2631187 -0.14816271 -0.123056896
-0.073945574 -0.14708826 -0.04096132 0.10052021 0.1137241 0.21871588 0.17535223 -0.007656046
-0.22469565 -0.11805021 0.1576783 0.12898457 -0.07181735 0.0249195 0.050384853 0.06443109
-0.13255718 -0.15676433 0.029058702 -0.10007624 -0.05261664 -0.006941327 -0.3145362 0.032849386
-0.06720793 -0.05380997 0.1736427 0.13909924 -0.0073955245 -0.021825474 0.14864 -0.11119855
0.14863443 0.078377634 -0.11448643 -0.050305802 0.07258266 0.025826266 0.2238599 -0.016592797
0.26765925 -0.14435314 -0.07682717 0.20997217 -0.17663723 0.20770225 0.10641343 -0.17186254
-0.33099103 -0.05040343 -0.15747337 0.15802194 -0.26980212 0.04888956 0.06530039 -0.102825254
0.13303944 -0.10048646 0.08560424 0.12596597 -0.13306895 -0.0037289334 -0.08955186 -0.286638
0.084564015 0.23362403 0.074174 -0.22211727 -0.07768362 0.15750976 -0.06593875 -0.096511684
0.16924831 0.038942955 0.21700674 -0.18554865 -0.06020358 -0.1752146 0.009627881 0.112564325
-0.07526783 0.046122365 -0.21734414 -0.08632113 0.12013466 0.12941307 0.25545603 0.092040464
-0.09781081 0.2765549 -0.032632306 0.2498691 -0.12973365 0.20434274 0.19583164 -0.08835525
0.12712936 -0.025934536 -0.04573259 -0.11597532 -0.17005014 0.12378278 -0.037946276 -0.016687194
0.08432311 0.15725826 -0.06148279 0.023157045 -0.20951162 -0.069178775 0.043523464 0.075383
-0.105579495 0.22416799 -0.03819085 0.16814317 -0.07535813 -0.0011143053 0.19993064 0.17766319
0.049151935 0.09974058 0.19033554 -0.32513222 -0.19298209 -0.14356752 -0.2983467 0.23716906
-0.12850837 -0.3000392 0.15830445 0.04691852 -0.39515695 0.08315264 0.011298064 -0.13831338
-0.07508242 0.02916853 0.051423836 0.073317125 -0.2447258 0.12934223 -0.33796334 0.09930824
0.19955583 -0.059279624 0.19634676 -0.06807444 -0.13048851 -0.28474966 -0.3199992 -0.16006447
-0.34997952 -0.10355696 0.1382549 -0.09256196 0.15631673 0.07534674 0.11015651 0.08302087
-0.27523512 -0.1782902 0.06689758 0.17045163 0.15361208 -0.19446795 -0.3483697 0.03483049
0.013442611 0.1717583 0.09925617 0.20262013 0.025041698 0.1912007 -0.1010284 0.087023705

lstm.weight_hh_l0 f4 [80, 20]
00000000: fb5a 05be b032 bb3d 1579 793d 9a4b b13c
00000010: 1edd 2dbe 5cd8 94bc e7e7 a13e 9014 88bd
00000020: 9737 22be a504 9ebe 1997 07be 14b3 52be
00000030: 6c38 943e 92b2 d83d a527 323d de71 b13b
00000040: e34c 283e d54c 09be 34f0 16be b802 543d
00000050: be2e 98bd bdfa 6fbe c574 95bd 8e44 a83d
00000060: 193e 9fbd a72f c53d 4ec3 a83d 3fe3 d0bd
00000070: f8fd b4bd b6da 43be 30da d43c 561b 5abd
00000080: 16c4 ccbd 0032 5c3c 4d04 063e 2f14 4cbe
00000090: b2ae 35be 2d90 87be 7e5b 653c 24f3 ac3d
000000a0: 0afc fcbc c4c8 43be 9560 113e 0204 23be
000000b0: c2bd a8bd e127 7a3e 408c eebc 4865 75be
000000c0: 2bad cd3d a554 34be eec2 88be 77a1 7cbe
000000d0: 0b29 453c ea9d b63d 51bc 07be 0595 bcbd
000000e0: d83e 073d 238a 2abe 24d3 c9bd 3743 0abe
000000f0: e102 a3be 0972 76be e9cb 803d 7743 85bd
00000100: 29e3 9bbe 887d b0bd 4423 b4bd ce20 bbbd
00000110: 1c51 8bbd cb77 5dbd 01f0 c5bd 8e60 703c
00000120: 9527 6dbd bb24 f93d 579f 88be 16d2 a4be
00000130: a8cf 3abc 3af2 a6be 02c5 283e ecf0 45bd
00000140: e929 293d db8c 25be 0729 57bd fab5 3c3d
00000150: 21c9 91be 191a c93d c22e d73d ff8b 52be
00000160: 3b60 cabe e2d9 393d a786 69be 2409 863b
00000170: 63b2 6a3e 6fb1 26be 90fc a8bd 8eac 64be
00000180: 4cb5 68be 45ba 1c3d ce24 d93d 2ab8 9bbe
00000190: 09d9 9fbd 9730 95be fbc4 1b3e 6d21 41be
000001a0: 0ec6 743d bc44 603e f8d3 ebbd e2e7 52be
000001b0: ea9e b1bd bf94 37be 8e77 35be d16e 26be
000001c0: 72dc 293e ed2b ad3d 8e84 c7bc fac9 cb3c
000001d0: 3a4a 12be 79d5 313d a62c 323e f53f 90be
000001e0: eb15 16be dfd7 023e 6a6b c2bd fdbd 31be
000001f0: ce70 65be f3cc 713e c138 e4bb cbd3 e03d
00000200: 10e1 86bd fdc1 8dbd f3ae 353d 7e5c 81be
00000210: cd94 ed3d 4dab 36be 79b1 813c b6fa f2bd
00000220: 8b53 41be 0784 42be 1250 3f3d 36dc 9b3d
00000230: 1b09 2b3e 6766 13be 2679 673e 0fc4 25bd
00000240: a99f 7bbe 6034 853e a22d c7bd 39ee e53c
00000250: 7b0e 79be 3465 94be 949a 363d 7743 76bc
00000260: 1659 123d be84 b33d ba63 62be f4a0 12be
00000270: 0091 2c3d 9b48 27be 4b89 e63d f528 36be
00000280: 7e10 06bc e35d 8f3e 1e1f b4bd 2cb8 253e
00000290: dac1 d9bd 01bf 66bc 81b2 01bd 3885 12bb
000002a0: 160c 0bbe 4bf5 f1bb 6acd 933d 1497 8a3e
000002b0: 8338 b23d efcb 20be c9d2 a73e f526 a03c
000002c0: 00e6 913e acb2 df3d cd53 4ebe af80 133e
000002d0: 9f5e babc dd35 ae3b d161 ae3e e1f0 113e
000002e0: 880b 8fbe dd3a 983e 9b26 b4bd 6c59 7cbb
000002f0: 831c e9bd 0759 e2bd ec7c a83d 66e4 16bd
00000300: 689a e33d 2994 203e 0553 87be 4f71 95bc
00000310: b5c4 f93d d8f0 54be 11b1 363d 416c 73be
00000320: 9e47 8f3d c6a6 82be e917 f63d ad1b a6be
00000330: 2858 09bd 6ffc 933e 56fa 38bd 508c af3d
00000340: 8194 1bbe bc9b 61be c13d 90be 8abc 8cbe
00000350: 8786 473e b53e 09bb 1231 aebd 2547 a3bd
00000360: 0b81 27be 62de f4bd 2116 903d c6d7 99be
00000370: ecbc 43bd 76c6 76bc a801 fd3d eeb1 8e3d
00000380: e1ad b13c cea8 503d fe86 873d 2f85 dfbd
00000390: 55ce 1dbe ca11 92bd a926 1bbe 2543 34be
000003a0: f7e5 cbbd e4c2 6d3d a2c2 b73d 13e6 c8bd
000003b0: 3def d33b 0ad3 1abe 8082 bcbd 2191 f43b
000003c0: c1e4 32be c032 573d 3503 353e 75ce 7c3c
000003d0: 15d0 48be a9fa 403e 030d 713d 9afa 89bd
000003e0: a57b 2cbe 47b1 bebd b58d c33b 20c4 6bbe
000003f0: bbb6 313e 259f babc aa37 9dbe 57e2 ae3d
-0.13022988 0.09140527 0.06090649 0.021642495 -0.16978881 -0.018169574 0.3162224 -0.06644547
-0.15841518 -0.30862918 -0.13241233 -0.20576125 0.28949296 0.105809346 0.04349484 0.0054151854
0.1643558 -0.13408215 -0.14740068 0.051760405 -0.0743079 -0.23435493 -0.07297663 0.08216201
-0.07775516 0.096282296 0.082403764 -0.10199594 -0.08837503 -0.191264 0.025982946 -0.053248726
-0.09998338 0.013439655 0.13087578 -0.19929574 -0.17742422 -0.26477185 0.013998864 0.08444813
-0.0308819 -0.19119555 0.14197 -0.15919498 -0.082393184 0.24429275 -0.02911961 -0.23964417
0.10042795 -0.17610414 -0.2671122 -0.24670969 0.012033711 0.089168385 -0.13255431 -0.09208111
0.033018917 -0.16654257 -0.09854725 -0.13502203 -0.31838134 -0.24066938 0.06288893 -0.065070085
-0.30446747 -0.08617693 -0.08795789 -0.091371164 -0.0680258 -0.05406932 -0.09664918 0.014671458
-0.057899076 0.12165209 -0.26684067 -0.32191533 -0.011402048 -0.3260668 0.16481403 -0.048325464
0.041299734 -0.16167013 -0.05252936 0.046071984 -0.28473762 0.09819431 0.10506965 -0.20561217
-0.39526543 0.045373805 -0.22805272 0.004090445 0.22919612 -0.16278623 -0.082512975 -0.2233145
-0.2272541 0.038263578 0.10602723 -0.30413944 -0.07805068 -0.29138634 0.15211861 -0.18860407
0.059759192 0.2190122 -0.11515039 -0.20596269 -0.086728886 -0.17927836 -0.17721388 -0.1625321
0.16588 0.08455644 -0.0243552 0.024876583 -0.14286128 0.043416474 0.17399845 -0.28173795
-0.14656799 0.12777661 -0.09493144 -0.17357631 -0.22406313 0.23613338 -0.0069647734 0.10977896
-0.06585896 -0.06921766 0.044356298 -0.25265878 0.11600647 -0.17838784 0.015831696 -0.118642256
-0.18879525 -0.18995677 0.04670722 0.07610361 0.16702692 -0.14394532 0.22604808 -0.04047018
-0.24572624 0.2601652 -0.09725501 0.028067695 -0.2432193 -0.28983462 0.04458101 -0.015030733
0.03572949 0.08765553 -0.22108355 -0.14319211 0.04213047 -0.1633629 0.11256655 -0.17789061
-0.008182643 0.28001317 -0.08794998 0.16183537 -0.106326774 -0.014083625 -0.031664375 -0.0022357237
-0.13578829 -0.0073839775 0.07216914 0.27068388 0.08702185 -0.15702794 0.32778004 0.019549826
0.2849579 0.10922751 -0.20149155 0.14404558 -0.022750197 0.0053164796 0.34059003 0.14252044
-0.27938485 0.2973241 -0.08796426 -0.0038505448 -0.11382391 -0.11052137 0.08226952 -0.03683891
0.11113435 0.15681519 -0.26430526 -0.018242506 0.12195722 -0.20795 0.044602457 -0.23771764
0.06996082 -0.25517863 0.12016279 -0.3244299 -0.033531338 0.2890353 -0.045160614 0.08571684
-0.15193368 -0.22032064 -0.28172114 -0.27487594 0.19484912 -0.0020941917 -0.08505453 -0.07972554
-0.1635782 -0.11956479 0.07035471 -0.30047435 -0.04778759 -0.015061965 0.123538315 0.06967531
0.021689357 0.050942235 0.066175446 -0.10914075 -0.1541074 -0.07132299 -0.15151466 -0.17603739
-0.09955972 0.05804719 0.0897267 -0.09809508 0.0064677284 -0.15119568 -0.092045784 0.00746359
-0.17470075 0.052538633 0.17677005 0.015430083 -0.19610627 0.1884562 0.0588503 -0.067372516
-0.16844042 -0.09311157 0.0059678205 -0.23024035 0.17354862 -0.022780964 -0.3070653 0.08539265

lstm.weight_ih_l0_reverse f4 [80, 20]
00000000: 2903 193e 606d 453e 4996 24be f5d4 563e
00000010: 4c6e 01be babf 1d3e bde8 75be 6f26 843e
00000020: f28d 4d3b 8b71 933d 4e66 6dbd 0313 713e
00000030: c203 81bd aa7a 1bbe b34f 78bd 3e25 0f3e
00000040: 6993 06be a554 483e e849 0b3e eb02 99bc
00000050: 6e8a e3bd e4a1 13be 49fb 30bc 351d 3f3e
00000060: 4134 cc3d 9b9c 37be 0e5a 0dbe 23b4 b1bd
00000070: a748 1ebe d782 2bbe eca2 a93c 7cfc 4abd
00000080: 65cf 203e 6fab e23d ee3f 95bc 6d4f 5a3d
00000090: cb90 a5bd b26a aabd 2585 15be 865c de3d
000000a0: f4ac 9539 7e31 05be bc55 97bd dc17 103e
000000b0: 5441 923c 7858 173e a78d ad3d a6b5 a3bd
000000c0: 5c27 e23d 0cc1 a2be 8ac3 17be bac7 07bd
000000d0: 4f0a f6bb 31ff 4dbe 0705 713b 242b 163d
000000e0: 62c0 0dbd 09d0 353e df1d 67be 79eb ef3b
000000f0: 6bef d33d a3f7 c83d e902 8a3d 48fb 90bc
00000100: f222 13be 70c8 b33c d174 ccbd fe3c 77bd
00000110: 7ead 17bd ea18 1dbe 9e5d 1d3e 2f0b c3bd
00000120: f4a2 153e f4d0 59be 6043 2b3d 7ddd f7bd
00000130: 12eb 50be ca3b fc3d 953d 87bc 1f65 393e
00000140: 6d17 32be 3c7c e3bd 3a95 513c c1b6 b4bd
00000150: 4c3c 373d 73ba 583d e91a 363e 37d9 5abc
00000160: 9c76 d2bc b35f f83c c773 80bd c6cc cfbd
00000170: 4866 2cbd 7d2f 1cbe 7941 0dbd e5dd 333c
00000180: 70b8 4ebd b590 413e 1e58 513e 9fea e5bd
00000190: 8984 a5bd 83ac 843d f4a9 573e 9fae 893d
000001a0: e48a 293e 8ad7 00be f312 503e 055e 063e
000001b0: 50a1 3cbe 9ad5 e1bd 136f c0bd b78a c1bd
000001c0: a0d7 793d 636c 2fbe 1ce5 593d 84a7 82bd
000001d0: 072f b0bd 30da b73d 1ada 14bd 8eec dc3d
000001e0: 98ef 20bd 9591 20bd a65b 183e 415b f9bd
000001f0: 9f7f c6bd 5658 5e3c 1b74 a93c a33d 3ebe
00000200: ee13 9e3d 9b8a 8b3e e049 803e 99b1 94bd
00000210: 8951 a43d 55aa 253e ce10 583e bc29 2abe
00000220: 4b55 1fbe 655c 69be dbbc 293e 6d0d 16be
00000230: 78df 06bd cafb 9cbd a746 cb3a cc56 4abd
00000240: a442 103e 9574 3bbd 686c fbbd cb68 04bd
00000250: 8ec1 883e d5d7 463d 28cb 553b 1498 613e
00000260: 8ca4 96be cd67 28be b98e 00be 5db3 bd3d
00000270: 6577 bdbd b3ef 8d3d d42c f23c 9bfd 64bd
00000280: af30 3e3e bacd 043e 4ee0 e4bc ab23 30be
00000290: 21a2 41be 8226 96bd 3616 7bbd 1458 b0bc
000002a0: 761e 713d 6507 163e 4a7f 29be 52c3 2cbe
000002b0: 4421 833d 3378 2e3e f10d 95bd 3b2e 873e
000002c0: 60db 1abe 9f6d 9b3a 7d1c dbbb 6e19 9bbe
000002d0: 7441 2dbe afcd 663e 4031 36be 6043 08be
000002e0: ea65 333b 09f5 ee3d a8dd 1c3c 9005 81bd
000002f0: c758 2cbe 4a89 ae3b 5b6a 243d ffb5 a23d
00000300: 1e3b c63d 53f7 6abd d45b 8c3d 081e ab3d
00000310: c64a 15be 2aed 453d edfe 963d ad3c babc
00000320: 0129 1ebe a69e 1b3e b6ae e93d 11d7 703d
00000330: 069a 093e d9f4 8f3d 811b 9e3d 0d63 fbbd
00000340: 3585 9bbd 4840 1fbe dd92 5fbe 37fa b73d
00000350: e373 ea3d cd2d e63d 8e74 95bd 0b8d 01be
00000360: c207 283d be69 8e3e 90d7 acbc a5a5 90bc
00000370: 485f d2bd 3511 e5bc 5b7d cbbd e8c3 99bd
00000380: f311 d0bd d88f ec3c e5de 50be a510 653c
00000390: d915 ef3d 12e8 e43d 0507 cbbd f068 993a
000003a0: 9bb8 983d 3a72 7fb9 8870 d5bd 0f71 f43d
000003b0: 56eb 56bd 274f 1bbe d2a4 2bbe 800e 843e
000003c0: 7ed3 733d 0132 55bd 534f 033e 18ea 81be
000003d0: 97fd 6b3d e43f 05bd a292 dbbd f644 a13d
000003e0: b274 383d 757d 873e 84c5 203e ce35 203e
000003f0: 5d76 96be 4766 1e3e d714 64be 2095 23be
0.14942612 0.19280005 -0.16072954 0.20979674 -0.12639731 0.15405169 -0.24014564 0.25810573
0.0031365124 0.07199391 -0.057958893 0.23542409 -0.06299545 -0.15183511 -0.060622882 0.1397905
-0.1314217 0.1956354 0.13602412 -0.01867815 -0.11110388 -0.14417225 -0.010802099 0.18663485
0.09970904 -0.17930834 -0.13803884 -0.086769365 -0.15457402 -0.1674913 0.02070757 -0.049557194
0.15704115 0.110678546 -0.01821896 0.053298403 -0.08084258 -0.08321132 -0.14601572 0.10857491
0.00028548355 -0.13007161 -0.073893994 0.14071602 0.017853417 0.14779842 0.08474284 -0.07993631
0.110426635 -0.31787908 -0.14820686 -0.03314946 -0.007508553 -0.20116879 0.0036776678 0.036662236
-0.0346073 0.1775514 -0.22569989 0.0073217717 0.103484 0.09812858 0.06738836 -0.017697945
-0.143688 0.021946162 -0.099832185 -0.0603609 -0.03703069 -0.15341535 0.15367743 -0.095236175
0.14612943 -0.21271116 0.0418123 -0.121027924 -0.20402172 0.12316091 -0.016508857 0.18104981
-0.17391749 -0.1110768 0.012791926 -0.0882392 0.044735238 0.052912187 0.17783703 -0.013357452
-0.025691323 0.03031907 -0.06272083 -0.10146479 -0.04208973 -0.1525249 -0.034486268 0.010978197
-0.050468862 0.18902858 0.2044377 -0.11226391 -0.0808192 0.064782165 0.21060926 0.067227595
0.16556889 -0.12582222 0.20319729 0.13121803 -0.18420911 -0.110270694 -0.09396186 -0.09450286
0.06099665 -0.1713119 0.05319701 -0.06379607 -0.0860272 0.08977163 -0.03634081 0.10787307
-0.039290994 -0.039201338 0.14878711 -0.121756084 -0.096923105 0.013570866 0.020685246 -0.185782
0.07718645 0.27254185 0.25056362 -0.072604366 0.08023364 0.16178258 0.2110016 -0.16617483
-0.1555988 -0.22789152 0.16575949 -0.14653559 -0.03292796 -0.076652125 0.0015508727 -0.049399182
0.14087921 -0.04576548 -0.12276536 -0.0323265 0.2671017 0.048545677 0.0032622311 0.2203067
-0.29422414 -0.16445847 -0.12554444 0.092627265 -0.09251288 0.069304846 0.029562391 -0.05590592
0.18573259 0.12969103 -0.027938988 -0.17201106 -0.18909504 -0.073315635 -0.06130048 -0.021526374
0.05886694 0.14651258 -0.16552463 -0.16871384 0.06402829 0.1703804 -0.0727805 0.2640246
-0.15122747 0.0011858231 -0.0066867457 -0.3029284 -0.169195 0.225394 -0.17792225 -0.13306952
0.0027373978 0.116678305 0.009574331 -0.06299889 -0.16830741 0.0053264247 0.04014049 0.07944869
0.096792445 -0.057364773 0.06853452 0.083553374 -0.14579305 0.04832188 0.07372842 -0.02273401
-0.15445329 0.15197238 0.114102766 0.058798853 0.13437662 0.07029123 0.0772009 -0.12274752
-0.075937666 -0.15551865 -0.21833368 0.089832716 0.11447885 0.112392046 -0.07297622 -0.1265146
0.041023023 0.2781505 -0.021098882 -0.01765711 -0.1027208 -0.027962307 -0.09936019 -0.07508069
-0.101596735 0.028877184 -0.20397528 0.013981019 0.11674089 0.111770764 -0.09913448 0.0011704247
0.07457086 -0.00024361248 -0.10421854 0.11935627 -0.052470528 -0.15166913 -0.16762093 0.25792313
0.059527867 -0.05204964 0.12823229 -0.25373912 0.05761489 -0.032531634 -0.10721327 0.078744814
0.045033164 0.26462904 0.15700346 0.15645525 -0.2938718 0.15468703 -0.22273575 -0.15974855

lstm.weight_hh_l0_reverse f4 [80, 20]
00000000: 791e 33be 3a34 383e c404 01bd 6529 16bd
00000010: 5399 1d3e 79a9 3b3d fd91 b7bc 31be a9bd
00000020: f6d6 1e3e 78f3 21bd 8d82 7fbb c1ed 733e
00000030: dfeb c8bc d63d 52be e5e9 d33d 2b2b a63d
00000040: b69a c7bd cc94 cfbc 643e 42be 4d40 01be
00000050: 72d8 373d 74e8 13be bfaa 4d3e 795f a6bd
00000060: f088 223e fc70 723d 2186 fc3c 4cf0 4f3e
00000070: b155 01bd cc01 6ebe 3006 69bc b1a2 963e
00000080: f4cf 953d 56c3 6cbc 340f 82bd 1c61 d1bb
00000090: b92c 5f3e 17d4 103d f9e9 653d 9865 153e
000000a0: d20e 843e d66c acbd ff3d 15be f3a5 a2bd
000000b0: 525d 013e e695 503e e3bb 79bd f115 4fbe
000000c0: 9efc 193d 7910 4c3c 8593 b6bd 9739 b7bc
000000d0: 39a5 473d 8e03 4bbe 8c2f 0fbe 8dee 5d3e
000000e0: d3fd 983c 5b4c 0a3e 992f 3c3d b41e 053e
000000f0: a785 c9bd 5a67 353e 660a 96be 4813 82bc
00000100: 6aa6 723c 5990 9dbc d6e1 7abe 9b48 76be
00000110: 9cd2 c8bd 5435 8dbd 9caa 18bd f245 7c3e
00000120: 5979 0bbe ef0f 63bd 5fca 733d fe39 353e
00000130: d17f 89bd 7f40 3dbd 105e aabd ba4b 333d
00000140: fd6f a1bd 3e9d d1bc d84e 1c3e aa3b 14bc
00000150: 4b31 9d3d 2cb9 23bd 6b6c 29be 14fa 5f3d
00000160: 2ae8 fe3c e8c8 e43d 89ae 313e 89ff 4a3e
00000170: 53d5 263d 0b51 693e 548a f6bc 8803 04bc
00000180: c224 303e e7a6 a53d e48b 89bd 9f94 1c3e
00000190: 6785 a8bd 242e 5f3e 4090 393d 55cb 943d
000001a0: 6677 94bd 31a7 583d 113c 28bd b4aa 16be
000001b0: 394d 0c3e 1730 22be 07f0 73bd 4a75 a93d
000001c0: aee7 efbd 145f 343e d2f2 0bbe 30d7 17be
000001d0: 79ca 003d 410e c63d d768 e4bd e1a9 433d
000001e0: 82e6 5bbd be35 01bd b32e b93d 5164 94bd
000001f0: fedb 803c ccd0 103e a8e6 77bb 111d 423d
00000200: eba9 f63d ab91 653d 73ee bebd bf66 dc3c
00000210: 55f3 963e 6129 773d 878a d3bd abd0 09be
00000220: db1d f8bd 493d a3bc 2c2a 61bd 1170 243e
00000230: 3606 a5bd d41a 4fbe 2136 f9bd 4d16 9e3d
00000240: 2315 99bd 267c 643e d4eb 6ebd 4157 f6bd
00000250: bed7 30be bc87 0e3e fc35 493e 30ae b43e
00000260: e589 fd3d de4c f03d 73b9 503d 69d1 813d
00000270: f403 ae3d 5da5 bbbd 7981 1abd 40fd 3a3d
00000280: c43d 803c 5432 2ebe dabc 5cbe 65a9 1e3d
00000290: 03b1 84be aeb5 cf3c 555e 063e 59fb 213d
000002a0: 001a 963d 00c8 e53c 75cc 253e bf62 f03d
000002b0: f573 273d d105 60be 5063 38bd c67e 693e
000002c0: a69e 34be 4e12 38be 0b63 31be 0ca2 5a3e
000002d0: 1b7a 3ebe 3798 0d3e 777b 723b 887c 7e3c
000002e0: ae9c eb3d ee00 ed3d f327 de3c 99dd 693e
000002f0: 0faf 36be db74 3abe 47ba 7b3d 9212 adbc
00000300: 479c 213d 6a7b e4bc a067 f93d 3155 56be
00000310: 7a4d bfbd e1ef 683e 8c00 a53c d6c2 60bd
00000320: 1e79 873e 189d 60be 4d7e a83d d186 063d
00000330: 2bc7 9d3d 8cb2 fabd 1b31 d33d fcf1 38be
00000340: e247 95be 3216 613e 88e2 dabd 33a7 523e
00000350: f6d8 363c dde6 ba3d a607 2d3e cbd0 563e
00000360: 43c7 313e a69d 06be 1c1b 693e e293 b53c
00000370: bb6e 5c3d e62c 49bd 61f6 283e 92a8 5a3c
00000380: d071 2abb a031 743c c956 873e 806d babb
00000390: 1513 f03d 0c7a 9e3e 6ef3 a5bd 23d2 96be
000003a0: 81db 77be 231a 703d 0c19 2dbe 3fd9 d13d
000003b0: 69e8 563e 779c 9a3e 46c5 e53d d3e5 eb3c
000003c0: 2aff 3b3e bee7 bebb b347 6fbe aa80 76be
000003d0: 446a 43ba dcf7 d4bd d3fd fabd 906d 58be
000003e0: a357 8cbd 7f7d 1d3e 24ac c03d 1548 03bd
000003f0: 96be 143e 44ea 97bd d6db 273e 759e 27bd
-0.17492093 0.17988673 -0.031498685 -0.03666057 0.1539052 0.04581592 -0.02240848 -0.08288229
0.15511689 -0.03953883 -0.0038987726 0.23821165 -0.024526535 -0.20531401 0.10347346 0.081137024
-0.09746306 -0.025339507 -0.18969113 -0.12622185 0.044884153 -0.14444143 0.20084666 -0.08123679
0.1587255 0.05918978 0.030825676 0.2030651 -0.031575862 -0.23242873 -0.014222667 0.29421
0.073150545 -0.014450869 -0.06350556 -0.00638975 0.21794404 0.035358515 0.056131337 0.14589536
0.25792557 -0.08419196 -0.14574431 -0.079418086 0.12633255 0.20369682 -0.0609702 -0.20223214
0.03759443 0.012455099 -0.08914856 -0.022366328 0.048741553 -0.19825575 -0.13982981 0.21673031
0.01867572 0.1350569 0.04594383 0.12999994 -0.09839945 0.17715207 -0.29304808 -0.015878335
0.014810184 -0.01923387 -0.24500212 -0.24051134 -0.098057956 -0.06894937 -0.03727208 0.24636057
-0.13620509 -0.055435117 0.059519168 0.17697904 -0.06713832 -0.046204086 -0.08318722 0.04377339
-0.07882688 -0.025587674 0.15264452 -0.009047428 0.076754175 -0.039971516 -0.16545264 0.054681852
0.031116564 0.11171132 0.17351736 0.19824041 0.040730786 0.22784822 -0.030095257 -0.008057483
0.17201522 0.08088475 -0.06716135 0.1529107 -0.082285695 0.21794945 0.045303583 0.07265345
-0.07249336 0.05289382 -0.04107291 -0.14713556 0.13701333 -0.15838657 -0.05955508 0.08274324
-0.11714111 0.17614394 -0.13666847 -0.14828181 0.031443093 0.096706875 -0.11152809 0.04776943
-0.053686626 -0.031545393 0.0904211 -0.07245696 0.0157299 0.1414215 -0.003782669 0.047391
0.12044128 0.056047123 -0.09322824 0.026904462 0.29482523 0.060342196 -0.10329156 -0.13458507
-0.121150695 -0.019926684 -0.05497186 0.16058375 -0.08057825 -0.20225078 -0.121685274 0.07719097
-0.07474735 0.22312984 -0.058330372 -0.12028361 -0.17269799 0.13918966 0.196495 0.35289145
0.12379817 0.11733411 0.05095811 0.0633877 0.08496848 -0.091624 -0.03772113 0.045651674
0.015654452 -0.17011386 -0.21556416 0.038735766 -0.259163 0.025355186 0.13121922 0.039546344
0.07329178 0.028049469 0.16191275 0.11737584 0.04088207 -0.21877219 -0.045016587 0.22802266
-0.17638645 -0.17975733 -0.17322938 0.21350878 -0.18601267 0.13827597 0.003699986 0.01553262
0.11504494 0.11572443 0.027118659 0.22838439 -0.17840217 -0.1820864 0.061456945 -0.02112702
0.03945568 -0.02789088 0.12177968 -0.20930935 -0.09340949 0.22747757 0.020141862 -0.05487331
0.26459593 -0.21934927 0.08227215 0.032843415 0.07704004 -0.12241086 0.103121005 -0.1806106
-0.29156405 0.21981123 -0.10687739 0.20571594 0.011160126 0.09126065 0.16897449 0.20978086
0.17361169 -0.13146076 0.22764248 0.022165243 0.05381654 -0.049115084 0.16500236 0.013345854
-0.002600778 0.01490441 0.264334 -0.005689323 0.117223896 0.3095249 -0.08103071 -0.29457197
-0.24204828 0.058618676 -0.16904086 0.102465145 0.20987095 0.30197498 0.112192675 0.028796112
0.18359056 -0.0058259657 -0.23367195 -0.24072519 -0.00074544945 -0.10398838 -0.122554444 -0.21135545
-0.06852653 0.15379904 0.09407833 -0.032051165 0.14525828 -0.074177295 0.16392455 -0.0409226

combined_linear1.weight f4 [20, 54]
00000000: 6f0a c63c f8e7 d23e 5827 ec3e 5772 063f
00000010: 61c4 423e 58c8 b73e 560c 6b3e be8c edbd
00000020: 1202 003e 7206 243e b2c8 0b3e d6d4 263e
00000030: 8822 f4be 10b0 193d e8ee bdbd 315c e2bd
00000040: 605e cabd 6f58 d53c ff9c 66bd e279 613d
00000050: 39b0 b2bd 4038 2abb d215 903d 748d ca38
00000060: 1923 0d3d 9e65 d63c d80e debd a44d 463b
00000070: 3a70 b3bc 9efe 17be 75fb 1fbd e4f7 353d
00000080: 39ba 75bd cc49 e53d b46c cd3c 29a5 83bd
00000090: 4880 e9bd 04c2 143e 0a17 94bd 01e0 24be
000000a0: 7b94 27bd 036c 203d 3222 c93d aea8 b43c
000000b0: 0c2c 51bd 4184 dabd f912 07be cec7 4b3d
000000c0: db8e fbbd 6976 0cbd af11 9d3d 5b35 0a3d
000000d0: e7d0 b13c 94f4 ba3d a86d f93c e1f8 bcbe
000000e0: 135f bbbd 2429 b2be cd14 9cbd 6d6a bcbe
000000f0: b4bb 14bd b74f 0bbe 6f04 c3bd 527f 34be
00000100: b714 20ba 406f 3fbe 840e 843e 45d4 cd3d
00000110: d635 3b3e 1eca c23d 4705 143e 6e9b 7d3d
00000120: bbc4 2c3e 7a29 d4bd 3081 ad3d 8b62 1a3e
00000130: 28e9 5e3e 380b 753d c650 d93d 7da4 4a3e
00000140: ad43 5fbd 3790 263e 2d2c bf3d ae9a 2cb9
00000150: 3931 73bb e789 3e3d 92a1 a83c 0262 f13c
00000160: e8b7 e53d 4f09 ce3d b7ac b73d 500f 67bd
00000170: 0087 333e a294 b13d 1f1d 4abd e7cc cbbd
00000180: fc74 d53d a1f6 893d 1e09 e23d 650f c33d
00000190: bc5f 4d3c a37a 313e f161 223d 59d6 9e3c
000001a0: 0024 a83c cbeb 3e3d eaa8 80bb dd71 fd3d
000001b0: ab58 d63c 6379 873e 31c3 853e 0399 5d3e
000001c0: b469 8d3d 32ba 983e c61c 213e a5c6 ae3d
000001d0: 4d00 953d c898 e5bb d0d1 4a3d b778 d43d
000001e0: 2df4 86be 00af 253e 566c 4dbe b86e 77be
000001f0: 33d1 1cbe aace 0fbe efb6 8bbd 2725 cbbd
00000200: 1e7c 09be aa40 a8bd a042 273d f123 04bd
00000210: 41c9 27be c489 febd 3f4f 7bbd 8c11 b1bc
00000220: aecd 0abe 9834 153d 1a66 22be 59e3 a03c
00000230: 79ce 25be 217d 09be ef0d 92bd 4c95 94bd
00000240: 4fc0 a0bd 2f9d e3bd 65c2 52bc e790 53be
00000250: 9194 93bd ce7a cabd 6047 bd3d cf02 073d
00000260: 0a6c 903d aa10 bbbc f10b 57bc ec9c bbbd
00000270: 917f 8a3b f983 9cbc ec88 3bbe d22c 1e3c
00000280: c169 803d a16f 753c ff0e 233d 74ce 36be
00000290: 07e7 61bc 766d a5bd bdea 84bc c066 6dbe
000002a0: 4b6d 30be a39a 293d 06a7 19be 8a41 99bd
000002b0: edad 3dbd fc0d 46bd 0f2d 1a3e e798 7cbc
000002c0: b2d9 5b3e d385 9d3d 6927 143d 82fd 08bd
000002d0: b757 363e 229e 06bd 10f5 1c3d ee84 81bc
000002e0: 55d8 0b3e f903 483e f64a 713c 22c1 113e
000002f0: a777 193d 3a5b 9e3d b330 103e ec20 d53d
00000300: 5197 4c3e bfce 97bc a864 4b3d a881 f73d
00000310: f201 9e3d 7fce b33d 5446 323d fd92 65bd
00000320: db5e 0cbd 813b e93d 258d cabd 25a2 c8bd
00000330: de6b 11bd 2134 29bd dd9b ae3d c740 bb3b
00000340: 7891 14be a4fd f83d 69d3 473e a811 fc3c
00000350: 5833 b43c 7bef 403c 5313 433b cce8 49bd
00000360: 9b35 43bd 17f8 053e 4bd2 0b3d ed5f 01bd
00000370: cbec 6dbd 1558 333c 518f 813c 6370 803c
00000380: 86d5 c2bd 2b22 f8bd cc40 013b eef5 043e
00000390: 9a8a a7bc 896b c4bb de5f e23c a2e5 9a3d
000003a0: 6afc c1bb 600f bbbd 7563 f4bd 5fdd 8abd
000003b0: 7f5f f03d c2d3 04be 20a4 eabc 7314 4ebd
000003c0: 6311 ec3d 2607 043d 4bee 0e3d a842 1d3d
000003d0: 4c57 7d3d 28a4 abbd 4d52 843d c473 a03b
000003e0: a68c 9cbd ec04 0bbe 6dcb 053e 9fff d33d
000003f0: 1b53 9d3d fb96 b43d 979a 03be d762 02be
0.024174897 0.41192603 0.46123767 0.5251822 0.19020225 0.35895038 0.22953925 -0.1159911
0.1250079 0.16018084 0.13650778 0.16292128 -0.47682595 0.037521422 -0.092740834 -0.1105274
-0.09881282 0.026043145 -0.056302067 0.055047877 -0.08725018 -0.002597347 0.07035412 9.658458e-05
0.0344573 0.026171502 -0.10842675 0.003025868 -0.0219041 -0.14843222 -0.039058167 0.04442586
-0.05999205 0.11195716 0.025076248 -0.06427986 -0.11401421 0.14527136 -0.07230957 -0.16101076
-0.040913086 0.039165508 0.09820975 0.022053089 -0.051067397 -0.10669757 -0.13190831 0.049751095
-0.12283107 -0.034292612 0.076693885 0.03374229 0.021706058 0.09128681 0.030447796 -0.3690863
-0.09148993 -0.34797013 -0.07621155 -0.36799946 -0.03631182 -0.13604628 -0.0952233 -0.17626694
-0.00061066024 -0.18694782 0.25792325 0.10050253 0.18282256 0.09511207 0.14455138 0.061915807
0.16871922 -0.103594735 0.08471906 0.15076654 0.2176863 0.059825152 0.106111094 0.1978931
-0.0545079 0.16265951 0.09334598 -0.00016460821 -0.0037108196 0.046518233 0.020584855 0.02946568
0.11216718 0.10060369 0.089684896 -0.056411088 0.17531967 0.086709276 -0.04934418 -0.099511914
0.104227036 0.06736494 0.11036895 0.09524421 0.012535032 0.17331938 0.039644185 0.019389318
0.020524979 0.04661159 -0.003926386 0.12375233 0.026165327 0.26459798 0.26125482 0.216404
0.06904927 0.29829556 0.15733632 0.08533982 0.07275448 -0.0070067383 0.0495165 0.10374587
-0.26358166 0.16180038 -0.20060858 -0.2416333 -0.15314178 -0.1404368 -0.06822001 -0.099191956
-0.13426253 -0.08215459 0.040835023 -0.03226084 -0.16385366 -0.124286205 -0.06135487 -0.021614812
-0.13555023 0.03642711 -0.15859261 0.019639658 -0.16192044 -0.13426639 -0.07131564 -0.072550386
-0.0784918 -0.11113965 -0.01286373 -0.20660745 -0.07206071 -0.098867044 0.09242129 0.032961663
0.07051857 -0.022835094 -0.013125406 -0.0916079 0.004226633 -0.019105898 -0.1831395 0.009654241
0.06270171 0.014980228 0.039809223 -0.17852193 -0.013787991 -0.08077519 -0.016225213 -0.23183727
-0.17229192 0.04140724 -0.1500512 -0.07483204 -0.046308447 -0.04835318 0.15056251 -0.015417314
0.21469763 0.076915406 0.036170397 -0.03344489 0.17806898 -0.03286565 0.038319647 -0.015810456
0.13656743 0.19532765 0.014727345 0.1423383 0.037467625 0.07732244 0.14081077 0.1040667
0.19979598 -0.018531201 0.04965654 0.12085277 0.07715215 0.087796204 0.0435241 -0.056048382
-0.03427015 0.113883026 -0.098902024 -0.097965516 -0.03550326 -0.04130948 0.08525822 0.005714509
-0.14508617 0.12157753 0.1951424 0.030770138 0.021997139 0.011775847 0.0029766157 -0.049294278
-0.047658544 0.1308292 0.034136098 -0.031585623 -0.05808715 0.010946293 0.015815409 0.01567859
-0.095133826 -0.12115892 0.001972246 0.1298444 -0.020451833 -0.0059942645 0.027633604 0.0756333
-0.0059199827 -0.09133792 -0.119330324 -0.067805044 0.117369644 -0.12971404 -0.028642714 -0.05031247
0.11526754 0.03223338 0.034895223 0.038393646 0.06185083 -0.0838092 0.0646101 0.004896613
-0.07644014 -0.13576096 0.13065882 0.1035149 0.07681867 0.0881786 -0.1285194 -0.12733017

combined_linear1.bias f4 [20]
00000000: eb9c dbbe 04f4 373e 818c adbe 971d 503e
00000010: 263e edbc a009 f73d 78e0 e53e 326e 83be
00000020: 8158 ccbe 96c4 2a3e b54f f23d be00 943d
00000030: c4ec 0abf 3e81 9abe 9c3c 8abe 9076 ba3d
00000040: 4b4a f63d 19b0 21be 004d b93e a2c5 993e
-0.42893156 0.17964178 -0.33896258 0.20323788 -0.028960299 0.12062383 0.4489782 -0.2567001
-0.39911273 0.16676554 0.11831609 0.07226704 -0.54267526 -0.3017673 -0.26999366 0.09104645
0.12025889 -0.15789832 0.3619156 0.30033594

combined_linear2.weight f4 [20, 20]
00000000: c945 d2bd e6a7 abbd 3547 1f3e 2baa 4b3e
00000010: 1414 5c3d bc2c c7bd bdd9 8cbc b667 3ebc
00000020: 69f8 92bd 2602 cebd 1d35 b9bd 46a0 3a3b
00000030: bc3d c93d e750 38bd 716e a1bd ebc8 573e
00000040: 404d 9ebd 4918 c6bd 633f 363c eef9 dfbd
00000050: 65e5 c93e 96d7 1ebe c1ef 8b3d c134 ae3d
00000060: 83fe d2bd 0d87 2cbe 413e fd3d 1f7a 493e
00000070: 443c 223e d6e4 7abd 85f8 06be f9a2 60be
00000080: 01ae 793e 34f4 ed3d 8a2b d53d 9d82 0abd
00000090: a3b1 ad3d d49f 1cbe 9d9c d8bd 8c4e e83c
000000a0: 46d0 28bc 937f 283e 9846 143e 7a48 c73c
000000b0: 95e8 233e 9d84 a83d 2a07 e5bd 40da 313e
000000c0: 3c56 3fbe 298b 7a3c a649 01be b661 25bc
000000d0: 11d5 9ebd 8f7a 0c3e 0b85 5abe fbad 2fbd
000000e0: 2ecd 193e 3a12 0c3d 0f2f 48be fdce 0abc
000000f0: f6ce 98bd 6b36 8f3d 7ccd 36be 393e 083e
00000100: 6a34 563e 44a2 ec3d 4448 b03d 2ab0 84bd
00000110: 9803 d03d 7111 283d 87e5 2a3e dc9a 463e
00000120: 42f6 36be 47ab d2bc a068 4dbe 4ceb f1bd
00000130: e356 48be 077d 57bc fe6c 42be 075d 52be
00000140: 9f71 63be 0b22 fbbd 90a8 393e f2aa 2c3d
00000150: c625 083e 401e 2c3d 11b3 8ebd 8772 4f3e
00000160: e529 68be d725 243c d7ae 07bc c57f d13d
00000170: 51da 4c3e d931 153d 9f65 27bd 454c 86bd
00000180: 1cbb f83d f003 8c3c 3eee 8639 5b0c 6dbd
00000190: 698e ba3e 2eb0 da3d a41a ee3d 637a 50bd
000001a0: 5a25 8f3b d1a2 363e b30b 65bd a512 473e
000001b0: a034 3fbe cda4 2d3e 2be6 ddbd 46d4 a03d
000001c0: 7931 123e 0dad 0b3e 602c b63d f80d 20be
000001d0: 32f2 0d3e 3270 48bd 4405 62be 7119 003c
000001e0: acbd 03bf b786 143e 20bf 97bd b168 2a3e
000001f0: 19f8 e03d c99e c4bc 3318 393e 2cbd a1bd
00000200: 470b ea3d f665 a53b 611c 663e 7bfa 90bb
00000210: 0b17 17be 65db 0abe 56d2 49be 5d73 a6bd
00000220: 5e75 0b3e 7dc2 5ebe 3656 78bd e639 2b3e
00000230: 150a 21be cfc5 0c3e ef28 1e3e b0fd 24be
00000240: 95a8 03be a833 d7bd 7a46 9dbd d6f4 253d
00000250: 3706 c23d e7b9 c73c e3cb a13d 4403 54be
00000260: 684b 63be 683d 8c3d eb07 21be 05f5 2a3e
00000270: 2688 e63c e0e7 babd 000d 313e 22b5 a0bd
00000280: 284d c43e 23ab 443d d2d4 4e3e a0b8 84bc
00000290: 2285 5fbe 627b 403e 16d7 4aba 8e83 8a3d
000002a0: 91bb 5b3d c038 f2bd 23c3 c43d 8c51 6cbd
000002b0: 13f0 993e e80e f6bd f28e ba3d cee3 b2bd
000002c0: f946 00be 3ead 863d 9100 d6bd 68dc 40be
000002d0: 7c31 ccbe 40bc 1a3e d9ca ce3b df50 3d3e
000002e0: 2bc0 4a3d d1f8 01be ccc3 e73e 5f47 063d
000002f0: a6bb 373d 4871 1f3e 7e8b c43d 9d46 1fbd
00000300: 01c7 3dbe 8a4e f83a eb8f 33be bf50 58be
00000310: 61da 55be 1edf 96be 04f6 5dbd 1fcb ed3d
00000320: c5d6 bc3e 5e2c 43bd 9361 c8bc 4629 11be
00000330: f0ae 623e 8cef 4fbe b4c0 353d 7fa6 743e
00000340: 191b 3d3e 19be 64bd 4160 b9bd 07db 043e
00000350: 79f5 713d 727d 343e ff6d 29bd 7d86 12bd
00000360: a796 f23c 13e6 3a3e a5b2 963b eaa0 48be
00000370: 00db a4bd 37a1 233c 870f 8dbd aced 11be
00000380: b42d a93d e0cf 1c3e 0962 5bbc 4b04 22be
00000390: 8288 25bd 4987 af3d 5a6d 6ebe 74d4 893d
000003a0: 335c 66be 690b 34be a8bd 03be 5ac3 1a3e
000003b0: 011b c83d e461 44be e2ef 3c3e ad3b ed3c
000003c0: a452 5bbe 12d8 2dbe 8797 583c d74f 3b3d
000003d0: 5d36 20be a231 32be 5ade ec3d 9f29 ddbd
000003e0: 4a87 05be 7044 093e de61 0d3e 29a4 5c3e
000003f0: aa0b 2bbe c270 f4bd 1882 16bd d297 2e3e
-0.10267217 -0.083816335 0.15554507 0.19889133 0.053730085 -0.09725329 -0.01719367 -0.011621406
-0.07176287 -0.100590035 -0.09043334 0.0028476878 0.09826228 -0.04499903 -0.07882393 0.21072738
-0.07729578 -0.09672601 0.011123511 -0.10936342 0.39432827 -0.15511927 0.06832839 0.08506156
-0.103024505 -0.16848393 0.123653896 0.19675492 0.15843302 -0.06125339 -0.1318074 -0.21937169
0.24382783 0.11618844 0.10408695 -0.03381597 0.08481147 -0.15295345 -0.105767466 0.028357767
-0.0103035625 0.16454916 0.14480054 0.024326552 0.16006692 0.08228419 -0.11183007 0.17368412
-0.1868524 0.015291967 -0.12625751 -0.010094097 -0.07755483 0.13718627 -0.21339814 -0.04289053
0.15019676 0.03419707 -0.19549201 -0.008472201 -0.0746135 0.06992801 -0.17851824 0.13304986
0.20918432 0.11554387 0.086075336 -0.06478913 0.101569355 0.04103226 0.1668912 0.19395012
-0.17867377 -0.025716437 -0.20059443 -0.118124574 -0.19564395 -0.013152367 -0.1898689 -0.205433
-0.22211312 -0.122623526 0.18130708 0.042155214 0.1329566 0.042021036 -0.06967748 0.20258532
-0.22672231 0.010018787 -0.008281431 0.10229448 0.20005156 0.03642449 -0.040868398 -0.06557516
0.12145063 0.017091721 0.00025735976 -0.05787311 0.36436775 0.10678135 0.11626175 -0.050897967
0.0043684663 0.17835547 -0.05591936 0.19440706 -0.18672419 0.16957398 -0.10834917 0.07852988
0.14276685 0.13640232 0.088951826 -0.15630329 0.13861921 -0.048935123 -0.22072321 0.007818566
-0.5146129 0.14504515 -0.07409501 0.16641499 0.10984821 -0.024001496 0.18075638 -0.0789741
0.11427932 0.005047555 0.22471763 -0.004424391 -0.14754884 -0.13560255 -0.19709143 -0.081274725
0.13618991 -0.21753879 -0.060629092 0.16721305 -0.15726502 0.13747333 0.15445302 -0.16112399
-0.12857278 -0.105078995 -0.07679458 0.040516697 0.09473842 0.024380637 0.079002164 -0.2070437
-0.22196734 0.0684765 -0.15725677 0.1669503 0.028141093 -0.09126258 0.17290115 -0.07847048
0.38340116 0.04801477 0.20198372 -0.016201317 -0.2182813 0.18797067 -0.0007737739 0.06763373
0.053645674 -0.118272305 0.09607532 -0.057694957 0.30065975 -0.12014562 0.09109296 -0.087348565
-0.12527074 0.06576012 -0.10449327 -0.18834078 -0.39881504 0.15110874 0.0063108024 0.18487881
0.049499672 -0.12692572 0.4526657 0.03278291 0.04485669 0.15570557 0.095969185 -0.0388857
-0.18532945 0.0018944305 -0.17535369 -0.21124552 -0.20884086 -0.294671 -0.054189697 0.11611008
0.36882606 -0.047649734 -0.02446059 -0.14175901 0.22137046 -0.20306224 0.04437323 0.23891638
0.18467368 -0.055845354 -0.09051562 0.12974177 0.05907199 0.17625979 -0.041364666 -0.03577279
0.029612852 0.18251829 0.004598933 -0.19592634 -0.080495834 0.009987167 -0.06887727 -0.14250821
0.0826067 0.15313673 -0.013390073 -0.1582195 -0.040413387 0.085707255 -0.23283902 0.06729975
-0.22496109 -0.17582478 -0.12865317 0.15113583 0.097707756 -0.19177967 0.18450883 0.02895912
-0.21418244 -0.16976956 0.013219721 0.045730438 -0.15645738 -0.17401746 0.11565848 -0.10798954
-0.1303989 0.13405013 0.13806865 0.21546997 -0.16703668 -0.11935569 -0.03674516 0.17050102

combined_linear2.bias f4 [20]
00000000: e4e2 3b3d ba80 4bbe 1149 383e 9233 48bd
00000010: 5d98 b3bd 40ea 543d 5b9e b43e 21ae 4fbe
00000020: d8b9 abbe 3b07 ec3e 781e b0be 9155 a0bd
00000030: a660 00be 7924 993e a7ce 0f3f 1c60 e1bd
00000040: 43a5 cb3e 6637 5dbe de65 503d cbdd 44be
0.045870677 -0.19873324 0.17996623 -0.048877306 -0.08769295 0.05198121 0.35277066 -0.20281269
-0.33540225 0.46099266 -0.34398246 -0.078288205 -0.12536868 0.2991064 0.561747 -0.110046595
0.39774522 -0.21603164 0.050878398 -0.19225232

final_linear.weight f4 [1, 20]
00000000: d2ab 1abe b8a7 243e b309 e63d 56a6 62be
00000010: fea7 e8bd b000 4f3e f357 e8be c10c 823d
00000020: 6c05 9e3e 0e89 84be d37c 973e ffe6 ce3d
00000030: 9709 2d3e 90c4 29bf 3098 99be 004a 503e
00000040: 357b 0ebf ee1c 98bc c2a3 54bd ee53 a03e
-0.15104607 0.16079605 0.11232319 -0.22133765 -0.11360167 0.20215106 -0.453796 0.06350089
0.30863512 -0.25885814 0.2958742 0.10102653 0.1689819 -0.66315556 -0.29998922 0.20340729
-0.5565675 -0.018568482 -0.051913984 0.31314033
