family-EHR-graphs/results/checkpoint_G1_TestDisease.pt (torch, 19925 bytes, 19 tensors)

static_linear1.weight f4 [20, 14]
00000000: b968 6cbe 4014 c63c 809b bb3b b0ff 933d
00000010: 8888 3e3d 7cf0 a3bd ff71 80be 92db 373e
00000020: 102b debd 7d97 27be 8040 5e3b 28dd 3c3e
00000030: c67f 003e b486 87be 58e6 b53d b351 e23d
00000040: abf5 0a3f 659a cc3b ced1 88bd 6169 9f3e
00000050: b764 363e ee14 573e 1317 7ebd d537 713e
00000060: 50d2 48be f59d 51bd 9c49 edbe fb7a 163e
00000070: 998c cd3d d9f7 c9be 3ae0 29bf f584 80be
00000080: 366c 8fbd f279 87be e5ce 32be 4403 d5bd
00000090: c775 d3be 079a 23bd 3fe3 0ebe 6608 9fbe
000000a0: bc91 a03e d7f2 a73d 64c5 933d 2573 aa3e
000000b0: 42d8 eb3e 7053 df3e 30bb a03e ccf1 233e
000000c0: 3de1 b13d 3096 393e 54cf ef3d 8dfc c7bd
000000d0: e038 0a3e 9448 b63e df40 c3be d5a6 98bd
000000e0: 6c95 f1bd 9000 8dbc 6419 52be 14f8 993d
000000f0: a0bb 0b3e 0db3 0abe 4880 93bc 9446 f2bd
00000100: 005c 2b3e 4092 d63b 5eba 6f3e 695c 6ebe
00000110: b3f1 08be 0aa0 88be f210 d23d def3 e8bd
00000120: fedc 09be 64fb cbbc dc4e c1bd 313c bd3c
00000130: 5bcb 14be 00d7 38be 4564 5d3e 1524 e3bc
00000140: b579 123e 43f5 61be 6874 083d e273 363e
00000150: 1142 4d3e 9733 19bf 4e2d d9be 5b19 92be
00000160: 3731 95be 011a fdbe 7308 09be 48c7 ba3d
00000170: 5872 b3be abfc e5bd 4933 763c 28fc 2abe
00000180: 9a36 fd3e 838c 44bd 2c4b 083d 2ffb c23e
00000190: 0d3a 233f ad94 8a3e ae84 df3c facb 3e3e
000001a0: 7492 323e a9b6 5fbe 82b5 473d 32c4 503d
000001b0: 98fd 4b3d d850 543e e856 9ebe 9426 2a3e
000001c0: 5f60 233e 261c a53e 4801 703e 83ed 703e
000001d0: 5116 a4be 73ab e43e c0bd a6bd f8b9 b9bc
000001e0: 9cc3 7a3d 5eb0 f03d 51d0 fa3c ab04 333e
000001f0: 90fc fdbe d094 06be f543 343d 92c4 49bf
00000200: 7fe0 2dbf 6da1 56bf 0eae 203e 2758 01bf
00000210: aec2 00be 765e cdbd 7974 8cbe d239 f3bd
00000220: 1a9b 813d 0e21 d93c 70a3 073f 2d52 50bd
00000230: 6829 57bd c046 0ebc 0cbd 903d 00f9 bc3d
00000240: a830 f7bc f8ee e93d 4c40 2ebe a7db 0ebe
00000250: 905d b73c e78c 823e 97aa 36be 0bf5 7dbe
00000260: 6bf0 04be 18e6 6c3d 595f 273e 7765 043f
00000270: d64e 2a3f 170c 463f 238c 903e 5f7c d43e
00000280: 6f53 5b3d ca4b 48be 05da b23e 802d a63e
00000290: a6a8 2dbe 351d 723e 0010 a6be 0301 8f3e
000002a0: 7143 003d f7b5 bcbe dd09 9dbd ee85 273e
000002b0: fffc e5bd d1e7 67be a480 50be 9822 b8bc
000002c0: 7747 2cbe 118f 9fbe 9c73 99bc d214 9ebd
000002d0: 4891 f83e 1065 bfbe 2e9a 4d3d 79cb de3e
000002e0: 0049 3e3f 5cfd 393f e293 f13d 3373 6c3e
000002f0: 17a8 08be 4097 103e 3bdb 3bbd f66e 0bbd
00000300: 8aed 7d3e de86 b53e 17c9 36bf 867c f93c
00000310: e452 463d dda2 ccbe 910e e7be ff10 80be
00000320: 1a58 f9bc 9619 84bd ad18 dd3d 98f5 93bc
00000330: f188 36be 3f54 94bd 12e4 7cbe 189c 41be
00000340: 0e87 763a 313e c1bd 6ed4 88be 2a02 8bbd
00000350: 1941 813e 3bc3 0ebe 6e22 2ebe 5ecd 67be
00000360: b803 783d ae62 4a3e 25ed 7cbe 9296 9fbd
00000370: 302e c1bd 1cc1 a83d 7615 aebd 7842 9b3d
00000380: f0e0 60be 1043 353d 8893 643e 8813 4cbe
00000390: 342a 0d3e 7496 53be 8e7a aebd 76dd 713e
000003a0: 5a62 0f3e 5010 02bd 9e08 debd d04d 91bc
000003b0: 1876 ab3d 8031 1abb a3c0 1d3e 5610 6dbe
000003c0: fd19 863e 62a0 63bd 9b2e 073e 0824 7e3d
000003d0: f627 34be 6011 4f3d 4611 31be d25f bdbd
000003e0: eec7 73be 965c 5dbd 0ad0 eb3c 7515 51be
000003f0: fbe9 d23d 6fcf 073f 29ec 1f3f 9d5a 353f
-0.23086824 0.024179578 0.005725324 0.07226503 0.046516925 -0.08004853 -0.25086972 0.17954853
-0.10848057 -0.16366382 0.0033912957 0.1844374 0.12548742 -0.26469958 0.08881825 0.11050739
0.5428111 0.006243991 -0.06680642 0.31135085 0.17811857 0.21004078 -0.062033724 0.23556454
-0.19611478 -0.05117603 -0.46345222 0.14695351 0.100365825 -0.39446905 -0.6635777 -0.25101438
-0.070030615 -0.26460224 -0.17461737 -0.104010135 -0.41300794 -0.039941814 -0.13953875 -0.31061095
0.31361187 0.08200615 0.07215384 0.33290973 0.4606343 0.43618345 0.31392813 0.16010207
0.08685539 0.18123698 0.117094666 -0.09764967 0.13498259 0.35602248 -0.3813543 -0.07453696
-0.11796078 -0.017212182 -0.20517498 0.0751802 0.13645792 -0.13544865 -0.018005505 -0.11829868
0.16734314 0.006548196 0.23410937 -0.23277439 -0.13373451 -0.266846 0.10257138 -0.11374639
-0.13463208 -0.024900146 -0.09438869 0.02309999 -0.14530699 -0.18050766 0.21620281 -0.027727166
0.1430424 -0.22066216 0.03331414 0.17817643 0.20044734 -0.59844345 -0.42417377 -0.2853497
-0.2913911 -0.49433902 -0.1338213 0.09120041 -0.35048175 -0.11229833 0.015026876 -0.16697752
0.4945572 -0.047985565 0.033274814 0.38082263 0.63760453 0.27066556 0.027284946 0.18632498
0.1743868 -0.21847023 0.048757084 0.050968356 0.049802393 0.20733964 -0.3092568 0.16616279
0.15954731 0.32248038 0.23437989 0.23528104 -0.32048276 0.44662055 -0.08141661 -0.022671685
0.061221704 0.11752389 0.030616911 0.1748225 -0.49606752 -0.13142705 0.04401012 -0.7881557
-0.6792068 -0.83840066 0.15691397 -0.50525135 -0.12574264 -0.100277826 -0.27432612 -0.11876263
0.063284114 0.02650502 0.5298376 -0.05085962 -0.052529722 -0.00868386 0.07067308 0.092271805
-0.030174568 0.11422533 -0.17016715 -0.13950978 0.022383481 0.25498125 -0.17838512 -0.24800508
-0.12982337 0.057836622 0.16344966 0.51717323 0.66526544 0.773622 0.28231916 0.41501138
0.053546365 -0.19560161 0.3493196 0.3245659 -0.16958866 0.23643954 -0.32434082 0.2793046
0.031314317 -0.36857578 -0.07667897 0.16359684 -0.11229896 -0.22647025 -0.20361573 -0.022477433
-0.16824137 -0.31163839 -0.018731885 -0.07718815 0.4854834 -0.37381792 0.050195865 0.43514612
0.7433014 0.7265222 0.117957845 0.2309082 -0.13345371 0.14120197 -0.04586337 -0.034041367
0.24797645 0.35454458 -0.7140059 0.030454885 0.048418894 -0.39968005 -0.451283 -0.25012967
-0.030437518 -0.06450193 0.10795722 -0.018061444 -0.17825677 -0.07242631 -0.24696377 -0.18907201
0.000940428 -0.0943569 -0.2672457 -0.06787522 0.25244978 -0.13941662 -0.17005321 -0.22636935
0.06055042 0.19764206 -0.24699838 -0.07792391 -0.09432638 0.08239958 -0.08500187 0.07581037
-0.21960807 0.04425341 0.22321904 -0.19929326 0.1378563 -0.20662862 -0.08519469 0.23619637
0.14002362 -0.031753838 -0.10841487 -0.0177373 0.08372134 -0.002352804 0.15405516 -0.23150763
0.26191702 -0.055572875 0.13201372 0.06204608 -0.17593369 0.05055368 -0.17291746 -0.09246792
-0.23806736 -0.054043375 0.028785724 -0.20418341 0.102985345 0.53050894 0.62469727 0.7084139

static_linear1.bias f4 [20]
00000000: 784a 1dbe 08c3 f6bd a507 4a3e 73d1 17bf
00000010: 9dc1 2fbe 9bf4 353d 66f4 b13e 31ae 1fbf
00000020: 316e d7be e18c 753f 8040 d83c cc57 3bbf
00000030: 130a bc3e cdc6 ddbe b98d 2ebe e08e f13d
00000040: 2e5a 13be 8d40 b93d b2c7 64bf caf1 dd3c
-0.15360439 -0.12048918 0.19729479 -0.5930397 -0.17163701 0.044422727 0.34756774 -0.6237517
-0.42076257 0.9591809 0.026397943 -0.7318084 0.36726436 -0.43315735 -0.1704625 0.11794829
-0.1438987 0.09045515 -0.8936721 0.027092833

static_linear2.weight f4 [20, 20]
00000000: c83d 7d3d c23e 473e e479 8fbd 15cc 42be
00000010: fc84 9e3d 727d 20be e42f 0fbe 3072 31be
00000020: c835 2a3d e000 613e 98cf e33d bf35 55be
00000030: a03b 763d d89e 6f3d 8c47 18bd 7ea0 0dbe
00000040: 02bd 453e c409 803d f8a3 c3bd e842 e0bd
00000050: 509d c0bc 0f69 f43d 3cbf 4abe 3a48 82b9
00000060: e85c 80bc 2205 0abe 7d13 0e3d 7fa9 ac3e
00000070: e8c9 8cbc 4487 babe b403 c7bd 8a13 ef3d
00000080: cca1 9b3d d6bc 163e a41b 883b a017 5dbd
00000090: 9e03 4cbe 37a2 053e 00af 233e 1e08 ebbd
000000a0: 1c2d 373e b836 303e a9d7 5dbe c04b b43d
000000b0: ac44 16be 959a 56be c0d0 a43d 92f2 00be
000000c0: 7c8a de3d a80b 64bd dce7 f83d b42d 133e
000000d0: 941c 1fbd 2800 e13d 2098 d53d 89e9 09be
000000e0: b0fa ef3d 3e4d 30be 9499 1ebe 5632 57be
000000f0: f89b 19bd 21ff 043e 424f 38bd 5d8c d7bd
00000100: 7034 263c e022 92bd 8569 243e a5bf c7be
00000110: d82f 3dbe 5f63 1d3f f0d1 033d 76ed 4dbe
00000120: 8e7b 9f3e 8f1e 97be dd16 77bd 320f 393e
00000130: 1458 b8bd e07d 913d 21ac 94be 12c3 0a3d
00000140: 507e c23c 5448 1fbe fa43 15be a13c 5c3d
00000150: e8a6 98bd 90f7 7e3d 1bdc 90be 792c f43e
00000160: 386e 023e fcdf 86be 3cf3 5b3e dedf 423e
00000170: 7453 a6bc 5b90 e23d 0beb 2c3d f04d 31bc
00000180: 8011 db3b 783e 3b3e 6249 1f3e d6a8 c3bc
00000190: 9c91 0cbe 6ca9 e1bc 10cd 01be c4df 41be
000001a0: 727b 3cbe 5b03 08be 60ce 0ebe a436 e3bd
000001b0: 05d3 47be c58d 453e 3eff 9ebd 25de 5bbe
000001c0: 33dd 203e 8839 e33d 2a21 333d 6049 72bc
000001d0: 6c40 aa3d d9ca 0a3e 9e57 3dbd 1320 243e
000001e0: 0cf1 ba3d a3a2 95bd 682d 2fbe 9e60 f93c
000001f0: c076 d2bb 1229 2abe 063f 263e 3252 2b3e
00000200: 9731 093e cdb3 6bbe d091 b7bc aee8 a73d
00000210: e14c 943c 67e1 b1bd dd8e af3d e4b3 72bd
00000220: 4067 74bd 6374 563d 5e4c 48be 5e89 34be
00000230: 8441 d33d a038 3cbe 6058 7dbd b0b9 733c
00000240: 4a15 613e 57cf 37be 20b2 b2bb 40d8 ee3c
00000250: e8b3 19be 6e7f 553e 9a3f 633e 12f9 89bd
00000260: 00d0 503e d8ca dc3d 32ef 443e 14dd 14be
00000270: 5889 f0bd 0cec 91bd f28c 54be b0e2 e83c
00000280: 4853 a53d 5896 263e 49da 49be ba2f fdbd
00000290: 8a6a 1ebe 448c 253e f04b bfbd 4643 6bbe
000002a0: 2c28 143e 0418 2ebe 2f05 20be 019e 863d
000002b0: 83eb d33d fca4 1f3d 0a98 b73b f3c5 03be
000002c0: 7870 8b3c d0ec f8bd 4008 fdbd ec6b 96bd
000002d0: a089 563e e1af 36be 288f 90bc 7cf6 5abe
000002e0: fb89 4ebe b7f9 613d 10db 543d 486e 473d
000002f0: 63cc 7abe 7108 913d a889 4b3d eea3 333e
00000300: 4702 2e3d 1406 9abd 2a6c 013e 1034 953c
00000310: 00e8 293a 7318 90bd 43f2 c9bc 8b4e d1ba
00000320: 5e8a 8ebd de25 30be e886 4dbd 7996 f3bd
00000330: 4a74 093e 0040 62bc f0b5 0dbc 9088 943d
00000340: 2e05 02be d18a cebd 5e43 96bd 791d ebbd
00000350: 6ecd 95bd beab 32be 6c6f 5fbe 788a f93d
00000360: 008d c9bb 6f48 59be 4073 073d 9a77 20be
00000370: 2d9f eabd 0bf9 46be 6abb 743d 4772 0bbe
00000380: c445 093e 817c 8e3d dc76 5c3e 2387 9ebe
00000390: 153c 05be 80c3 b53e 8e39 2abe a80f 2d3e
000003a0: e5b0 e5bb 247b 14be 7670 e9bd a3e0 13be
000003b0: d873 5dbd 8110 583d e16a 8abe 5958 03be
000003c0: 08c9 143e 9ee7 38be b179 52be 075d 42be
000003d0: a265 13be d6ee 4cbe d0cf 9d3c 044d 81bd
000003e0: f05c bb3c 4479 1fbd cc38 45bd e416 9c3d
000003f0: 9531 63be 86b2 503e 2cd1 5cbd db3b ecbd
0.061826497 0.19457534 -0.07005671 -0.19023164 0.077402085 -0.15672854 -0.13983113 -0.17328715
0.041555196 0.2197299 0.1112358 -0.20821284 0.060115457 0.058501095 -0.037177607 -0.13830754
0.19310382 0.06251863 -0.09552759 -0.10950261 -0.023512512 0.11934101 -0.19799513 -0.00024849345
-0.015669301 -0.1347852 0.034686554 0.33723065 -0.01718612 -0.36431324 -0.09717503 0.11673649
0.0759922 0.14720473 0.0041536856 -0.05397761 -0.19923255 0.13050161 0.15984726 -0.114761576
0.17888302 0.17208374 -0.21664299 0.08803511 -0.14674634 -0.20957406 0.080476284 -0.12592533
0.108662575 -0.05567518 0.12153599 0.14372903 -0.038845614 0.10986358 0.10429406 -0.13467993
0.11717737 -0.17216966 -0.15488273 -0.21015295 -0.03750226 0.12987949 -0.04499746 -0.10524819
0.010144338 -0.07135558 0.16055878 -0.390134 -0.18475282 0.61479753 0.032182634 -0.20110115
0.31148952 -0.29515502 -0.06032454 0.18072203 -0.090011746 0.07104087 -0.29037574 0.03387744
0.023741871 -0.15554935 -0.14576712 0.053768758 -0.0745371 0.062247813 -0.28292927 0.4769018
0.12737358 -0.26342762 0.21479505 0.19030711 -0.020303465 0.1106269 0.042216342 -0.010821804
0.006685436 0.18285549 0.15555337 -0.023884218 -0.1372742 -0.027546607 -0.12675881 -0.18933016
-0.18406466 -0.1328253 -0.13945913 -0.11094406 -0.19514091 0.19292362 -0.07763527 -0.2147146
0.15709381 0.110949576 0.0437328 -0.014788002 0.08313069 0.13553943 -0.046226136 0.1602786
0.09128007 -0.07306411 -0.17107165 0.030441578 -0.0064228475 -0.1661723 0.16234979 0.16730574
0.13397823 -0.23017807 -0.022408396 0.08198677 0.018103065 -0.0868557 0.08572171 -0.05925359
-0.05966878 0.05235709 -0.19560382 -0.17630526 0.103152305 -0.18380976 -0.06185186 0.014875814
0.21980777 -0.17950188 -0.005453363 0.02915585 -0.15010035 0.20849392 0.22192231 -0.067369595
0.20391846 0.10780877 0.19231871 -0.1453746 -0.11744946 -0.071251005 -0.20756891 0.028428406
0.08072525 0.16268289 -0.19712175 -0.12362619 -0.15470329 0.16166788 -0.09340656 -0.22974882
0.1446845 -0.17001349 -0.15626977 0.065731056 0.10347655 0.0389757 0.0056028413 -0.1286848
0.017021403 -0.121545434 -0.12355089 -0.07344803 0.20950937 -0.1784053 -0.017646387 -0.21383089
-0.20169823 0.055169787 0.051966727 0.048689157 -0.2449203 0.07081688 0.049691826 0.17543003
0.04248264 -0.075206906 0.12638918 0.018213302 0.0006481409 -0.07035913 -0.024651652 -0.0015968842
-0.06959985 -0.17201945 -0.050177485 -0.11893935 0.13423267 -0.013809204 -0.008649334 0.0725261
-0.12697288 -0.10085071 -0.07337068 -0.11480231 -0.07314573 -0.17448327 -0.21819848 0.12184614
-0.0061508417 -0.21219037 0.033068895 -0.15670624 -0.114561416 -0.1943094 0.059749044 -0.13617812
0.1340552 0.06957341 0.21529716 -0.30962476 -0.130112 0.35500717 -0.16623518 0.16900504
-0.007009613 -0.145001 -0.11398403 -0.14441161 -0.054065555 0.052750114 -0.27034667 -0.1282667
0.14529812 -0.18057105 -0.20554234 -0.189808 -0.14394239 -0.20012984 0.019264132 -0.06313518
0.022871464 -0.038934007 -0.04814987 0.076215535 -0.22186883 0.20380601 -0.05391042 -0.11534854

static_linear2.bias f4 [20]
00000000: 4c8a 64bd 1bde cdbd be62 3dbe 9002 143f
00000010: 972a abbe b4ef 44be b463 0dbe e4e9 ab3d
00000020: 8691 c73d c5e1 dabc fcdb d83d 0f66 293e
00000030: 6cc2 1fbe 5b02 b4be 5819 14be a89c 33be
00000040: 43f8 5dbe a0c2 6cbe 40d7 4abd 37eb eebd
-0.055795953 -0.10052129 -0.18494698 0.5781641 -0.3343093 -0.19232064 -0.13807565 0.083942205
0.09744553 -0.026718983 0.10588834 0.16542839 -0.1560151 -0.35158047 -0.14462793 -0.17540228
-0.21676736 -0.23121119 -0.049521685 -0.116659574

conv1.lin_rel.weight f4 [20, 3]
00000000: 19fe 2b3e 2d36 963e 2c16 e83e 20d1 83bd
00000010: d426 b53e b45d f93e 74de d43e 7af1 f3be
00000020: 482a 5dbf 30c3 efbd 7e59 b33e d4ae ca3e
00000030: 6406 05bf 6296 343e e313 2e3f b858 353e
00000040: cf74 66be df2e 203f 4b9e c43e 5163 afbe
00000050: dc9b 6bbb 0bc8 bdbe f448 0d3e a65e bebe
00000060: 951c 0d3d 823c dc3e 2224 b3be 7760 013f
00000070: 242b 343e 1a01 6d3e c0fa c23d b253 70bd
00000080: fffd 9ebe 8740 d03e 8e30 0d3e 3b09 e4be
00000090: 3d55 13bf 873a b83e 4ea6 36be 9d33 113e
000000a0: 7c2a 0dbf 474c 563f a987 d63e 6a0f a63d
000000b0: 6610 aabf 73b4 483e ff96 bdbe 4802 11bf
000000c0: fff4 5ebe 9112 06bf 54db 79bf 3436 223d
000000d0: 49e3 adbe 9586 debe 87b6 01bf 149f e73e
000000e0: 7505 05bf 8863 58be ec5b a4bd d785 c1be
0.1679615 0.29338208 0.45329416 -0.06436372 0.35381186 0.48704302 0.41575968 -0.4764517
-0.8639264 -0.11707151 0.35029215 0.39586508 -0.51962876 0.17635491 0.67999095 0.17709625
-0.22505496 0.6257152 0.38402018 -0.3425546 -0.0035951054 -0.37066683 0.1379736 -0.37181586
0.034451086 0.43014914 -0.34988505 0.5053782 0.17594582 0.23144951 0.09520483 -0.058673568
-0.3105316 0.4067423 0.13788053 -0.44538292 -0.5755194 0.35982153 -0.17836878 0.14179845
-0.5514295 0.8371014 0.41900375 0.08108409 -1.3286254 0.19600086 -0.37029263 -0.56644106
-0.21773146 -0.5237208 -0.97600293 0.039602473 -0.33962467 -0.43462053 -0.5066914 0.45238554
-0.5196145 -0.21131718 -0.08025345 -0.37797424

conv1.lin_rel.bias f4 [20]
00000000: 6441 ab3d cd46 cebe fcac a2be 8447 d73e
00000010: 9ba3 c73d 3ed9 3ebd 102e 0ebe dcaf 933e
00000020: 954d c93b d7c6 8abe 4451 ebbe 8b27 c1be
00000030: e175 083c 0f03 893e f124 90bc 335c a73e
00000040: 5642 e6be 9f2d 19bf 16f4 76be 78a7 433e
0.08362082 -0.40288392 -0.31772602 0.4204675 0.09748002 -0.046593897 -0.13884759 0.28845108
0.0061432817 -0.27104828 -0.45960438 -0.3772548 0.008328886 0.26760146 -0.01759574 0.3268753
-0.44972485 -0.5983524 -0.24116549 0.19106853

conv1.lin_root.weight f4 [20, 3]
00000000: 70a4 ff3e 0908 4d3f df60 7cbe 1674 c3be
00000010: a654 993e 4eeb 5cbe 63ec a43e 478c 2ebf
00000020: c39a 2c3e 89c2 dcbe 583a 00bf 0ddc a4be
00000030: f0bc b33e 774e 93bb 41cc 413e 241e dabd
00000040: 519e ad3e 5890 9b3e b14b e43e cdd8 a93c
00000050: 6bc5 cebd 36da d8be 0f37 11bf 901f 56bd
00000060: d1f4 0bbb 30ec 0c3f 6cc3 24bf 0535 dcbe
00000070: 7936 df3d 5699 183f 108a d73e 0ddd a3be
00000080: 9eb4 163e 7da5 f43e 78e3 51bf 4ecb ab3e
00000090: ed18 d03e f646 d5bd ebc0 5c3e d609 2abe
000000a0: cf7a c9be 9c2a bebe b556 e8be 0bdd a6bb
000000b0: 5e1a bdbe c91b b8be 6e54 cabe 0763 f0be
000000c0: c365 943e 92d2 0abf 18f4 a7be b143 a7be
000000d0: 0004 0a3f adb3 023f 9302 09bf 4297 c23e
000000e0: e686 07bf e4ab e4bd d00b 163e e839 853d
0.49930143 0.80090386 -0.24646328 -0.38174504 0.29947394 -0.21574137 0.322116 -0.68182796
0.16855912 -0.4311717 -0.50089025 -0.32199135 0.35105085 -0.0044954377 0.18925573 -0.1065028
0.33909848 0.30383563 0.44588998 0.020733261 -0.10096248 -0.42353982 -0.5672464 -0.052276194
-0.0021355639 0.55047894 -0.6436069 -0.430092 0.10899062 0.5960897 0.4209752 -0.32004586
0.14717337 0.47782508 -0.81987715 0.33553547 0.40644017 -0.10413925 0.21557967 -0.16605315
-0.39351508 -0.37141883 -0.45378652 -0.0050922683 -0.3693418 -0.35958698 -0.3951754 -0.46950552
0.28983888 -0.54227555 -0.32803416 -0.32668832 0.53912354 0.51055413 -0.5351955 0.38006026
-0.52940214 -0.11165598 0.14652944 0.06505185

conv2.lin_rel.weight f4 [20, 20]
00000000: 7ade 1c3d 0e5d 9dbd aee2 6fbe c2f0 0a3e
00000010: 109c c33c 72e2 9cbc f48c 4abe c8c6 423e
00000020: 34eb 6cbe 92ba f7bd 6d6d 2ebe fcfb d33d
00000030: 5887 ab3d d01a b33d 3820 3bbe 2243 153e
00000040: 3f20 49be 64ba 203e 6aea 63be f07c ccbc
00000050: a9ae 4e3e 481f 883c 4420 67bd 64ae cc3d
00000060: 42fb 233d 59e0 90bd e9a8 363d c09d fdbb
00000070: 6366 0dbe 6bbb 68be 49da c9bd 04b6 38bc
00000080: 9d31 0cbe 817b 6bbc 9b31 c2bd f49c 39be
00000090: f85d 95bb 7b50 13be 8e4d 64be 348c 1fbe
000000a0: 9f9b 60be 1d1f d8bd 689b 1fbe bccd 14bd
000000b0: 10cd 7cbc 6012 ccbb b4a1 1b3e b0e4 4dbc
000000c0: 38d2 8e3c a095 f33b 5657 4fbe e058 a13c
000000d0: 580f 5d3d 9c9d 8dbd aaa6 c5bd c0a9 0ebb
000000e0: 44f6 4e3e 10a4 8cbd 247b 25be 5c80 1bbe
000000f0: 6b93 10bd 7c07 8b3d 4ca4 e0bd 443f 4ebe
00000100: 2323 aabd cce6 143d 129f c3bd a825 81bc
00000110: dd03 cf3d 8af9 58bd 3ed9 3abe 89ba 8a3d
00000120: dc4a 163e 1fdc c3bd de6d 3d3c 7ea9 573e
00000130: b589 0e3e 50de a13d 8429 1cbd 0028 85bb
00000140: a1f8 453d 584c ac3c af6a bd3d 7823 683d
00000150: 9cf0 00be b132 34be 0a2d 43bd ea8a c4bd
00000160: a16e ad3d 7f33 0abe 48f8 42bd 7726 06bd
00000170: a2bc babd 3731 48be ca81 5c3e 392a 363e
00000180: a8dc 373e a8a7 b53d 208c 083e 70f7 51bd
00000190: 65b6 2a3d 589e 3cbe f97c 6cbd c094 e5bc
000001a0: 31fe da3d b4b8 ba3d ad0a 44bc 876c e2bd
000001b0: 1592 f53d 5e6e 68bd be79 103c a0b7 70bb
000001c0: dbc6 50ba 5828 2fbd f428 ed3d 2b56 f63d
000001d0: 434a 0f3e 1da1 413e 54f0 0abd d09b fa3c
000001e0: 2031 9bbd 24a9 1f3e 4435 3bbe e884 47bd
000001f0: f9b3 27be 78cb a23d 1888 cb3d 18ac 863d
00000200: d4c1 53be 1ca7 df3d cb39 61be b8a7 263d
00000210: a744 4dbe 00d1 13ba 3bee 51be b005 a23d
00000220: a8d4 ec3d 9cac b13d 7e81 bdbd 70aa c5bc
00000230: 73bf 5fbc ac4b 3e3e ed87 cd3d 5496 7bbd
00000240: 2eee 883d 3f79 063e d3fd 8dbc 9b5e d2bd
00000250: a7dd 383e 8b00 ddbd 6a3b 90bd d139 bbbd
00000260: a2df 3fbe 1ae7 09be db4a 473d c0f6 5a3d
00000270: 43c0 093e 1bac 1fbe 8cdd 9f3d 242c 48bd
00000280: 174d 85bd fccd b23d f22e 183e ad21 29be
00000290: e472 a13d 2dd9 9abc 8c48 26bc 55d7 f4bd
000002a0: b7c3 2b3d 142c 37be c2e2 233e 0053 6dbe
000002b0: b122 013e 041f 6ebe 019f 2d3e f101 843b
000002c0: 48ee 1abc fc68 f13d dcb6 08be 9841 37bd
000002d0: e21a 143d d07b 4b3e 752b 143d a00c e23d
000002e0: 17eb 213e b184 4d3d 3402 fe3d 283c 173e
000002f0: 3243 8c3d 000b 2abd 3e25 2dbe 9ca6 f1bd
00000300: 7f30 c3bd 222e 043e 9e88 f0bd 4fba 393e
00000310: 0dd4 12be e926 fabd 7100 38be 8667 c4bd
00000320: 5275 a1bd c6d1 1dbe fd6e bbbd c0fe 633e
00000330: 8200 e93d 3e9b 293e 78e5 003e f48b ce3d
00000340: 4542 9e3c 64f5 36bc c5a7 2cbe 5971 f83d
00000350: 1390 dd3d 6ec2 ef3d 1cd6 a13d 2266 57be
00000360: 6073 e9bd 91da 66be 4ee7 293e b0a3 413d
00000370: 4ff1 f3bd 08f7 94bd b3e9 583d 6c15 9b3d
00000380: 6f1a 72bc 3a0c 51be 6005 3d3e dc04 96bd
00000390: e6cc 213e d538 d4bd d5cc 81bc be8f e53d
000003a0: a614 513e 6384 0f3e 2db7 34be f2e5 723d
000003b0: 49a1 f93d 3e49 bd3d 1001 7b3d 4458 b23d
000003c0: 65da 19be ada8 d2bd e2ac d13d d498 f73d
000003d0: 1cb9 003d f8e6 27be 035f 203d cca8 343e
000003e0: a981 3bbe 1901 193e 04ac f33d a93d 48be
000003f0: 9a2f 0dbe 7854 71bd 60e8 e63d 630c 1fbe
0.038298108 -0.076837644 -0.23426315 0.13568404 0.023878127 -0.019150946 -0.19780332 0.19021142
-0.23136598 -0.12096132 -0.1703393 0.103507966 0.08375424 0.087453485 -0.18274009 0.1457639
-0.19641207 0.15696102 -0.2225739 -0.024961919 0.20183815 0.016616479 -0.056427255 0.099942
0.04003454 -0.07074041 0.04459468 -0.0077397525 -0.13808589 -0.22727744 -0.09856088 -0.011273865
-0.13690801 -0.014372707 -0.09482118 -0.18126279 -0.004558321 -0.1438617 -0.2229521 -0.15580827
-0.21934365 -0.105528094 -0.15586627 -0.036329016 -0.01542975 -0.0062277764 0.15198404 -0.01256673
0.017434224 0.007433608 -0.2024816 0.0196957 0.05396971 -0.06914827 -0.09650929 -0.002176866
0.2021113 -0.0686723 -0.16160256 -0.15185684 -0.03529684 0.06788537 -0.10968837 -0.20141321
-0.08307483 0.036352918 -0.09551825 -0.015765026 0.10108159 -0.052972354 -0.18246934 0.0677386
0.14676994 -0.09563469 0.011561839 0.2106075 0.13919719 0.07903731 -0.03812553 -0.0040636063
0.048332814 0.021032497 0.09248864 0.05667445 -0.12591785 -0.17597462 -0.047650374 -0.09596808
0.084683664 -0.13496207 -0.04760006 -0.032751527 -0.0911801 -0.19550024 0.21533886 0.17789544
0.17955267 0.088698685 0.13334703 -0.051261365 0.04167785 -0.18419778 -0.05773637 -0.028025031
0.106930144 0.091172606 -0.011965436 -0.11055856 0.119907536 -0.05674588 0.008818088 -0.0036730543
-0.0007964202 -0.042763084 0.11580077 0.12028154 0.13993172 0.18909116 -0.0339206 0.030591875
-0.07577729 0.15591866 -0.18282038 -0.048710734 -0.16377248 0.07948965 0.09938067 0.06575793
-0.20679408 0.109205455 -0.21994703 0.040687293 -0.2004572 -0.00056387484 -0.20501034 0.07911241
0.115639985 0.08675501 -0.09253214 -0.024129122 -0.013656485 0.18583554 0.100356914 -0.06142266
0.06686054 0.13132189 -0.017332947 -0.10271951 0.18053304 -0.10791119 -0.07042582 -0.09141887
-0.18737653 -0.13467064 0.048655372 0.053457975 0.13452248 -0.15592997 0.078059286 -0.04887022
-0.06508844 0.08730695 0.14861658 -0.16516753 0.07883242 -0.018902386 -0.010149132 -0.11955134
0.041934695 -0.17887908 0.1600447 -0.23176193 0.1261089 -0.23254019 0.16955186 0.0040285517
-0.009456225 0.11787602 -0.13351005 -0.04474029 0.03615845 0.1987145 0.036174256 0.11037564
0.15812336 0.050175373 0.12402764 0.14769042 0.06848754 -0.041514397 -0.16908738 -0.11799356
-0.09530734 0.12908223 -0.11744808 0.18137477 -0.14338703 -0.12214453 -0.17968918 -0.09590058
-0.07883705 -0.15412053 -0.09152029 0.22265148 0.1137705 0.16563126 0.12587535 0.10085288
0.01931871 -0.011166904 -0.16860874 0.12130994 0.108184956 0.117070064 0.07902166 -0.21035054
-0.11398959 -0.22544314 0.16592142 0.047275245 -0.1191126 -0.0727368 0.052957248 0.07572445
-0.01477681 -0.2041482 0.18459082 -0.073251456 0.15800819 -0.10362402 -0.015844742 0.11209057
0.20418033 0.14015345 -0.17648001 0.059301324 0.12188966 0.092424855 0.06128031 0.087082416
-0.15024717 -0.102860786 0.10238053 0.120896965 0.031426534 -0.16396701 0.03915311 0.17642516
-0.1831118 0.14941825 0.11898044 -0.19554771 -0.1378769 -0.058918446 0.11274791 -0.15532069

conv2.lin_rel.bias f4 [20]
00000000: 7c60 093e b924 083d d857 033d 0b8d 853c
00000010: a62c 00be 1468 85be e0f8 eb3c 9e7d 5ebe
00000020: bc39 45bc fccb c13c 45c9 ca3c bedc 973c
00000030: 0ca9 783d 5870 26be 7646 09be a62a 333e
00000040: da5b 2fbe 06d6 e7bc b055 a6bd 245c 3f3c
0.13415712 0.033238146 0.032066196 0.016302606 -0.12517032 -0.26055968 0.028805196 -0.21727607
-0.012037691 0.023656838 0.024754176 0.018537875 0.06070809 -0.16253793 -0.13405785 0.17496738
-0.17124882 -0.028300297 -0.08121812 0.011679683

conv2.lin_root.weight f4 [20, 20]
00000000: 336e 44be 662f 073e eeb3 96bc 2848 c13d
00000010: 5790 1e3e ffc5 44be ddfc 2e3e a0bc 723d
00000020: 5b71 4b3e f481 5cbe 3c92 443e 8f4b a03d
00000030: dd42 363e 252a f1bd 20a1 503e dac0 11be
00000040: a395 03be e6ee 39be e880 33be 0212 a5bd
00000050: 3a98 ffbd 7aad 3bbe 07b0 4dbe 10c5 9cbc
00000060: f414 0c3e cdee d9bd fe64 4dbc 70a0 723d
00000070: 54d4 653d 58fc e03d 7faa f13c cf36 b13d
00000080: 6310 dfbd d820 3f3c 666c 83bc 0948 76bc
00000090: 6ba1 bf3d 9901 48be ac5f 88bd b013 dcbd
000000a0: 7469 353e bae4 4b3e 5009 633e 3c3a 353e
000000b0: 508e 99bd 80eb 113c c2ad 54be 73c8 2fbe
000000c0: 2050 da3d 7cd4 f6bd c0b1 1e3b 3a87 b2bd
000000d0: bc6a 45be 121b 113e 74ae 59be d068 d83c
000000e0: c806 353d 2bf6 2abe 78c6 17be 20e0 683c
000000f0: 1af4 86bd 96fc 033e 76f6 3c3e 7074 2d3e
00000100: 08ae 49be 0e3f afbd ed43 afbd 73d1 5abe
00000110: f93b 69be 2d07 523e ef9c 463e dcaf fabc
00000120: 19ca 613e 9b13 0d3c 2959 c9bd d90c 14be
00000130: bd0c 33be 5c89 dabd 6ad1 aabd 8a51 36be
00000140: 0924 9bbe 9096 adbc 93f8 363e c8e6 213d
00000150: 6e2b 09be b593 74bd 5f5c 4dbe 0c2c 373e
00000160: 160b 233c cc7b 6dbd 964c d93d 00a4 323e
00000170: 1a78 10bd bf37 d6bd 9d97 043e 7373 a63e
00000180: 96ac dcbc 7fc9 de3d 789a 13bd c1d2 dfbd
00000190: fd95 a93c b1d6 f4bd eafb 3abe dcaa 55bd
000001a0: bd36 4b3e d32f 813d 3f14 d0bd 60aa 2f3e
000001b0: 66a0 abbd 8b74 b83d bd2f f93c 8557 693d
000001c0: c862 273e a13a 133e 8afe 2ebd a9f2 d13d
000001d0: 39d9 2a3e 87f1 e83d cf3a 06be a882 463d
000001e0: 2e32 15be 2020 273e 6653 343e 308a 113d
000001f0: 1696 8abd 2c19 333e f637 42be 82a4 1dbe
00000200: 98d8 bb3d 9ecb 32be 7e56 4f3e 00a6 573a
00000210: 9473 c13d e04e d0bb 0016 5c3e 873d 40be
00000220: 8462 ee3d d044 3d3e fc41 06be c83e d8bc
00000230: 6667 aa3d 0088 b63d c978 b5bc 14af dd3d
00000240: d9e3 963d a3f6 593d 5174 0eba c049 42bd
00000250: 3ebc 433e a1c7 0b3e 6235 90bd 7876 a93b
00000260: 6627 243e 60be 5c3d 0555 46be d368 e93c
00000270: 8660 1ebe 3c82 553d ee22 1e3e 00eb a5bc
00000280: 8f71 15ba 039d 05be f967 71bd e484 c63d
00000290: 2fbe d73e 4598 e9bd 923f 30be f658 35be
000002a0: 716f 43bd f583 b5bc 2ac7 073e ca92 3b3e
000002b0: ff62 8f3e 2aff e43b 657f 06bc de8a 413e
000002c0: d3ca 36be 74b0 273e 54c9 963d ec25 aabd
000002d0: 495f 52bd 916f d6bd a588 ad3b 50a1 49bd
000002e0: a6a2 d53e cdf7 e6bc 55a9 2f3e 0c8b 6fbd
000002f0: a152 b0bc 2f3f e23d aaf6 033e f486 35be
00000300: a80a c73e 22f1 eabd bf03 74bd 4665 46be
00000310: 32d2 3a3d 53cc 0dbd a47e 6ebd 0068 5b3a
00000320: a8d3 2b3d 565f 383e 329a bdbd 098b 5dbe
00000330: 94fa 56bd 773b 48be 74f0 61bd 661d 513e
00000340: e8a0 fb3d 59a3 88be 4964 373c 463f 96bd
00000350: 1b03 0abd 966f fe3d 21d0 ea3d d0f4 4cbe
00000360: bd06 b9bd 99a1 fc3d 7c55 afbd 74db 2d3e
00000370: b38c 3ebe e09d ff3b 8115 b1bc 14ba fd3d
00000380: 9c21 5b3e dbc9 003e 7833 6bbe 4c82 12be
00000390: b376 1ebe 9b2e 5ebe 2a04 20be 5760 323e
000003a0: f480 aabd d56f eebd 9934 18be 5440 033e
000003b0: 9271 1ebe 1fd5 e93d 4007 0f3c 28f4 4f3e
000003c0: 85cb 3bbd 88cd 2fbd 2bf6 65be 58ff 2c3d
000003d0: 409f e1bb 4ae9 bbbc 4dc4 3f3d 12e4 0c3e
000003e0: 70ed a3bd 668c 023e 5638 66bd 0e8f d73d
000003f0: dbc2 1abe fc61 e23d 8d12 2c3d 2b12 f53d
-0.19182663 0.13201675 -0.018396344 0.09437591 0.15484749 -0.19216155 0.17088647 0.059261918
0.1986746 -0.21533948 0.19196409 0.07826912 0.17798944 -0.117756166 0.20373964 -0.14233723
-0.1285005 -0.18157539 -0.17529643 -0.08060075 -0.12480207 -0.18327895 -0.2008668 -0.019136935
0.13679868 -0.10641251 -0.012536285 0.059235036 0.056110695 0.10985631 0.029500244 0.08653032
-0.108917974 0.011665545 -0.0160429 -0.015031823 0.0935696 -0.1953186 -0.06658873 -0.107459426
0.17716008 0.19911471 0.22171521 0.17697996 -0.07497847 0.008906245 -0.20769408 -0.17166309
0.10659814 -0.12052247 0.0024214834 -0.08717199 -0.19278997 0.14170483 -0.21257955 0.026417166
0.04419592 -0.16695468 -0.14821804 0.014213592 -0.065895274 0.12889323 0.18453392 0.16938949
-0.19695294 -0.085569486 -0.08557878 -0.21368961 -0.22776784 0.2051055 0.19395803 -0.030601434
0.2204975 0.008610631 -0.09831459 -0.14458026 -0.17485328 -0.106707305 -0.08340724 -0.17804542
-0.3030093 -0.021189958 0.17868261 0.03952673 -0.13395473 -0.059711177 -0.20054768 0.17887896
0.009951374 -0.05797939 0.10610311 0.17445374 -0.035270788 -0.104598515 0.12948461 0.32509956
-0.026937764 0.10878276 -0.036035985 -0.1092887 0.020701403 -0.11955012 -0.1826016 -0.052164897
0.198451 0.0630795 -0.10160112 0.17154837 -0.08380203 0.09006604 0.030418271 0.05696823
0.16346276 0.14377834 -0.042723216 0.10251362 0.16684426 0.11374193 -0.13108371 0.048464447
-0.14569923 0.16320848 0.17609939 0.035532176 -0.06766908 0.17490071 -0.1896666 -0.15394786
0.09172171 -0.17460486 0.20247838 0.0008226335 0.09445873 -0.006357059 0.21492767 -0.18773471
0.11639884 0.18483281 -0.13111109 -0.026397124 0.08320503 0.08912659 -0.022152321 0.10824409
0.07367677 0.053213727 -0.00054342026 -0.047433615 0.19114777 0.13650371 -0.07041432 0.0051715933
0.16030654 0.053892493 -0.1936837 0.028492367 -0.15466508 0.052126154 0.15443012 -0.020253658
-0.00057008205 -0.13048176 -0.058937047 0.096933156 0.42137286 -0.11405996 -0.1721175 -0.17709717
-0.0477137 -0.022157649 0.13259569 0.18317714 0.28005216 0.0069884257 -0.008209084 0.1890063
-0.17850809 0.16375905 0.07362619 -0.08308014 -0.051360402 -0.10470498 0.0052958303 -0.049226105
0.41725653 -0.028194332 0.17154439 -0.058482215 -0.021523776 0.110472076 0.12887064 -0.17727262
0.38875318 -0.11471774 -0.059573885 -0.1937457 0.045610614 -0.034618687 -0.058226243 0.0008369684
0.041949898 0.18005118 -0.09257926 -0.21635069 -0.052485064 -0.19553934 -0.055160955 0.20421371
0.1228655 -0.26687124 0.011193343 -0.07336287 -0.033694368 0.12423627 0.11465479 -0.20015264
-0.09034488 0.1233551 -0.08561227 0.16978246 -0.1860836 0.0078008026 -0.0216167 0.12389007
0.2139954 0.12577002 -0.22968853 -0.14307517 -0.15474968 -0.21697466 -0.15626588 0.17419563
-0.08325377 -0.11642424 -0.14863814 0.12817508 -0.15473011 0.11417603 0.008729756 0.20307982
-0.04584839 -0.04292062 -0.22457187 0.042235702 -0.006885439 -0.02293839 0.046818066 0.13758877
-0.08004272 0.1274887 -0.05620607 0.105253324 -0.15113394 0.11053845 0.04200988 0.11966356

pre_final_linear.weight f4 [20, 40]
00000000: 1d6a 1dbe e2bf b23e 00e9 40bb 4bc4 dabd
00000010: 2143 673e 1304 063e 7516 be3d eb3f 99bd
00000020: 1737 fb3d a235 953d e0cf f83c a6da b0bd
00000030: 283f f8bd 756e 44be 935e c8bd b54c 133e
00000040: bb03 e2bc d084 70be 96bd ec3d 5b51 08be
00000050: 56bc dfbd fb8b b63d 3097 30bc 9209 c2bc
00000060: a5da 0fbc 5d86 5fbd f0c9 b7bc 3a75 03be
00000070: 1db9 2dbc ffdd 40be 162f 78bb a08e 08bd
00000080: 4b7c e0bd 6e14 fd3d e2f9 4bbd b874 3dbd
00000090: 2732 e63b f8d3 693d 2425 773d 996d 0dbe
000000a0: e9cf 213e 303a 3d3e c35d 1a3e 0651 0fbe
000000b0: b5ed ef3c fecf a23d ef99 c8bd 20fa e6bb
000000c0: 586c 5a3c c53a e53d 6000 193c 0145 f5bd
000000d0: 4ea4 edbd 5dae 8c3e 8f8f 9a3d be3e 69bd
000000e0: 396d edbd f101 203e 18bb fd3c e382 be3d
000000f0: bc25 963d 7088 a5bc de7a d43d af8f b8bd
00000100: a1c1 533d bd3f 07be a038 e8bb 6259 173d
00000110: ac13 c7bc 43a8 00be 1d1d 2bbe 2247 ff3d
00000120: 5bdd 003e 8033 2a3b 87b0 86bd 98b1 94bc
00000130: 6c31 b53d bfc1 283d a3bf b7bd cee9 cfbd
00000140: be0e dbbd 93cc 1cbe f3e1 1f3e acef 6c3c
00000150: b50a 71bd 80dc 783c bb26 013e d909 043e
00000160: 6d3f c73d dfd5 e83d 6e3d e23d fa71 28bc
00000170: e4c8 21be 56a6 2c3e 29e6 3c3e b282 ddbd
00000180: e1d1 283b 9c61 05be d204 fd3d 527a c0bc
00000190: e538 06be 8d17 39be 3406 82bd 3223 c83d
000001a0: e237 d03b 7be0 813d 9ccc 1cbe fdcc ea3d
000001b0: 5bc6 21bd 8bf6 0d3d 5309 debc d2f9 bebd
000001c0: 9769 30be 82ae 01be c895 423d 3748 05be
000001d0: 4550 9b3d c2d1 d1bd 33df 3dbd c6bf b1bc
000001e0: c24b c13d ea7d b1bd 4a25 f5bd e576 96bc
000001f0: 8097 823d e696 a1bd 9564 d63d 5025 f33c
00000200: 9449 8cbd ef66 5cbd 668e 8c3d 6b64 a8bc
00000210: c093 bdbd 6c35 91be b72f 733e 56e4 1ebe
00000220: b146 c9bd fc28 133e fc06 633d b5b0 073d
00000230: 7fd7 06be 6466 7b3d d66c e93d cc91 09be
00000240: 2899 d0bd b876 2ebe 8e53 5abd 467e 013e
00000250: 8727 ed3d bda3 c63d 7679 f23d cc9c d8bd
00000260: b614 c9bd 90b0 e9bd c0db 95bb 4447 3dbd
00000270: ddac 87bb 3988 3fbc 4d6c a7bd 985e 393d
00000280: 2245 b93d 816e 68bd 8006 6c3c f9a5 853e
00000290: 9da3 23be b996 01be dada 163e e870 063d
000002a0: 9852 aabb cb49 143d aaac f83d 7358 b83e
000002b0: a1c7 133e b4be 153d 2cb7 64be 2628 ff3d
000002c0: 49dc eebd 0cee f1bd 76d7 cbbd 2323 97bd
000002d0: e89d 473d 7601 53bd 7815 833d f3cc a9bc
000002e0: a96c 223e 5b19 323e 46ac 08be 0e0f 4abd
000002f0: de2c f0bd 4015 e5bd fe87 eb3d 5cb7 913c
00000300: 7e80 98bd 3267 a5bd e291 de3d f045 843c
00000310: 65b6 f1bb ed15 6ebd 90b1 823c 27de fbbd
00000320: 7ed6 53bd 0e97 fcbd 7c8e 933d c823 643e
00000330: 6a13 17be 0ce6 c63d 9d33 08be e8cd 6ebd
00000340: 872a ef3a 6fdf 503d 1d77 c5bd d707 f73e
00000350: 7039 0abe 751d c5bd 8ab2 17be c06a 0e3b
00000360: cd9a eebd 078c bbbd 75a3 dcbd 89d5 35be
00000370: ad9d a2bd dc9e 553d 1463 09be e321 153e
00000380: 8cbd 163c 62ec 81bd 3992 143e baf7 0d3e
00000390: 387a 253d db00 343e 8e31 b4bd 85d8 273e
000003a0: 8ab7 5abd 706a 93bc e0f1 323c 5d7a 043e
000003b0: ca4f 5ebd ebe4 20bc 5451 d23b 0be7 663d
000003c0: b76d 1e3e 7171 fd3b 6b98 1ebe e36f abbd
000003d0: 503e 07be 9e4a ee3d a737 0b3e c067 37bc
000003e0: f4bb d63d 6b5c e23c ce78 39bd f1a9 55be
000003f0: 0974 08be d5e0 1bbe 8b39 063e acbe 9fbd
-0.1537251 0.3491202 -0.0029435754 -0.10681971 0.22584201 0.13087492 0.09281627 -0.074828945
0.12266367 0.0728562 0.03037256 -0.08635454 -0.12121421 -0.19182761 -0.097836636 0.1438473
-0.02758967 -0.23488164 0.11559598 -0.13312285 -0.10924594 0.08913418 -0.010778233 -0.023686204
-0.008780156 -0.0545715 -0.022435158 -0.12837687 -0.0106032165 -0.18834685 -0.0037869862 -0.033339143
-0.10961207 0.12357412 -0.049798854 -0.04625389 0.0070250216 0.057086915 0.060338154 -0.1381134
0.15801968 0.18479228 0.1507483 -0.13995752 0.029288152 0.079498276 -0.097949855 -0.00704886
0.013331495 0.1119285 0.009338468 -0.11976052 -0.11603604 0.2747678 0.07546913 -0.0569446
-0.11593098 0.1562574 0.030973002 0.093023084 0.07331416 -0.02020666 0.103749976 -0.090117805
0.05169833 -0.13207908 -0.0070868284 0.036950476 -0.024301372 -0.12564187 -0.16710325 0.124647394
0.1258444 0.0025970638 -0.06576639 -0.01815109 0.08847317 0.041200396 -0.08972099 -0.101520166
-0.10696171 -0.15312414 0.15613537 0.014461439 -0.0588481 0.01518929 0.12612431 0.12894382
0.097288944 0.11368918 0.11046873 -0.01028108 -0.1579929 0.16860327 0.18447174 -0.10815944
0.0025759863 -0.13025516 0.12354435 -0.023495827 -0.13107641 -0.1807539 -0.063488394 0.09772338
0.006354318 0.063416444 -0.15312427 0.1146488 -0.039495807 0.03465895 -0.027104056 -0.09324993
-0.1722778 -0.12664226 0.047506124 -0.13015829 0.075836696 -0.10245086 -0.046355437 -0.02169789
0.09438278 -0.08666594 -0.11970003 -0.01836724 0.063765526 -0.0789011 0.10468403 0.029680878
-0.068499714 -0.053809103 0.06863098 -0.020555696 -0.09256697 -0.2836107 0.2374867 -0.15516791
-0.098279364 0.14371103 0.055426583 0.033127505 -0.13168143 0.061376944 0.11397712 -0.13434523
-0.10185462 -0.17037475 -0.05330234 0.12645826 0.11579805 0.09699199 0.11839573 -0.10576782
-0.098184034 -0.1141063 -0.0045733154 -0.046210542 -0.00414048 -0.011690193 -0.081749536 0.045256227
0.09046389 -0.05674601 0.014405847 0.2610319 -0.15980382 -0.12655152 0.14731923 0.03282252
-0.005197834 0.036203187 0.12142308 0.3600498 0.14431621 0.03655882 -0.223355 0.124588296
-0.1166311 -0.11812982 -0.09953205 -0.07379749 0.048734576 -0.051515065 0.06400579 -0.02072761
0.15861763 0.17392485 -0.13346967 -0.049330764 -0.11727308 -0.11185694 0.11500548 0.017787628
-0.07446383 -0.080763236 0.10867669 0.01614663 -0.0073764795 -0.05812638 0.015953809 -0.122982316
-0.051718228 -0.12333499 0.07204911 0.22279274 -0.147535 0.09711847 -0.13300939 -0.058301836
0.0018246927 0.050994333 -0.0964186 0.4824817 -0.13498473 -0.09624759 -0.14814201 0.0021731108
-0.1165062 -0.091575675 -0.107733645 -0.17757238 -0.079402305 0.052153453 -0.13416702 0.14563708
0.009200465 -0.063439146 0.14508905 0.13864031 0.04039976 0.17578451 -0.08798514 0.1639119
-0.053397693 -0.01799509 0.010921925 0.12937303 -0.05427531 -0.009820203 0.0064183865 0.056372683
0.1547154 0.0077344705 -0.1548783 -0.0837095 -0.13207364 0.11635326 0.13595448 -0.0111941695
0.10485068 0.027631959 -0.045281224 -0.20865609 -0.13325514 -0.15222485 0.13107888 -0.0780004

pre_final_linear.bias f4 [20]
00000000: cdea 0e3b 163f 96bd 8c72 a9bd 4e31 193d
00000010: 0b66 0c3f 0614 b63e c7cd dcbd 7024 f03c
00000020: 0efb 34bd 3b18 ff3e 97c7 e8bd 153c 0dbd
00000030: 1d0b 8abe edde c13c 28fb dabb 5fe3 69b9
00000040: 8dd4 083f b0a8 253f 04d5 9fbd 8d34 df3e
0.0021807433 -0.073362514 -0.08273801 0.037400536 0.54843205 0.35562152 -0.107814364 0.02931425
-0.044184737 0.49823174 -0.11366194 -0.034481127 -0.26961604 0.02366587 -0.006682772 -0.00022305314
0.53449327 0.6471052 -0.078043014 0.4359478

final_linear_com.weight f4 [1, 20]
00000000: 958e d13e fe91 403e 4a7f 1f3e 4e36 1d3e
00000010: ccf7 e6bd 866c 89be 0488 103e ce0b 873e
00000020: fe4f 973c 506a b3be 7698 2d3e 5c47 17bc
00000030: 81a5 b1bd f36f ff3d a914 323e 06fd 763e
00000040: c44c d6bd 808f a1bd de38 8f3e f70f 7ebe
0.40929094 0.18805692 0.155759 0.15352747 -0.11277732 -0.2684061 0.14114386 0.26376194
0.01847076 -0.35042048 0.1695269 -0.009233322 -0.086741455 0.124725245 0.17390694 0.24119958
-0.10463861 -0.078886986 0.27973074 -0.24810778

final_linear.weight f4 [1, 20]
00000000: 08d0 52be f03f 5cbc 242a 963d 8c95 a43d
00000010: 9052 ccbc 4d14 3cbe c069 a7bc f540 47be
00000020: f81e adbc 445d 9c3d 7ed8 2c3e fc32 00be
00000030: 749e f5bd 7882 593e c4fa 193e 7cd5 fd3d
00000040: 7a74 2b3e 6821 cc3c 9831 9c3d 0efa d2bd
-0.2058717 -0.013442978 0.073322564 0.08036336 -0.024941713 -0.18367119 -0.020436168 -0.19458373
-0.021132931 0.076349765 0.1687946 -0.12519449 -0.11993113 0.21241176 0.15037066 0.123942345
0.16743651 0.024918273 0.07626647 -0.103016004

final_linear1.weight f4 [1, 20]
00000000: c8c3 6e3d 6654 3a3e f44c 60be 6f8f f6be
00000010: 291b 013e ea2e 453e 5a8d 533e ccb7 3b3e
00000020: 47ba ac3b ccfb 0c3e 303d 36bc 28c3 1ebf
00000030: 946f 62bd f5ae ea3d a2ef 383e 50b8 4c3c
00000040: 5611 173e 570f b33d b8a1 cf3d dbe8 2b3e
0.05829218 0.18196258 -0.21904355 -0.48156306 0.12608017 0.19256178 0.2065939 0.18331832
0.0052712294 0.13767928 -0.011122987 -0.62016535 -0.05528219 0.11459152 0.18060163 0.012495115
0.14752707 0.0874316 0.10138267 0.16788046

final_linear2.weight f4 [1, 20]
00000000: b3fc 9a3d 53db 2fbe 20f6 c33d 15d2 96bd
00000010: 6ad1 9ebd 1bb7 533d ba86 9bbd 9383 1b3e
00000020: 0ddd a7bd f03e 34be 8034 85bd c6b1 3ebe
00000030: d4a8 42be 3831 d83d 564f 44be 2b69 4fbe
00000040: e654 ef3c c150 b23d a3ad f3bd 6580 dfbd
0.0756773 -0.1717351 0.09568429 -0.07364289 -0.07754786 0.051688295 -0.075940564 0.1518691
-0.08196459 -0.17602134 -0.06504154 -0.18622503 -0.19009715 0.10556263 -0.1917089 -0.20254962
0.029215287 0.08706809 -0.11898353 -0.10913161

TopKpool.select.weight f4 [1, 20]
00000000: 7859 dcbd 98c0 46be 76d8 5c3e 1a95 5b3e
00000010: 389c 2cbd 40f8 883d ca87 4d3e 004c e03c
00000020: 80f6 403d f000 d7bc c4a8 15bd 702a ab3d
00000030: 1404 0cbd 3252 5b3e 3850 93bd 7c51 5e3e
00000040: 185f c0bc e810 0cbe ef14 52be 40e6 513c
-0.10759252 -0.19409406 0.21566948 0.21443596 -0.04214117 0.06687975 0.2007133 0.02737999
0.04711008 -0.026245564 -0.0365379 0.08357704 -0.034183577 0.21418074 -0.07193035 0.21710771
-0.023482844 -0.13678324 -0.20515798 0.0128112435

SAGpool.gnn.lin_rel.weight f4 [1, 20]
00000000: 4420 ebbd b88b 2a3d e4df 00be d46f aa3d
00000010: d28f 0abe fcaf d2bd 128d b9bd 286a 46bd
00000020: b221 083e a01d de3b f845 95bd a06a 0ebc
00000030: a662 243e ac64 203e 28f4 073e 2032 b43d
00000040: 72aa 063e 4a60 cdbd 1007 eb3c 3420 01be
-0.114807636 0.041637152 -0.12585407 0.08322111 -0.13531426 -0.102874726 -0.0906011 -0.048441082
0.13294104 0.006778434 -0.07288736 -0.008692414 0.16053256 0.15663403 0.13276732 0.08798623
0.13150957 -0.10028131 0.028689891 -0.12609941

SAGpool.gnn.lin_root.weight f4 [1, 20]
00000000: e652 193e 76e3 c6bd 609e f53d 6033 20bc
00000010: 6018 873d 7e81 4f3e 4f44 f3bd 1823 d73d
00000020: a5e5 4ebe f04c e0bc bd00 60be d04d d83c
00000030: 0a73 9ebd 7a32 4c3e 77af d7bd 2c90 613e
00000040: e875 ab3c 2201 c7bd 6013 383e 747d 3a3e
0.1497303 -0.097113535 0.11993098 -0.009777874 0.06596446 0.20264241 -0.11878263 0.105047405
-0.2020479 -0.027380437 -0.21875282 0.026404291 -0.07736786 0.1994113 -0.10531514 0.22027653
0.020930246 -0.09717013 0.17976141 0.18211919
