family-EHR-graphs/results/checkpoint_G2_TestDisease.pt (torch, 58114 bytes, 24 tensors)

lstm.weight_ih_l0 f4 [80, 20]
000000 bb 71 e4 bd f0 35 ae 3d eb 9a fc bd 06 4c 39 3e
       -0.11154505 0.085063815 -0.12334236 0.18095407
000010 b4 68 b1 3d c8 b0 3b 3d 62 0e 52 3e f7 22 3a be
       0.08662549 0.04582289 0.20513299 -0.181774
000020 21 6d e9 bd 00 4b 2d be ff 31 36 be 64 c3 96 3d
       -0.11397768 -0.16923141 -0.1779251 0.073614866
000030 f4 1f a5 bd fc fd 8b 3d ce 07 4c 3e dc f0 1b bd
       -0.08062735 0.06835553 0.19924852 -0.0380715
000040 03 d8 f0 bd 66 13 a0 bd 6f 56 26 be e8 0b 8b 3c
       -0.11759951 -0.078162 -0.1624391 0.01697345
000050 c2 b8 15 be 7d f4 4f be c8 78 9b bc 1c 0e 60 bd
       -0.14621261 -0.20308109 -0.018978491 -0.054700956
000060 a8 e1 da bd 20 e2 6e 3d c0 57 4f bb bc e0 bd bd
       -0.10687572 0.05832112 -0.0031637996 -0.0927138
000070 98 05 fa bc d4 72 3b bd e8 6a 97 bc ec d6 92 3d
       -0.030520245 -0.045763806 -0.018483594 0.07169899
000080 83 8c 4c be b8 10 9e 3c 3a a4 09 be ec c5 10 3e
       -0.19975476 0.019295081 -0.13441554 0.14138001
000090 2a be 00 3e 9a 73 0a be b0 7c 55 3e e4 11 44 3e
       0.12572542 -0.13520661 0.20848346 0.1914745
0000a0 44 fe 14 bd 12 bc b0 bd 7e c1 5a 3e 66 69 3b 3e
       -0.0363753 -0.086296216 0.21362874 0.18301925
0000b0 44 79 17 3e b4 a5 96 3d 40 c7 5f be 6e 75 0c 3e
       0.14792353 0.07355824 -0.21853352 0.13716671
0000c0 f9 54 40 be 66 ab 00 3e f9 7b d5 bd 80 e2 b7 3c
       -0.18782414 0.12565383 -0.104240365 0.02244687
0000d0 d5 d0 26 be 3b 67 02 be 68 c9 16 be 5a ce 63 be
       -0.162906 -0.12734692 -0.14725268 -0.22246686
0000e0 08 d0 ce 3d 96 2c 58 be 8a 7d 03 be 38 fa 68 3d
       0.100982726 -0.21110758 -0.12840858 0.056879252
0000f0 6e d6 d0 bd 80 e8 3d bd 94 cc bc 3d ce 53 24 be
       -0.10197149 -0.046364307 0.09218708 -0.16047594
000100 5e 75 90 bd b0 26 1a 3d 48 9f 11 3e 78 78 06 3e
       -0.07053636 0.03763455 0.14220917 0.13131893
000110 b8 7e f7 bd ca 70 45 3e 04 0c 64 bd fc e9 f1 bd
       -0.120847166 0.19281307 -0.05567552 -0.11812207
000120 80 1c 5a 3e e4 9f 8a 3d 4c 7f 16 be 68 ef 7c bd
       0.21299934 0.06768778 -0.14696997 -0.061751753
000130 50 74 25 3d 6c da 5a be 20 75 14 3c 4e b3 89 bd
       0.040394127 -0.21372384 0.009061128 -0.06723653
000140 70 06 e6 3c 8e 1f 17 3e 5c ae d3 3d fa 6b 60 3e
       0.028079242 0.14758131 0.10335991 0.2191619
000150 e0 ca 4d 3d ec f7 a1 3d 30 c9 02 3c e4 26 5b 3e
       0.050242305 0.079086155 0.007982537 0.21401554
000160 58 49 11 3e a0 89 21 3e 8c b3 01 be ae b3 a1 bd
       0.14188135 0.15775156 -0.12666148 -0.07895599
000170 a2 13 47 3e 4c a1 0e be 80 44 9b 3a 44 a4 43 bd
       0.19441083 -0.13928717 0.0011845976 -0.047764078
000180 64 05 82 3d c4 b5 be 3d 93 31 60 be 90 0d e4 bc
       0.063486844 0.09312013 -0.21893911 -0.027838498
000190 18 9c c4 3d 5a cb 44 3e 30 ed a1 bc 08 56 a8 bd
       0.09600085 0.19218197 -0.01976642 -0.08219534
0001a0 58 5c f8 bd c0 15 48 3c ec 92 37 3e 9a f8 b4 bd
       -0.12126988 0.012212217 0.1792714 -0.088364795
0001b0 b8 8c 3e 3d 20 78 41 bd 80 2e fe bb 5c bc 42 be
       0.04652092 -0.0472337 -0.007757008 -0.19017166
0001c0 50 72 c9 bc 5f c9 fb bd 50 34 28 bc 8c 1b d9 3d
       -0.024590641 -0.12294268 -0.0102663785 0.10600957
0001d0 3a 38 83 bd b8 3c b9 3d e2 9f 32 3e 90 01 5f 3e
       -0.06407209 0.09044784 0.17443803 0.2177794
0001e0 a8 18 bf bd 36 f8 4f be 70 ec 4e 3d ba 4f 31 3e
       -0.09330875 -0.20309529 0.050518453 0.1731557
0001f0 49 cd 20 be a0 c5 5d be e8 bc 95 3d e2 1c 0e 3e
       -0.1570331 -0.21657419 0.07311422 0.13878205
000200 e0 fd 35 3d ea 40 62 3e 48 a5 44 be de be 09 3e
       0.044431567 0.22095075 -0.19203675 0.13451716
000210 d8 7e 12 be 88 4a de 3d f8 98 55 3d 56 2b 1f be
       -0.143062 0.108540595 0.052147835 -0.15543875
000220 30 c2 3f 3d 50 c3 b1 3d 08 e7 4e bd b1 04 54 be
       0.04681605 0.08679831 -0.050513297 -0.20704915
000230 50 10 12 be 04 cf bd bd 0a a2 5e 3e 28 d4 e2 bd
       -0.14264035 -0.09268001 0.217415 -0.11075622
000240 c2 fc 07 be 78 34 0e bd 70 f2 13 3c 98 41 8a 3c
       -0.13280013 -0.034718007 0.00902997 0.01687698
000250 3a ee 90 bd b4 28 bd 3d 2a bb 1b be 50 0f e4 3c
       -0.07076688 0.09236279 -0.15208116 0.027839333
000260 be 33 b9 bd 0e ed c9 bd 1e 29 0e 3e e8 a2 44 3d
       -0.09043072 -0.09859668 0.13882872 0.048006922
000270 67 52 5b be 54 55 31 be 38 69 ae bd 62 b6 f7 bd
       -0.21418153 -0.17317706 -0.08516163 -0.12095334
000280 40 1c 24 bd 00 fe e4 3d 70 0b be 3d 1e 4e 35 be
       -0.040066004 0.11181259 0.09279525 -0.1770558
000290 f0 a7 ab bd 06 b8 5b 3e d8 ac 70 bd e0 02 8e bb
       -0.08381641 0.21456918 -0.058758587 -0.004333839
0002a0 ac 87 72 bd 58 18 46 be 18 54 ab 3c 9e cf 05 3e
       -0.059211418 -0.19345224 0.020914122 0.13067481
0002b0 52 c1 20 be 84 52 81 3d a0 c1 b7 3c 44 7a a7 3d
       -0.15698746 0.06314567 0.022431195 0.08177617
0002c0 3c fb 3b 3e 3a 4f b6 bd 10 5b 5c 3c 40 fd 94 bd
       0.18357557 -0.0890183 0.013449445 -0.07274866
0002d0 00 8e 79 3c b8 71 c6 bc 60 32 bd bb 98 5f 91 bd
       0.015231609 -0.024224147 -0.0057738274 -0.07098311
0002e0 2a 23 31 be 15 2f 64 be 78 6b b5 bd 58 28 42 3e
       -0.1729857 -0.22283585 -0.08858389 0.18960702
0002f0 82 c4 82 bd 3c 5d 5b be 7c a2 d0 3d f0 1b 1d bd
       -0.06385137 -0.21422285 0.101872414 -0.03835672
000300 b7 90 24 be 80 25 0f be 0e c0 1a 3e b0 c1 16 be
       -0.1607083 -0.13979149 0.15112326 -0.14722323
000310 a2 fa 1f 3e 38 87 15 be a0 34 60 3d 02 9f 37 3e
       0.15622953 -0.14602363 0.054737687 0.1793175
000320 60 8e 72 bd ee d0 1f be f8 b9 98 bd b3 fa 34 be
       -0.05921781 -0.15607044 -0.07457346 -0.17673759
000330 80 3d e2 3c 44 46 08 bd 48 e0 c9 bd 20 26 de bb
       0.027617216 -0.033270136 -0.098572314 -0.006779447
000340 60 01 80 bb bc bf 10 be c2 36 1b 3e bc 01 f3 3d
       -0.003906414 -0.14135641 0.15157607 0.11865565
000350 70 c1 57 3d fc 1e c9 bd 78 4e bc bd 44 cf 22 bd
       0.05267471 -0.09820363 -0.09194654 -0.039748445
000360 4e 7e 52 3e 81 4d 63 be bd 7c 34 be d1 f1 ed bd
       0.20555994 -0.22197534 -0.17625709 -0.116183884
000370 e8 8f 4d 3e 60 f9 c8 3d ba 3a 56 be 50 91 38 3e
       0.20074427 0.098131895 -0.2092084 0.18024182
000380 aa 77 56 3e f4 2f fb 3d e2 0e 61 3e 22 91 ec bd
       0.20944086 0.12265006 0.21978334 -0.115511194
000390 44 c0 a9 3d 88 d7 36 3d c0 25 5d 3e cf 2c d7 bd
       0.08288625 0.04463914 0.21596432 -0.105065934
0003a0 9e dc 0b 3e ec 2a 7b bd f4 b0 11 3e 00 f2 70 bb
       0.13658378 -0.06132023 0.14227659 -0.0036765337
0003b0 5c 82 56 bd 0c b7 b6 3d cc 25 4c bd 44 b1 1b 3e
       -0.052370414 0.08921632 -0.049840733 0.1520434
0003c0 ec 27 d6 3d 01 82 5f be 4c 3b dc 3d 6a c1 38 be
       0.10456833 -0.21826936 0.107534975 -0.18042532
0003d0 9e 48 07 be f1 3a 3b be dc a5 42 be 7b 09 08 be
       -0.13211295 -0.18284203 -0.19008583 -0.13284867
0003e0 a8 d2 1a 3d fe d1 97 bd b0 7c 8e 3c e8 b5 bc 3c
       0.037798554 -0.074131 0.01739344 0.023035958
0003f0 1c 24 06 3e f4 3a 53 3e b0 3f 99 3d 08 9b 1a be
       0.13099712 0.20627958 0.074828506 -0.15098202

lstm.weight_hh_l0 f4 [80, 20]
000000 bd d6 28 be 18 f9 62 bd 08 12 56 3d 8c 56 19 3e
       -0.16488166 -0.055413336 0.05226329 0.14974421
000010 08 38 1c 3e a8 62 b1 bd 90 b6 e0 3c e6 35 3e 3e
       0.15255749 -0.08661395 0.027430803 0.18575248
000020 a4 20 0f 3e 30 5d 11 3e cc 2e e0 3d ac cd 4b 3e
       0.13977295 0.14195704 0.10946426 0.19902676
000030 6a 1c 2a be 98 6c 90 3d b0 37 1a 3d 98 fc 21 3d
       -0.16612402 0.070519626 0.037650764 0.039547533
000040 e4 81 85 3d 9c 1f 8f bd 6e 92 90 bd b8 04 48 3d
       0.06518915 -0.06988451 -0.07059179 0.048832625
000050 80 41 86 bd fc 90 fd bd 40 50 20 3b a1 d9 64 be
       -0.06555462 -0.12381169 0.0024461895 -0.22348644
000060 46 0b 04 be 30 41 da bd 34 82 af 3d 6c 8a 1d be
       -0.12894925 -0.10656965 0.08569756 -0.15384835
000070 75 58 62 be 3a 08 85 bd b0 a4 d3 3d 60 22 b1 3b
       -0.22104056 -0.0649571 0.10334146 0.005405709
000080 10 25 9e bc 04 de 26 bd 42 1e 2c be b4 a4 84 3d
       -0.019304782 -0.040739074 -0.16808417 0.06476727
000090 58 cf 47 3d 98 e1 d8 3d 62 99 3e 3e 26 c4 bb bd
       0.048781723 0.105899036 0.18613198 -0.09168272
0000a0 c2 a9 40 3e 80 72 06 3e da ee 16 3e f4 eb a5 bd
       0.18814757 0.13129616 0.14739552 -0.08101645
0000b0 89 5c 3a be 80 9c 96 bb d0 63 13 3d a8 0c 1b 3d
       -0.18199362 -0.004596293 0.03598386 0.037853867
0000c0 d4 6d 9f bd c2 59 b2 bd 50 5f 5f bc 50 d5 74 bd
       -0.0778462 -0.08708526 -0.013633564 -0.059773743
0000d0 4e 7c 02 3e e8 42 ac 3d a8 ae d1 bc 28 98 ef bd
       0.12742731 0.08411199 -0.025595978 -0.116989434
0000e0 5c 47 b6 bd e8 12 89 3c 10 de 2d 3d 22 11 50 3e
       -0.089003295 0.016732648 0.042448103 0.20319036
0000f0 e6 ca 0d 3e 4c a4 42 3e 7c fe 61 be a8 08 ec 3d
       0.13846931 0.19007987 -0.22069734 0.115250885
000100 f3 77 dd bd c4 51 2c be 30 42 3a be 90 ce be 3c
       -0.10813894 -0.16828066 -0.18189311 0.023291856
000110 89 13 fb bd 48 36 08 3e 36 ba 28 3e ac 73 22 3e
       -0.122595854 0.13301957 0.16477284 0.15864438
000120 90 06 3e bc 0c 54 2a be a5 56 60 be de 73 53 3e
       -0.011598244 -0.16633624 -0.21908052 0.20649669
000130 6c dc 06 be 12 c4 01 3e b0 4f 4e be 88 d2 0c 3e
       -0.13170022 0.12672451 -0.20147586 0.13752186
000140 f0 69 76 bc a6 17 09 3e d8 10 e4 3d ca 78 0c be
       -0.015039906 0.13387927 0.11136025 -0.13717952
000150 fc 5c a6 3d 87 96 5c be a4 78 cf 3d fc 11 15 3e
       0.08123204 -0.21541797 0.10130432 0.14557642
000160 ff 45 da bd 94 d7 a6 3d fc 42 e2 3d 66 eb cc bd
       -0.10657882 0.08146587 0.110479325 -0.10005836
000170 cc a0 46 3e 94 32 f5 3d 1c bb 57 bd ec 41 12 be
       0.19397277 0.11972538 -0.052668676 -0.1428296
000180 60 f6 09 bc 85 7b e1 bd bf ae f2 bd 98 4e 81 3d
       -0.008420557 -0.110098876 -0.118497364 0.06313819
000190 d8 76 2e 3e 24 27 4c bd f8 46 28 3e 13 f4 f9 bd
       0.17037523 -0.049842015 0.16433322 -0.122047566
0001a0 50 e8 43 3d ec 97 26 3e cc aa 9a 3d 7c 92 70 bd
       0.047828972 0.16268891 0.07552108 -0.05873345
0001b0 aa 9b 19 3e 40 11 93 bd 94 11 3e be c4 71 86 bd
       0.15000787 -0.071810246 -0.18561393 -0.06564668
0001c0 0e 2c ff bd 42 c5 38 3e 60 78 e7 bc 18 14 20 3e
       -0.12459575 0.18043998 -0.028255641 0.15632665
0001d0 fc 9f 47 be 4f 18 52 be 60 80 d1 3b 58 67 d7 3d
       -0.19494623 -0.20517085 0.0063934773 0.10517758
0001e0 c0 b4 39 3e 62 82 84 bd 3a ac 20 3e 5c 9f c6 3d
       0.18135357 -0.06470181 0.15690699 0.09698364
0001f0 70 71 d4 3d aa 98 52 3e 90 df 5d bd a4 46 98 3d
       0.10373199 0.20566049 -0.054168284 0.07435349
000200 5d 5c 20 be 54 d7 90 bd 58 cc 8f bd f7 75 f4 bd
       -0.15660234 -0.070723206 -0.07021397 -0.119365625
000210 6c 99 87 3d 38 3a d0 3d d0 d3 8b 3c c8 70 f4 bd
       0.0662106 0.10167354 0.017068774 -0.11935574
000220 4f 0a 07 be aa c6 58 be d0 89 26 3e ec 27 c8 3d
       -0.13187526 -0.21169534 0.16263509 0.097732395
000230 38 ca f7 bc 5e 88 ac bd 10 2a e5 3d b8 d0 81 3c
       -0.030247793 -0.084244475 0.111896634 0.015846595
000240 ec 69 97 3d 50 36 92 bc f4 ea 35 3e c0 a8 fb bb
       0.0739325 -0.017848164 0.17765409 -0.0076800287
000250 78 4c ce 3c b8 00 11 be 0c 49 1c be c0 7a 73 3c
       0.025182948 -0.1416043 -0.1526224 0.014860809
000260 82 5a c9 bd e8 75 4b 3d 54 5e 24 bd 4e b5 52 be
       -0.09831716 0.04967299 -0.04012902 -0.20576975
000270 f0 4a ed 3d d7 63 47 be 28 dd 1c 3e de 26 24 3e
       0.11586559 -0.1947168 0.1531874 0.16030452
000280 a8 71 21 3d d0 e5 f8 3c 00 39 b4 3a 20 ae ad bd
       0.03941503 0.03038302 0.0013749897 -0.08480477
000290 a4 8a b4 3d 2a 06 8a bd c0 5d 51 be d0 03 6b bd
       0.08815506 -0.06739457 -0.20445919 -0.057376683
0002a0 f8 ac 06 3d 20 47 d3 3b 50 57 4b 3d c0 3e 56 3c
       0.0328798 0.0064476877 0.049643815 0.013076484
0002b0 0a 6a 42 be 9a 25 52 be 66 0a 1f 3e 1c 3c e2 3d
       -0.18985763 -0.20522156 0.1553131 0.11046621
0002c0 ac 37 d6 3d c0 ab a8 3d a0 db e3 3b b8 e2 35 3d
       0.10459837 0.08235884 0.0069536716 0.04440567
0002d0 4e 9a 84 bd 32 ff 02 3e 92 0f b8 bd 44 ef b8 3d
       -0.06474744 0.12792662 -0.08987345 0.09030011
0002e0 50 36 2d 3e 58 68 c1 3d 2a 16 16 3e 6a 3e 36 be
       0.1691525 0.0944373 0.14656892 -0.17797247
0002f0 b0 67 58 3c 20 ef 30 be 80 da 99 3c b8 c8 64 be
       0.013208315 -0.17278719 0.018780947 -0.22342193
000300 0c 8b 16 3e 98 61 aa 3c d7 82 39 be 30 cd 42 be
       0.1470148 0.02079849 -0.18116318 -0.19023585
000310 5a 42 37 3e cc 27 fa bd ff 96 32 be f8 72 29 be
       0.17896405 -0.12214622 -0.17440413 -0.16547763
000320 ee ba 36 3e 70 21 40 be 56 7b 82 bd dc d4 c5 bd
       0.17844746 -0.18762755 -0.06371181 -0.0965974
000330 3a e0 13 3e 14 79 37 bd 18 4a 75 3d 40 82 d8 3d
       0.14441004 -0.044793203 0.059885114 0.10571718
000340 cc 41 38 bd 24 83 98 3d 74 00 11 be b4 e2 0b be
       -0.044984624 0.07446888 -0.14160329 -0.13660699
000350 98 14 21 3e b8 25 de bd 80 54 c0 3d 20 e3 96 3c
       0.15730512 -0.10847038 0.09391117 0.018418849
000360 58 3f 59 be 1e 3e 37 3e 6c cc 26 bd be 29 47 3e
       -0.2121557 0.1789479 -0.040722296 0.19449517
000370 1d 0a e2 bd a8 55 4c be 92 56 3a be 70 5b 17 3d
       -0.11037085 -0.1995455 -0.18197086 0.036952436
000380 fa b3 5f 3e 3e 8b 01 be fc 4d 89 bd 88 90 e6 bc
       0.21846 -0.12650773 -0.067043275 -0.02814509
000390 c8 2c f0 3d f0 1d d9 3c 5e c8 90 bd 08 87 88 bd
       0.11727291 0.026503533 -0.07069467 -0.0666638
0003a0 40 d2 3e 3e c8 a8 56 3e 5a ba 06 be 9f d3 e1 bd
       0.18634892 0.20962822 -0.13157025 -0.11026692
0003b0 5c c8 58 3e c8 08 61 be 30 61 0c bc 00 3e ef 3d
       0.21170181 -0.21976006 -0.008568093 0.116817474
0003c0 c0 25 a4 3c c4 d7 95 3d a7 3e ee bd 46 da 37 3e
       0.020037532 0.07316545 -0.11633044 0.17954358
0003d0 00 a9 7c ba 26 de 9f bd 10 02 22 3e 2e 64 5e 3e
       -0.000963822 -0.07806043 0.158211 0.21717903
0003e0 d8 64 15 bd 58 d0 e4 bd 6c cd db bd 14 c3 23 3e
       -0.036473125 -0.11172551 -0.107325405 0.15992385
0003f0 08 ed 5f 3e 8a 2e c7 bd d2 81 48 3e 03 3b f9 bd
       0.21867764 -0.097256735 0.19580773 -0.12169459

lstm.weight_ih_l0_reverse f4 [80, 20]
000000 80 ae 66 bd ca e5 b2 bd 97 cf 3a be 90 f8 75 bc
       -0.05631876 -0.08735235 -0.18243252 -0.015012875
000010 1a f7 42 3e da a1 48 be a8 9a 1c 3d e1 20 07 be
       0.19039574 -0.19592991 0.03823343 -0.13196136
000020 20 7b f5 bc 19 56 cc bd 58 a6 bd 3d 80 c5 f8 bc
       -0.029965937 -0.09977359 0.09260243 -0.030367613
000030 fc 31 fe 3d 48 5b 43 3d f4 3c 56 3e 90 d9 96 bd
       0.124118775 0.047694474 0.2092169 -0.073657155
000040 be 32 49 be ea 5a 11 3e e8 4f 4d 3e 74 20 26 be
       -0.19648263 0.14194837 0.20050013 -0.16223317
000050 b7 e7 29 be 80 86 f8 bc 70 39 ba 3d 5c c2 48 be
       -0.16592298 -0.030337572 0.090929866 -0.19605392
000060 58 25 5e be 6a fc 1e be 40 39 34 bc c8 27 26 3d
       -0.21693933 -0.15525976 -0.010999978 0.040565282
000070 10 68 9b bc 9e 4f 5f 3e 46 f4 45 be 84 6f 38 3e
       -0.01897052 0.21807715 -0.19331464 0.1801129
000080 94 75 29 3e 50 23 56 3e 80 45 10 3b 30 d7 11 3e
       0.16548759 0.20911908 0.0022014081 0.14242244
000090 24 b5 18 bd b3 f3 07 be e0 65 f4 3b 3c 3a ab 3d
       -0.037282124 -0.13276558 0.0074584335 0.08360717
0000a0 3e 52 0f 3e b4 10 20 3e 02 bc 20 be 50 ed be 3d
       0.13996217 0.15631372 -0.1569672 0.093226075
0000b0 36 e1 97 bd d4 f8 35 be 65 bd 15 be 56 14 27 3e
       -0.074160025 -0.17770702 -0.1462303 0.16316351
0000c0 02 bb 2e 3e ca bc 2a be 49 2b 26 be 6a 37 63 be
       0.17063525 -0.1667358 -0.1622745 -0.22189108
0000d0 68 76 cb bd 30 35 0c be 64 c8 22 be d0 ac cc 3d
       -0.099346936 -0.13692164 -0.15896755 0.09993899
0000e0 18 ed e8 3d a8 1b b2 bc fc 08 2a be 40 6b 5a be
       0.11373347 -0.021741703 -0.1660499 -0.21329975
0000f0 80 1b e8 ba 7a be 41 3e 06 7d bd bd 66 a6 3c be
       -0.0017708391 0.18920317 -0.09252362 -0.18422851
000100 7c f1 b3 3d d4 9a ba 3d ac 32 55 3e e1 76 2e be
       0.08786294 0.09111562 0.20820111 -0.17037536
000110 04 c7 ef 3d e2 f2 33 3e d0 0b 8a bd 0a 72 4c 3e
       0.11707881 0.17573121 -0.06740534 0.19965377
000120 4e 2c 41 3e 88 d0 b1 bc b0 46 42 be 14 cb 8f 3d
       0.18864557 -0.02170588 -0.18972278 0.07021156
000130 c8 02 72 3d 90 08 fb 3c d8 c2 a8 3c 50 03 5b 3e
       0.059084684 0.030643731 0.020600721 0.21387982
000140 80 7c 56 bd 43 66 df bd 08 a8 0c 3d c0 3b 05 3d
       -0.052364826 -0.10908177 0.034339935 0.032527685
000150 5e 89 55 3e 80 a0 6b bc 60 b8 75 bc 10 69 39 be
       0.20853183 -0.014381528 -0.014997572 -0.18106484
000160 da ee 63 be a8 4d 9e 3d 9a 37 23 be 29 4b 5d be
       -0.22259083 0.077296555 -0.15939179 -0.21610703
000170 2d 4d 31 be 4c 28 ba bd 38 7b 87 bd 80 9b e2 bc
       -0.17314596 -0.09089717 -0.06615299 -0.027662039
000180 c0 6c 61 bd 80 9e 28 3d 16 31 5f be 30 61 42 3e
       -0.055035353 0.041166782 -0.21796069 0.18982387
000190 42 75 40 be a4 82 bd bd b0 91 91 bc f0 40 5a 3c
       -0.1879473 -0.09253433 -0.017769665 0.013321146
0001a0 e4 39 d1 bd a0 a3 f2 3d a0 4e 82 bc b8 ad 6a bd
       -0.1021612 0.11847615 -0.015906632 -0.057294577
0001b0 ba 7a 96 bd d8 1a 5b bd 9c e0 24 3e d2 d5 12 be
       -0.07347627 -0.053492397 0.16101307 -0.14339378
0001c0 68 1b ae bd 28 41 9f bc 80 f5 52 be 48 f3 14 3e
       -0.08501321 -0.019440249 -0.20601463 0.1454593
0001d0 60 cf 61 3c 60 32 81 bb bc 73 df 3d ce 71 c8 bd
       0.013782352 -0.0039427727 0.109107465 -0.097873315
0001e0 98 e0 28 3d 80 be ca bb 66 47 1f be 50 ea 3b 3d
       0.041229814 -0.00618726 -0.1555458 0.045877755
0001f0 53 08 5a be 32 18 0d 3e 86 24 53 3e d0 d2 76 3c
       -0.21292238 0.13778761 0.20619401 0.01506491
000200 57 d3 58 be b8 e6 b0 3d 10 d6 05 bc 14 46 3b bd
       -0.2117437 0.08637756 -0.008168712 -0.04572113
000210 98 7f 82 bc 14 97 ba bd 24 a3 2c be d4 e3 1d be
       -0.015929982 -0.09110847 -0.16859108 -0.15418941
000220 a0 47 ec 3c 14 1f 1e be 0c c3 a4 3d 60 7c 07 3d
       0.028842747 -0.15441543 0.08045015 0.033077598
000230 e8 d6 aa bd 48 c5 f6 bc 2b c5 03 be 75 09 4c be
       -0.08341771 -0.030123368 -0.12868182 -0.19925483
000240 18 70 6b bd b4 c5 50 3e c0 25 d1 3b 40 ff e8 3c
       -0.057479948 0.20387918 0.006382674 0.028442025
000250 2e 67 1c be 4a ae 0f be 30 9b 1e 3d d4 d4 5f bd
       -0.15273735 -0.1403133 0.038722217 -0.054646328
000260 cd 61 d6 bd c1 f1 62 be a1 a1 07 be 3e b7 98 bd
       -0.10467873 -0.22162534 -0.1324525 -0.07456826
000270 90 e7 92 bd c0 14 f0 3c e0 8c d4 3d d0 de de 3d
       -0.07173073 0.02930677 0.10378432 0.10882342
000280 60 d4 c5 3c 20 d0 89 3d ca 69 56 3e 7f 7e 01 be
       0.02414912 0.0672915 0.20938793 -0.1264591
000290 99 db 53 be 9e 1c 52 3e b8 59 78 3d 6c 7c cf 3d
       -0.20689239 0.20518729 0.060632437 0.101311535
0002a0 2c a9 48 3e 80 87 b1 ba 76 b8 2b be 18 2d 02 bd
       0.19595784 -0.001354441 -0.16769585 -0.031781286
0002b0 e0 62 97 3b 00 2d 73 3c a8 3e 53 3d cc fe 01 3e
       0.004619941 0.014842272 0.051573426 0.12694854
0002c0 98 6d b6 bd 00 07 bc bc c4 d4 66 bd 3c 86 94 3d
       -0.08907622 -0.022952557 -0.056355253 0.07252166
0002d0 00 6d c8 ba d8 c7 e1 3d 80 6a ad bb 2a 9d 42 be
       -0.0015291274 0.11024445 -0.005292237 -0.19005266
0002e0 aa 6a 5a 3e 80 ae 05 bb 7e 0e 0a 3e 36 04 4c 3e
       0.21329752 -0.00203982 0.13482091 0.19923481
0002f0 bc b2 62 be e0 83 ab bb 8d 7e 32 be 06 0d 1a 3e
       -0.22138494 -0.0052342266 -0.17431088 0.1504403
000300 2e 85 3b 3e 90 f4 dc 3d 5a 6f 01 3e fe 2d 15 3e
       0.18312523 0.10788834 0.12640134 0.14568326
000310 a3 03 31 be fc 4d b6 3d f4 75 82 3d 42 25 97 bd
       -0.17286544 0.08901593 0.06370154 -0.07380153
000320 d8 c8 c3 bc d2 a2 01 be d8 f4 e3 bd 68 27 33 bd
       -0.02389948 -0.12659767 -0.111306846 -0.043738753
000330 94 71 4a be 90 15 19 3c 9a 8e db bd 0c 00 e8 bd
       -0.19769889 0.00934352 -0.107205585 -0.11328134
000340 74 28 34 3e b8 71 01 3d fc 96 c3 bd 59 01 5e be
       0.17593557 0.03160259 -0.09550282 -0.21680202
000350 7a 5b 07 3e 0a bd 58 3e 2c 8f 66 bd 94 d4 3a bd
       0.1321849 0.21165863 -0.056288883 -0.045612887
000360 7a df 8f bd be aa 36 be 4c 61 e5 bd be 58 10 be
       -0.07025047 -0.1783857 -0.112001985 -0.14096352
000370 44 00 9e 3d 16 b4 56 3e da c4 f2 bd 9f be 39 be
       0.077148944 0.20967135 -0.11853953 -0.18139122
000380 b0 77 d2 3c 88 5c c3 3d 04 c0 0d be 90 72 94 bd
       0.025691837 0.09539133 -0.1384278 -0.072484136
000390 00 ef 07 bd 00 15 2d 3b cc 76 5e 3e a1 0f 54 be
       -0.033186913 0.0026410222 0.21725005 -0.20709087
0003a0 4a fd 54 be 2a a5 45 be c2 03 37 be 7e a4 b6 bd
       -0.20799747 -0.19301286 -0.17872527 -0.08918093
0003b0 08 37 db bc 31 44 ef bd 52 ee 3b 3e 7e 59 14 3e
       -0.02675964 -0.11682928 0.1835263 0.14487264
0003c0 c4 03 46 3e 40 0c 82 bc 84 28 a2 bd 7c 7c a9 3d
       0.19337374 -0.015874982 -0.07917884 0.08275697
0003d0 98 cc 9e bd 44 d5 58 3e 88 4e eb 3d 30 b7 18 bc
       -0.07753867 0.21175104 0.11489588 -0.009321019
0003e0 e4 8e 46 be 48 61 86 3d aa e6 53 3e a8 6b d4 3d
       -0.19390446 0.06561524 0.2069346 0.10372096
0003f0 c4 98 c8 3d 98 72 fd bc 58 12 97 bd 71 59 14 be
       0.09794763 -0.030938432 -0.07376546 -0.14487244

lstm.weight_hh_l0_reverse f4 [80, 20]
000000 98 8c 11 3d a0 0d 32 3e 6c a3 ed 3d 18 50 73 3d
       0.03553447 0.1738801 0.11603436 0.059402555
000010 b2 8c 42 3e 90 40 f9 3d e6 b1 30 be 90 07 45 3d
       0.18998984 0.121705174 -0.17255363 0.048102915
000020 67 f2 24 be 24 1d 33 bd 8e d1 63 3e 10 0f 16 bc
       -0.16108094 -0.043728963 0.22247908 -0.009158865
000030 60 2b 22 3c c0 80 bc bb c8 6b 1b 3d d0 ba dc 3c
       0.009898037 -0.005752653 0.037944585 0.026944548
000040 80 3a 61 3d 24 e6 d2 bd 44 af 20 3e d8 3f 23 3e
       0.05498743 -0.10297802 0.15691859 0.15942323
000050 8a 31 56 3e e0 da 2c be 84 83 21 3e f0 8e 67 bd
       0.20917335 -0.16880369 0.15772825 -0.0565328
000060 64 96 c3 3d 58 b4 bc 3c 52 6b 17 be 84 51 43 3e
       0.09550169 0.023035213 -0.14787033 0.19074064
000070 b7 9e 2a be 8c ff bc bd 91 b3 0b be 36 80 56 be
       -0.16662107 -0.09228429 -0.13642718 -0.20947346
000080 10 fd ce bc 40 91 df 3b 31 25 5c be 36 39 a5 bd
       -0.025267154 0.006822735 -0.21498562 -0.08067553
000090 70 df 9d 3d 6a 76 0e be b8 cd 2d be b4 53 32 bd
       0.07708633 -0.13912359 -0.16973007 -0.043536857
0000a0 d4 7f 01 bd 60 f3 86 bc 20 a6 db 3b 00 bb fb 3d
       -0.031616047 -0.016473472 0.0067031533 0.12291527
0000b0 f7 b6 58 be 1c 8e 84 3d 0c f4 49 bd 08 1a 21 3d
       -0.21163546 0.06472418 -0.049305007 0.039331466
0000c0 4f 60 50 be c8 e5 b7 3d 07 17 ea bd fc 6e 08 be
       -0.20349239 0.08979374 -0.11430173 -0.13323587
0000d0 8c 76 1f 3e a0 aa 16 bc 00 d4 b2 39 80 90 c3 3b
       0.15572566 -0.009195954 0.00034108758 0.0059681535
0000e0 23 3f 41 be 04 25 42 3e 8c 9d 13 bd a0 b9 66 bd
       -0.18871741 0.18959433 -0.03603892 -0.05632937
0000f0 dc 5c 48 3e 4f 04 13 be 38 ae 65 bd dc 11 4a be
       0.19566673 -0.14357112 -0.05607435 -0.19733375
000100 08 92 01 3e 30 7c bb bc 76 13 17 3e b8 79 b1 bc
       0.12653363 -0.022886366 0.14753518 -0.021664485
000110 e0 3b ff bd c2 47 02 be 46 28 1f be 50 8f a1 3d
       -0.12462592 -0.12722686 -0.15542707 0.07888663
000120 10 a3 77 3d 52 07 24 3e 20 92 8b 3b 52 f7 47 3e
       0.060458243 0.16018417 0.004259363 0.19527939
000130 14 8a 3c bd 04 19 09 be 72 c5 2d 3e 4e 23 20 3e
       -0.04603012 -0.13388449 0.1696985 0.15638468
000140 98 11 59 3d 7a 92 26 3e 00 b4 38 bc d8 76 04 3d
       0.052995294 0.16266814 -0.011273384 0.0323399
000150 d0 24 df bd 3b f8 3f be 6c 77 23 3e c7 96 cc bd
       -0.10895693 -0.18747036 0.15963525 -0.09989696
000160 80 39 e4 bb a2 9f 0e 3e 98 cb 96 3c 74 cc 1d be
       -0.0069648623 0.13928083 0.018407628 -0.15410024
000170 80 a2 85 3b a8 70 19 3e 4c fa 18 be c4 3e bf 3d
       0.0040782094 0.14984381 -0.1493923 0.093381435
000180 b3 a1 df bd e4 d0 eb 3d 80 88 41 bb aa 58 36 3e
       -0.109195136 0.11514452 -0.0029530823 0.1780726
000190 24 1b 1c 3e 7d 4f 2a be 3e 06 9e bd 7c ed a1 bd
       0.15244728 -0.16631885 -0.07716034 -0.07906625
0001a0 4b 34 59 be be dc 02 be 50 70 28 3d 4a ee 26 be
       -0.21211354 -0.12779519 0.041122735 -0.16301838
0001b0 28 1e 5c 3e 48 9e a4 bc 2c 7f ae 3d 77 7b f7 bd
       0.21495879 -0.020095006 0.0852035 -0.12084096
0001c0 48 8b 50 3d 7c a9 24 be 6c da 15 3e 7d 14 28 be
       0.05091408 -0.16080278 0.14634103 -0.16414066
0001d0 a4 52 2b 3e d0 bf 95 3d 90 68 9d bc fa 29 01 3e
       0.16730744 0.07311976 -0.019214898 0.12613669
0001e0 20 d0 7c 3d e8 43 5b bd c0 3e 95 3c 14 17 8e 3d
       0.06172192 -0.053531557 0.018218398 0.069379956
0001f0 b8 61 25 3d 14 26 25 be e0 c2 94 3d 6c 62 9e 3d
       0.040376395 -0.16127807 0.07263732 0.07733616
000200 a8 78 bf 3d f4 3b 55 3e ea 07 3c 3e 06 4c 18 3e
       0.09349185 0.20823652 0.18362394 0.1487275
000210 28 c9 05 3e c0 d7 f0 3c de 48 5d 3e c2 97 64 be
       0.13065016 0.029399753 0.21609828 -0.22323516
000220 60 25 ed 3d 60 36 01 3c 28 3a 1a 3d 0c 50 50 be
       0.11579394 0.007886499 0.03765312 -0.20343035
000230 82 4d 1a be 62 ba 5c 3e 06 46 5d 3e 29 d8 29 be
       -0.1506863 0.21555474 0.21608743 -0.16586365
000240 f0 e1 0a bc 42 b9 8b bd ad f7 64 be 40 38 88 bd
       -0.008476719 -0.068224445 -0.22360106 -0.06651354
000250 fd 5c 07 be 26 63 3a 3e 04 bd 3e 3e 98 d5 8b 3c
       -0.13219066 0.18201885 0.18626791 0.017069623
000260 57 83 ed bd 00 db 1a 3c 2a f0 48 3e bc a2 0d 3e
       -0.11597317 0.009451628 0.19622865 0.1383161
000270 30 69 07 3c 8c da 24 3e 98 59 bd 3d 04 d4 80 3d
       0.008264825 0.16098994 0.09245604 0.06290439
000280 b0 85 02 3e 28 24 89 bc 98 b4 8c 3c 9a d1 3b be
       0.1274631 -0.016740873 0.017175958 -0.18341675
000290 2a 53 3e be 0e e5 bf bd a4 98 c7 bd 00 0b cc 3c
       -0.18586412 -0.093698606 -0.09745911 0.024907589
0002a0 30 66 60 3d ac b4 ff 3d ca 48 53 3e d2 37 4a 3e
       0.054784954 0.12485632 0.20633236 0.19747856
0002b0 67 37 0c be f9 1e 1e be 80 bc f4 3d 74 ec 9e 3d
       -0.1369301 -0.15441503 0.11950016 0.077599436
0002c0 40 85 18 3b d6 89 c3 bd 12 2f 07 be f8 99 97 3c
       0.0023272783 -0.095477745 -0.1320155 0.018506035
0002d0 40 26 2f 3e 14 8b 4c be 27 5a 23 be 96 f0 5d 3e
       0.17104435 -0.19974929 -0.15952359 0.21673808
0002e0 38 d1 b3 bc c8 36 03 be 00 20 f5 b8 1e 0e 17 be
       -0.02195035 -0.12813866 -0.00011688471 -0.14751479
0002f0 63 c5 5c be 46 8f a5 bd 0c e0 15 bd 92 3c b1 bd
       -0.21559672 -0.08083968 -0.03659062 -0.08654131
000300 3c 03 11 be b0 65 e4 3c 06 99 43 3e 8c 5d e7 3d
       -0.1416139 0.02788052 0.19101343 0.112971395
000310 97 40 0f be 34 c9 20 bd 22 88 35 3e c4 5a 18 3e
       -0.13989483 -0.039254382 0.17727712 0.14878374
000320 40 d4 01 3c 84 9b 62 bd a4 4f eb 3d 3c 37 c0 bd
       0.0079241395 -0.055324093 0.114897996 -0.09385535
000330 7c e5 40 be aa c6 2c 3e f6 5e 3a be 40 4f 10 be
       -0.18837541 0.1687266 -0.18200287 -0.14092731
000340 dc c6 34 bd 56 30 4f be 40 0e ed bb 08 a4 91 bc
       -0.04413496 -0.20233282 -0.0072343647 -0.017778412
000350 84 be 45 bd 34 b3 f9 3d 72 30 2c be 82 1e 64 3e
       -0.048277393 0.121923834 -0.16815355 0.22277263
000360 a0 66 db 3c 78 72 07 be 10 70 b3 bd e4 5c 09 3e
       0.026782334 -0.1322726 -0.087616086 0.13414341
000370 50 38 41 3d f4 44 bc 3d fe e5 c6 bd e0 af df 3c
       0.047172844 0.09192839 -0.09711836 0.027305543
000380 f4 17 63 bd 10 ba 3d 3e 70 48 1b be e0 06 52 3d
       -0.055442765 0.18528008 -0.15164351 0.051276088
000390 d8 23 3c bd 60 72 eb 3d 88 41 78 3d e8 f1 a0 3c
       -0.04593262 0.11496425 0.06060937 0.0196466
0003a0 e0 12 2d be 1e ce bb bd 10 2b 0b 3c 10 b7 27 3c
       -0.16901731 -0.09170173 0.008494154 0.010236517
0003b0 da 82 41 3e e0 15 21 3c c8 4c 2f 3e 71 b5 f4 bd
       0.18897572 0.009831876 0.17119133 -0.1194867
0003c0 80 ba ed 3a 8b f6 48 be e1 87 d3 bd 8a 56 4e 3e
       0.0018137246 -0.19625299 -0.10328651 0.201502
0003d0 f6 c5 42 be 8c a8 82 bd f4 5e 3e be 28 af ad 3c
       -0.19020829 -0.06379804 -0.18590909 0.021201685
0003e0 80 3e ba bb 1a 46 22 3e 52 f6 2a be ba dc 33 3e
       -0.00568372 0.15847054 -0.16695526 0.17564669
0003f0 a8 ba 18 3e 3c 4f e6 3d 7c 32 42 3e ae 0d 3f be
       0.14914954 0.112455815 0.18964571 -0.18657562

combined_linear1.weight f4 [20, 54]
000000 69 77 21 3c 90 1d 46 be 44 0f 8e be 00 2f 1c be
       0.00985513 -0.19347215 -0.27746022 -0.15252304
000010 2d 25 c6 bc 2b d5 48 be 53 f0 99 be cc ea bf bd
       -0.024187649 -0.19612567 -0.30066165 -0.09370956
000020 9b 2e f1 bd af 3c 91 3c 17 04 05 be 7a c8 37 be
       -0.117764674 0.017729132 -0.12989841 -0.1794757
000030 09 4e 8f 3e 85 a7 f0 bd 76 3c be bd 9c 1d 85 bd
       0.27989224 -0.11750702 -0.09288876 -0.06499788
000040 60 c6 39 3d 40 06 87 bb 68 36 f0 bd 24 ee 3e bd
       0.0453552 -0.004120618 -0.11729127 -0.046613827
000050 6c fb ff bd bc c3 d5 3d 9c 95 00 be 70 a3 c9 3d
       -0.12499127 0.10437724 -0.12557071 0.09845626
000060 ec a5 09 3e 38 23 05 3e bc 72 eb bc d6 dc 86 bd
       0.134422 0.13001716 -0.028741233 -0.0658509
000070 72 bb d0 3d c0 c7 0a bb 08 4e ea 3c 80 26 04 3b
       0.10192002 -0.002117619 0.028601661 0.002016455
000080 54 3d 3d bd e4 8f 8e 3d 30 ab 0f 3c 00 df 79 3c
       -0.046201065 0.06961039 0.008768842 0.015250921
000090 44 43 0a be d8 b1 a5 bc ca cf 04 be 28 77 a4 3c
       -0.13502222 -0.020226404 -0.1296989 0.02007635
0000a0 fe 3f f1 bd 52 9b 06 3e 70 30 ce 3c ae 96 90 3d
       -0.11779784 0.13145187 0.025169581 0.0705999
0000b0 10 50 15 3c 80 3a 8c 3a fc 38 3c bd 30 e2 f0 bd
       0.009113327 0.0010698587 -0.045952782 -0.11761892
0000c0 f8 4b 5d bd 78 ac a7 3d b8 af 53 3d a0 08 07 3d
       -0.054027528 0.08187193 0.05168125 0.03296721
0000d0 6c 45 5a 3d 54 aa ce bd 5b 6e 02 be d6 1e 2c bd
       0.053288862 -0.10091081 -0.1273741 -0.042021595
0000e0 54 f9 43 3d b4 49 be 3d ec df 3f 3d 5c b8 ff bd
       0.0478452 0.092914015 0.046844408 -0.12486336
0000f0 0e 3c 09 3e 20 7d 09 be 70 9e d6 3d f8 08 df bd
       0.13401815 -0.13426638 0.10479438 -0.108903825
000100 3e 11 3d bd 6a 49 f8 bd e0 ed f5 3b 8c 3e 6f 3d
       -0.04615902 -0.121233776 0.0075051636 0.05840926
000110 86 aa 04 3e 00 6f 22 bb c9 d9 ff bd 35 1c 05 be
       0.12955675 -0.00247854 -0.12492711 -0.12999041
000120 e1 07 82 bd 9a 07 c7 bd b4 ed 99 3d 60 38 c2 3b
       -0.06349159 -0.09718247 0.075160414 0.0059271306
000130 c0 7e f2 bc f5 40 97 bd d4 97 02 be d0 6e fc 3d
       -0.029601455 -0.073854364 -0.1275323 0.12325823
000140 00 cf 10 3a e8 9a 71 bc e2 a5 ad 3d 5c 43 57 3d
       0.00055240095 -0.014746405 0.08478905 0.052554473
000150 a8 94 3c bc 3a f1 fb bd 50 dd 7d bc 2c 76 f9 3d
       -0.011510052 -0.1230187 -0.01549466 0.121807426
000160 38 fa b9 3c 4a 56 ae bd 99 be c7 bd 04 e1 d7 3d
       0.022702321 -0.08512552 -0.097531505 0.10540965
000170 14 77 aa 3d 20 02 95 bd 26 32 e9 bd ac df 12 3d
       0.083234936 -0.07275796 -0.11386518 0.03585784
000180 20 47 9e 3c 1c 97 5d bd fa 68 09 be ba b0 c6 3d
       0.019321024 -0.054099187 -0.13418952 0.09701677
000190 b0 33 c0 bc d6 06 cf 3d 42 33 c5 3d d0 b0 d0 bd
       -0.023462147 0.10108726 0.09628917 -0.10189974
0001a0 d8 c4 8b 3d 10 f5 70 3d 40 ea 1d 3d 4c c0 5c bd
       0.06824654 0.05882746 0.038553476 -0.053894326
0001b0 db 44 01 be 38 24 e8 bd b0 60 1d bc 64 4f 13 bd
       -0.12623923 -0.11335033 -0.009605572 -0.035964385
0001c0 50 e2 5a bc 60 a0 e3 bd 00 59 12 3d bc 6a 44 bd
       -0.013359621 -0.111145735 0.03572941 -0.047953352
0001d0 54 77 b6 bc 44 ff b9 bd 12 20 ee bd 6a 32 ae bd
       -0.022273697 -0.09081891 -0.11627211 -0.085057095
0001e0 98 36 5b 3d 2e 81 e4 3d 4e ea 75 bd 02 42 10 bd
       0.05351886 0.111574516 -0.060037903 -0.0352192
0001f0 a4 f8 63 3d 5a 5a bc bd 53 31 0b be c0 a3 04 be
       0.055657044 -0.09196921 -0.13593034 -0.1295309
000200 3a f0 31 bd a0 98 e5 3c 28 b6 e3 3c 3a d8 d2 3d
       -0.04344199 0.028026879 0.02779682 0.10295148
000210 b3 32 83 bd 00 49 35 3b 10 01 9b bc 24 ba e4 3d
       -0.064061545 0.002766192 -0.018921405 0.11168316
000220 30 d9 98 3d a2 9b 67 bd 94 7a 12 3d f2 4d 9e 3d
       0.074633 -0.056544907 0.03576143 0.07729711
000230 9c 37 be bd c6 12 c4 3d a0 c9 c1 3d 42 ac ed bd
       -0.092879504 0.09573893 0.09462285 -0.11605121
000240 62 02 a6 3d ff a7 d7 bd 9a 22 07 bd dc 8f 04 3d
       0.08105923 -0.105300896 -0.032991983 0.032363757
000250 06 1f 9a 3d 0a 37 86 3d f0 78 a7 bc 20 ec 3f bd
       0.075254485 0.065534666 -0.02044341 -0.046856046
000260 ae df 8a 3d c0 b6 28 bc 61 9e da bd c4 65 86 3d
       0.06780945 -0.010297477 -0.1067474 0.06562379
000270 e2 ab e4 3d 00 df c1 bb 30 e9 06 bc d8 f8 8e 3c
       0.111655965 -0.0059164762 -0.008234307 0.017452642
000280 b4 71 d2 bc da 1f 2b bd ee 02 be 3c 89 03 1f be
       -0.025688984 -0.041778423 0.023194756 -0.15528692
000290 e5 ce 8e 3d a2 67 b9 3c 88 c0 26 bc 7e 56 23 be
       0.06973056 0.022632424 -0.010177739 -0.15950963
0002a0 62 2d 55 bc 8c 87 fe 3d 95 ae f1 3c fc dd 3e bb
       -0.013011308 0.12428197 0.029502193 -0.0029124012
0002b0 19 8d 38 be 94 eb a1 bd 15 04 7b 3e c1 69 e0 bb
       -0.18022574 -0.07906261 0.24513276 -0.0068485443
0002c0 2c 18 bf bd 50 57 b1 3d a0 b9 3d 3c f0 f4 9a 3c
       -0.09330782 0.08659232 0.011579901 0.018915623
0002d0 60 9e af 3c ec fd 68 3d 74 ab 78 3d e0 7c a6 3b
       0.021437824 0.056882784 0.060710385 0.005080804
0002e0 e6 46 dc bd 4c 5c 9e 3d 0e 28 1d bd c8 7a 69 bd
       -0.1075571 0.07732448 -0.038368277 -0.05700186
0002f0 50 36 df 3c 40 cc fb bb a8 8f e0 bd 80 da d1 3b
       0.027247578 -0.0076842606 -0.109649 0.006404221
000300 64 cf 86 3d 83 b3 f6 bd 98 f5 f2 3d 65 00 b5 bd
       0.06582525 -0.12045958 0.118632495 -0.08837966
000310 4a 82 07 3e f0 ac 8a bc 9d fe 91 bd 4e 94 26 bd
       0.13233295 -0.016928166 -0.07128642 -0.040668778
000320 bc 33 b3 3d 86 fc 6f bd 28 77 8b 3c 72 31 07 be
       0.08750102 -0.058590434 0.017024592 -0.13202456
000330 e0 79 c8 3c a0 1a 18 3c 00 40 58 ba 94 21 05 be
       0.024472177 0.009283692 -0.0008249283 -0.1300109
000340 80 a0 df 3d 58 a0 68 bc 0c 95 4d 3d 7f ea 06 be
       0.10919285 -0.014198385 0.05019097 -0.1317539
000350 54 e8 5c bd b8 54 4f 3d a4 ec 76 3d cc fc 08 3e
       -0.053932503 0.050617903 0.06028427 0.13377684
000360 a4 f5 df bc fb 3b f0 bd d0 9e 3d 3d 28 2e 80 bd
       -0.02733881 -0.1173019 0.046294034 -0.062588036
000370 76 95 98 3d e0 74 8d 3b 90 62 cb 3d dc 9b 43 bd
       0.074503824 0.004316911 0.09930909 -0.04775606
000380 6e 85 cb bd 58 b7 b3 3d 2c 71 09 3d 6a d4 83 3d
       -0.09937559 0.087752044 0.033555195 0.06436999
000390 3d ab a0 bd 88 85 7a bd 14 4f 9f 3d 8a a0 2c bd
       -0.07845161 -0.0611625 0.07778755 -0.04214529
0003a0 c8 cd f6 3c 52 ac 01 3e 3e e4 e5 3d 38 f8 ff 3c
       0.030127421 0.12663391 0.11225174 0.03124629
0003b0 1c ee 64 3d e0 4f a7 3d bc b6 dc 3d ae a1 e5 bd
       0.05589114 0.08169532 0.10777041 -0.112124786
0003c0 e0 4d 1e 3c a8 eb de 3c 02 3d e9 3d 08 e5 9b 3c
       0.009662122 0.027211979 0.113885894 0.019030109
0003d0 14 61 80 bc 26 e2 ba 3d 98 81 f7 bc 2c 2f ec 3d
       -0.01567129 0.09125166 -0.030213162 0.11532435
0003e0 b0 cb 54 3d 46 4f b4 3d 5b 0f 84 bd 64 52 07 be
       0.051952064 0.08804183 -0.06448241 -0.13215023
0003f0 00 62 30 3d 0a cf ae bd 40 bc d3 bb 88 94 9d 3d
       0.04306221 -0.08535583 -0.00646165 0.07694346

combined_linear1.bias f4 [20]
000000 1c c4 d1 3d b4 23 b9 3d 12 40 e4 bd ee ae ed 3d
       0.10242483 0.09040013 -0.11145033 0.11605631
000010 78 c9 f9 3d d6 93 bb be 44 3e c1 3e 24 5b ec 3d
       0.1219663 -0.36636227 0.37742817 0.11540821
000020 76 97 af bd 02 20 c5 bd 02 8b c5 bd 30 ea af 3d
       -0.08573811 -0.09625246 -0.09645654 0.085895896
000030 4c dd f0 be e0 00 16 3f ce 8d aa bd 9c 60 c5 be
       -0.47043836 0.58595085 -0.08327828 -0.3855027
000040 72 26 b5 3e 50 38 5a 3d 35 bd ed be 94 86 f4 3d
       0.35380894 0.05327636 -0.46433416 0.11939731

combined_linear2.weight f4 [20, 20]
000000 6f d7 24 be 18 82 73 3d c4 f6 ba 3d c2 63 f1 3d
       -0.16097806 0.05945024 0.09129098 0.117866054
000010 3a 83 9e bd 61 ad 3b 3d 7c 49 d0 bc 8e 59 15 3e
       -0.07739873 0.045819644 -0.025425665 0.14584944
000020 03 da 22 3e 76 66 a6 bd 26 40 91 3d 9a b6 dd bd
       0.15903477 -0.081250116 0.070923135 -0.10825844
000030 06 1b 65 3e cc 4a 11 bf 60 08 ef bd 58 d0 58 3e
       0.2237359 -0.56754756 -0.11671519 0.21173227
000040 43 e1 81 bd 50 b4 ff 3d e5 82 40 3e 99 51 36 be
       -0.063417934 0.12485564 0.18799932 -0.17804565
000050 18 93 de bd 44 df 1f 3e 4a a7 4d 3e 38 b4 e5 bd
       -0.108679 0.15612513 0.20083347 -0.112160146
000060 da 1d 1d 3e 9c 0e a7 3d b2 bf 72 be 88 a2 9e 3d
       0.15343419 0.081570834 -0.23705938 0.07745844
000070 59 df 59 be 30 5f 71 3d 44 bd 9c 3d 64 3d 88 3d
       -0.21276607 0.05892867 0.07653287 0.06652334
000080 80 de 36 3e 96 2e d6 3d 20 04 84 bd 48 5a 50 be
       0.17858315 0.10458104 -0.06446099 -0.2034694
000090 64 1f 0d bd b0 e2 b4 3c a1 99 60 be fc d3 a3 bd
       -0.034453765 0.02208075 -0.21933605 -0.07999417
0000a0 6c b0 64 bd 1b 38 4f be 28 1e c0 3c 57 ea 5a be
       -0.05583231 -0.20236246 0.02345188 -0.21378456
0000b0 7c 2b 08 bd 0a cc ce bd 70 89 28 3d f0 27 3c 3e
       -0.033244595 -0.10097511 0.041146696 0.1837461
0000c0 00 39 23 3e 16 46 25 be bc 6a 5c bd b1 27 0a be
       0.15939713 -0.16140017 -0.053812727 -0.13491704
0000d0 14 26 03 3e 14 4c 27 3e fc f7 51 be e8 c0 63 bd
       0.12807494 0.16337615 -0.20504755 -0.05560389
0000e0 68 dc fd bd 50 d1 1d 3d ea e8 47 3e e2 9b 3b be
       -0.12395555 0.038529694 0.19522443 -0.18321183
0000f0 dc 51 f5 3d e8 9f 5e 3e 57 1d 01 be e2 08 1b be
       0.11978504 0.21740687 -0.12608849 -0.15140107
000100 58 25 14 3d 38 17 6d 3d 22 9b 4e be 30 12 f1 bc
       0.036168426 0.05788347 -0.20176366 -0.029427618
000110 a0 52 5b 3d de cd 88 bd f0 b5 02 3e f6 71 2d 3e
       0.053545594 -0.06679891 0.12764716 0.16938004
000120 0a b0 c0 bd 02 0f 33 3e 5b d3 0c be 78 b4 80 bc
       -0.09408577 0.17486194 -0.137525 -0.015711054
000130 48 ec 06 be d0 92 f3 bc 0c 08 15 bd ea 5f 92 bd
       -0.13176072 -0.029733092 -0.036384627 -0.071472004
000140 5c 2e bf 3d e8 9a b4 bc ac 2c 28 3e d2 2c 8e bd
       0.09335014 -0.022046521 0.16423291 -0.069421425
000150 04 6f ec 3d cf 8a 47 3e c0 e7 54 be 28 bd ce bd
       0.11544612 0.19486545 -0.2079153 -0.100946724
000160 5f 56 36 3e 59 b9 f0 bd 31 2e 6d bc 00 c4 8f 3d
       0.17806385 -0.11754102 -0.014476345 0.07019806
000170 e8 93 89 bd 1d 80 cf be b1 03 c1 3d d0 7f 5f 3e
       -0.06717664 -0.4052743 0.09424532 0.218261
000180 71 69 08 be 3c cb 5b be 4b 10 94 3e 4e 00 0c be
       -0.13321473 -0.21464247 0.2891868 -0.13671991
000190 18 16 ac bd 24 7e e3 3d 3e 33 49 3e 12 9b d8 3d
       -0.084026515 0.11108044 0.19648454 0.10576452
0001a0 63 ec 56 be b3 a6 6a bd 5c 45 91 3d 00 77 22 bc
       -0.20988612 -0.057287883 0.070933074 -0.009916067
0001b0 71 f2 54 3e 7f 93 cd bd 78 de 57 3e 5f ad 4d be
       0.20795609 -0.10037898 0.21080959 -0.20085667
0001c0 66 79 ad be c1 11 d9 3e 2c ad 62 3e 88 8b fb bd
       -0.33881682 0.42396358 0.22136372 -0.12282473
0001d0 0e 0e 25 3d e8 d2 02 be 5d fc fa bd 32 27 19 be
       0.040296607 -0.12775767 -0.12255166 -0.14956358
0001e0 23 75 35 bd c4 f6 12 be 56 37 48 3e ac 0f d5 3d
       -0.044301163 -0.14351946 0.19552359 0.1040338
0001f0 4a 41 3a be b0 45 ca bd e9 44 a5 3d e6 b8 38 3e
       -0.18188968 -0.09876573 0.08069784 0.18039283
000200 2f 63 51 be e3 c7 45 be 39 52 b5 3d fe 4e 82 bd
       -0.20447992 -0.19314532 0.08853573 -0.06362723
000210 68 18 9c be e4 28 56 3e 6a 1b 6c 3d 09 f4 1d be
       -0.3048737 0.20914036 0.05764333 -0.15425123
000220 6a 02 66 3e 98 8c cb 3d bf 35 6d be 2c 3a 3c 3e
       0.22461858 0.099389255 -0.23165034 0.18381566
000230 9b c1 18 3e be a2 01 be 06 9b 0e 3e dd 6c 2f 3e
       0.14917605 -0.12659737 0.13926324 0.17131372
000240 4e 43 42 be ba bb a0 bd 96 0b d3 bb 78 72 d1 3d
       -0.18970987 -0.07848306 -0.00644059 0.10226911
000250 5c 66 f2 3c 76 9a 84 bd 53 24 16 be 90 5e 86 bc
       0.029589824 -0.064747736 -0.14662294 -0.016402513
000260 11 ee 9c bd d8 ce b1 3e bb c6 a4 3d 16 15 03 be
       -0.07662595 0.34728122 0.08045717 -0.12801012
000270 b3 c4 8a 3d 58 fa ef 3d c4 28 50 be 00 38 e7 3d
       0.06775799 0.11717671 -0.20328051 0.11289978
000280 bb 05 e9 3d a0 3b 7a 3d 40 42 0d 3d e4 93 10 3e
       0.11378046 0.06109202 0.03448701 0.14118916
000290 e8 0a 96 bc c3 b0 0e be 1f 11 8c bd 30 01 8c 3d
       -0.018315747 -0.13934617 -0.06839203 0.06836164
0002a0 2f 75 bd 3c 68 7b 74 3d 5f 67 a3 bd f8 d7 c9 bd
       0.023127167 0.059688002 -0.07978701 -0.09855646
0002b0 f7 df a3 be 70 70 e5 3e e9 38 0c be c0 95 7f 3c
       -0.3200681 0.44812346 -0.13693585 0.015599668
0002c0 e1 16 0c 3e b1 45 44 be 7c a3 c1 be f2 ca c1 3d
       0.13680603 -0.1916721 -0.3782004 0.09462537
0002d0 3b a1 2d be 00 80 dd 3c 86 5b 2b be ca 6c 64 be
       -0.16956036 0.027038574 -0.16734132 -0.22307125
0002e0 b4 16 ae bd 70 cf ff 3d f9 6d ec bd 28 16 9b bd
       -0.08500424 0.124907374 -0.11544413 -0.07572585
0002f0 04 33 53 3e 92 63 db bd c8 dc 1a 3e 30 57 fe 3c
       0.2062493 -0.10712351 0.15123284 0.031047434
000300 04 6f ab bd 79 51 5b be 34 cb ad 3d 76 08 f7 bd
       -0.08370784 -0.21417798 0.084860235 -0.12062161
000310 78 7e 17 be 30 12 1d 3e 88 61 5d bd 88 28 34 3e
       -0.14794338 0.15338969 -0.05404809 0.17593586
000320 bb 58 0b 3e c9 d5 39 be a8 3d 38 bd 47 c8 00 be
       0.13608067 -0.18147959 -0.044980675 -0.125764
000330 f6 99 1f 3e 16 30 a6 bd 6e 0c 11 3e f8 34 0c 3d
       0.15586075 -0.081146404 0.14164898 0.034230202
000340 30 05 d0 bd 98 01 fe bc 58 6d 94 3c ac 2c 08 be
       -0.101572394 -0.03100662 0.018118545 -0.13298291
000350 0f b5 6a bd 66 93 90 3e 28 76 07 bc bb 2c 7e be
       -0.057301577 0.28237456 -0.008267917 -0.24821751
000360 be 1a 24 3e bc e9 15 3e 4c 63 93 be f8 26 93 3c
       0.16025826 0.14639944 -0.28786695 0.017962918
000370 1c 6e 0e 3e 8a 9f 63 3e 90 6c 65 bd 12 28 00 3e
       0.13909191 0.22228828 -0.056011736 0.12515286
000380 b4 09 1b 3e f4 6a a0 3d 0a 57 4e be 98 62 4d bd
       0.1514042 0.078329 -0.2015039 -0.050142854
000390 22 de 1a be 44 18 9a bd e3 bd 3c be 70 f9 a9 3c
       -0.151238 -0.075241596 -0.18431811 0.020748824
0003a0 f7 0e f3 bd c4 3e 8c 3d d0 5c 6c bc f0 06 42 be
       -0.11868089 0.06847909 -0.014426425 -0.18947959
0003b0 60 5d 3b be 16 d6 5f be c2 78 42 3e c0 c6 51 bd
       -0.18297338 -0.21859011 0.18991378 -0.051214933
0003c0 1b e1 1c be 78 24 d0 3d 8e d1 8c bd f3 d8 41 be
       -0.15320246 0.10163206 -0.06875907 -0.18930416
0003d0 e4 d1 91 3d 84 7d 9b 3d ec ed 56 3d 80 ef 91 bd
       0.071201116 0.075922996 0.052472994 -0.07125759
0003e0 15 75 96 3c 58 1e 5f 3d b7 18 46 bb c8 5f 75 3d
       0.018366376 0.054472297 -0.0030227134 0.059905797
0003f0 a7 87 2f 3e 68 50 e2 be 86 03 1b 3e f4 5b 2d 3e
       0.17141591 -0.4420197 0.15138063 0.16929609

combined_linear2.bias f4 [20]
000000 da 4f 4b be 09 24 04 3e 32 a2 09 be 00 3d 0d be
       -0.1985468 0.12904371 -0.13440779 -0.13792801
000010 a5 df b8 bd d3 33 4e 3e 68 f5 fa 3e ac 2f cd 3e
       -0.09027032 0.20136957 0.49015355 0.40075433
000020 50 15 be 3e 7c 23 1b 3e 15 48 cb 3e dd 72 18 be
       0.37125635 0.15150255 0.39703432 -0.14887567
000030 9c e6 8d be e9 5c 02 3e 29 2d 8a be 2a a1 f3 bd
       -0.27715003 0.12730755 -0.2698758 -0.11895974
000040 d0 8c 40 3d 9e e1 ee bd c7 12 92 3c e2 56 87 3e
       0.04700929 -0.11664127 0.01783122 0.26433474

combined_conv1.lin_rel.weight f4 [20, 43]
000000 c0 3b 85 bc d8 a7 81 bc 4a 9c 03 bd ce 44 a9 3d
       -0.016263843 -0.015827104 -0.03213147 0.082650766
000010 48 15 49 bd ca e2 00 3e 76 4d 07 3e 83 33 11 be
       -0.04909256 0.12586513 0.13213143 -0.14179806
000020 60 34 be 3d 84 9f 35 3d d2 26 c0 3d 94 95 e0 3d
       0.092873335 0.04434158 0.093824044 0.1096603
000030 65 6d f1 bd 9b 70 a2 bd 28 a8 9e 3c 86 c9 b6 3d
       -0.117884435 -0.07931634 0.019367293 0.08925156
000040 7c d3 03 3d c2 89 17 be 45 18 c5 bd a0 ef 99 bd
       0.03218411 -0.14798644 -0.0962377 -0.07516408
000050 65 e7 9b bd 0a b6 19 3e a2 4f 92 bd 88 0d 77 3d
       -0.076124944 0.15010849 -0.07144095 0.06031564
000060 aa a9 05 3e 1a 94 e4 bd b4 73 e3 3d 77 73 b1 bd
       0.13053003 -0.11161061 0.11106053 -0.08664601
000070 e0 4b e2 3b 24 2b 0d be 34 9b eb 3d 7c 89 24 3d
       0.0069060177 -0.13785988 0.11504212 0.040170178
000080 0a 9f f1 bd 08 7c e3 3d a4 7f 03 be b9 75 0d be
       -0.117979124 0.111076415 -0.1284166 -0.13814439
000090 aa c2 19 bd dc c3 17 3d a2 e7 84 bd fa c2 1f bd
       -0.03753916 0.03705202 -0.06489493 -0.039004304
0000a0 24 6a e2 3d 80 70 0b be 80 00 a5 3c 39 61 12 be
       0.11055401 -0.13617134 0.02014184 -0.142949
0000b0 f4 84 85 bd 58 b8 57 bd 9e 0e 1b bd 58 6a eb 3d
       -0.065194994 -0.05266604 -0.037855737 0.11494893
0000c0 20 3c 04 bd 50 0c fb bd 68 7f b6 bd cc cb d0 3d
       -0.032283902 -0.12258208 -0.089110196 0.10195121
0000d0 54 b5 63 3d 7a 32 37 bd 74 cc 0a bd b8 88 d6 3d
       0.05559285 -0.044725873 -0.033886388 0.10475296
0000e0 a2 a4 bb 3d b4 ec f5 3d 18 ba a2 bd c8 d2 7c 3d
       0.091622606 0.12008038 -0.07945651 0.061724454
0000f0 e0 05 da 3b ec 3f 32 3d d8 26 8f bc 66 71 03 bd
       0.0066535324 0.043517992 -0.017474577 -0.032090567
000100 fe 5d 9a 3d 0c 7e 15 bd 30 04 8d 3c 36 5e 82 3d
       0.07537459 -0.03649716 0.01721391 0.063656256
000110 68 b9 6a 3d 6a 9f a9 3d 4c 41 0e be 58 e4 f6 3d
       0.057305723 0.08282359 -0.13892096 0.12055272
000120 e6 d7 8b 3d 9c 68 a6 bd 02 97 e5 bd 3e ad 17 3e
       0.06828289 -0.081254214 -0.11210443 0.1481218
000130 c8 6a 7f 3d c8 09 97 bc 70 f6 c5 3c 38 14 06 3e
       0.062357694 -0.018437281 0.024165362 0.1309365
000140 e8 bb e2 3d 84 53 0a 3d 74 f3 a0 3d 56 b4 09 be
       0.110709965 0.033771053 0.07858935 -0.13447699
000150 42 a0 b3 3d 80 b8 83 ba 3a 09 b1 3c a0 d3 b5 3c
       0.08770801 -0.0010049492 0.021610845 0.022195637
000160 65 1f 5a be 36 dc 02 3e 6a a3 ae 3d cc d2 1a bd
       -0.21301039 0.12779316 0.085272625 -0.037798688
000170 97 93 a1 bd 62 de 08 3e d8 46 13 3d 4c 7f ac 3d
       -0.07889479 0.13366082 0.035956234 0.084227175
000180 ac 14 08 be ec 2b de 3d 9e 3a 1a 3e d8 d7 c7 3d
       -0.13289136 0.10848221 0.15061423 0.09757966
000190 cb 0b 8d bd d8 26 cb 3c fe 07 1c bd a0 c5 c1 3b
       -0.06887015 0.024798796 -0.03809356 0.0059134513
0001a0 f0 5f 1a 3e 83 73 fd bd 44 a6 cf 3d e4 4a 1b be
       0.1507566 -0.12375548 0.101391345 -0.15165287
0001b0 74 9b 14 bd c8 4f 43 3d 12 ce 7c bd 18 90 ae bc
       -0.036281064 0.047683507 -0.06171996 -0.021308944
0001c0 ac 1d ab 3d 34 39 e3 bc 98 3f 31 3d 9c 13 0e be
       0.08355269 -0.027737238 0.04327354 -0.13874668
0001d0 d0 1f 98 3c c0 c3 4e bb ae 8e bf 3d 3d fa a9 bd
       0.018569857 -0.0031549782 0.09353386 -0.08299682
0001e0 ee d0 a9 bd aa d4 40 bd 38 4d 02 3e ac f9 04 be
       -0.08291803 -0.047077812 0.12724769 -0.12985867
0001f0 8c 7d fa 3d e8 36 66 3d 40 47 62 bd 06 fd 16 3e
       0.122309774 0.056204706 -0.05524373 0.14744958
000200 0a b0 18 3e e1 bc 52 3b 42 81 eb 3e 39 18 56 3e
       0.14910904 0.0032156038 0.45997053 0.20907678
000210 5c 38 05 3d 00 4c c7 bc 88 63 f3 bd ca 01 41 bd
       0.03252445 -0.024328232 -0.118842185 -0.047120847
000220 1c d2 aa bd f4 5a 5f 3d 28 23 9a bc 8f e7 bf bd
       -0.083408564 0.0545301 -0.018815592 -0.09370338
000230 d4 c8 d5 3d 08 03 29 3d 74 11 22 3d bc 90 7d bd
       0.104386955 0.041262656 0.039567426 -0.061905608
000240 40 95 55 bb e4 ca 51 3d 2c 07 b9 3d 64 40 f1 bc
       -0.003259018 0.051218882 0.09034571 -0.02944965
000250 04 f5 cd 3d 98 35 ae bc ba f5 c0 bd c0 2d 06 3e
       0.10056499 -0.02126579 -0.094218686 0.1310339
000260 7a d9 03 3e 84 af af 3d e6 d9 14 3e 50 65 2f bc
       0.1287593 0.08578399 0.14536247 -0.010705307
000270 84 64 74 3d 79 28 94 bd a7 1d fe bd b6 61 5a bd
       0.05966617 -0.07234282 -0.124079995 -0.05331584
000280 d8 96 d0 bd 04 7b 07 bd 20 fc 65 bc 76 b7 40 bd
       -0.10185021 -0.0330763 -0.014037162 -0.047049962
000290 16 2e af bd c8 10 8c bd da 41 d1 bd 18 77 a1 3c
       -0.08553712 -0.06839138 -0.10217638 0.019710109
0002a0 6c 28 22 3d 7c 0e 45 3d 64 e6 52 3d 05 6e cd bd
       0.03958933 0.048109517 0.05148925 -0.1003075
0002b0 e0 be d8 3b 63 4b 03 be c0 da 70 3c 16 34 30 bd
       0.006614551 -0.12821727 0.014700592 -0.043018423
0002c0 b4 76 32 3d 18 fc cd 3c bc fc a1 3d c4 26 04 be
       0.043570235 0.025144622 0.079095334 -0.12905413
0002d0 c0 cf 08 3d 4e ac a0 3d d8 b7 bf bd 8a 36 03 3e
       0.03340125 0.078453645 -0.09361237 0.12813774
0002e0 7e 12 0a be e0 88 00 be 2a 95 0c 3e b8 18 1b be
       -0.13483617 -0.12552214 0.13728777 -0.15146148
0002f0 04 9a f1 3d 70 c2 a0 3d 84 52 ef 3d 2a b9 cc bd
       0.11796954 0.07849586 0.116856605 -0.09996255
000300 44 58 96 3d 64 f9 15 be d8 ea bf 3c c2 a0 30 bd
       0.07341054 -0.14645916 0.023427412 -0.04312206
000310 6b 3d 12 be c8 ee 27 3d a0 e3 8c bc f0 9b 52 3c
       -0.14281242 0.040999204 -0.017198384 0.012854561
000320 7c 5d fe 3d e0 2d d5 3b 70 e8 51 bd 2c 98 31 3d
       0.124201745 0.006505713 -0.05124706 0.043358013
000330 17 0b 0e be a0 c1 30 bd a8 50 94 bd 40 50 b7 bb
       -0.13871418 -0.043153405 -0.072419465 -0.0055942833
000340 a8 82 cc 3c 48 22 2c 3d d0 83 5d bd 74 40 0c be
       0.024964646 0.04202488 -0.054080784 -0.13696462
000350 d8 05 0e 3e 1e f7 12 3e 80 0d fb 3d 96 f9 ef bd
       0.13869417 0.1435208 0.12258434 -0.117175266
000360 3e 41 0f be 8e bd 01 be f0 d5 a0 3c 12 45 59 bd
       -0.13989732 -0.12669966 0.019633263 -0.053044386
000370 96 b1 fd bd 30 03 d9 bc 9a aa 0f 3e d8 c5 c5 3c
       -0.123873875 -0.026490778 0.14029923 0.02414219
000380 2c a9 09 3e 5e ff bf bd de 4f 0e 3e 52 1e f2 bd
       0.1344344 -0.09374879 0.13897654 -0.118221894
000390 8a e9 00 be a8 e7 00 be b4 c8 ce 3d 97 26 18 be
       -0.12589088 -0.1258837 0.10096875 -0.14858471
0003a0 18 a9 19 be bc f4 30 3d 88 63 ef 3d 01 af 8d bd
       -0.1500591 0.043202147 0.11688906 -0.06918145
0003b0 00 37 94 bd 6e 76 a7 3d c3 54 dc bd 04 ff 4b 3d
       -0.07237053 0.081768855 -0.107583545 0.04980375
0003c0 da a7 06 3e f4 cb 59 bd 40 85 2c bc c5 da c6 bd
       0.13149968 -0.05317302 -0.010529816 -0.09709696
0003d0 21 0a 16 be 5c 18 e7 3d c1 3b 8d bd 24 38 03 3e
       -0.14652301 0.11283943 -0.06896163 0.12814385
0003e0 b0 1d 81 3d 64 4b d4 3d 88 50 b0 bc ac ab 3c 3d
       0.063044906 0.10365942 -0.021522775 0.046062157
0003f0 4d 72 18 be 88 45 0d 3e 32 66 0f 3e 12 dc 07 3e
       -0.14887352 0.13796055 0.14003828 0.13267544
