family-EHR-graphs/results/G1__model.pth (torch, 19269 bytes, 19 tensors)

static_linear1.weight f4 [20, 14]
0	0xbe82b2f8	-0.25527167
1	0x3e25cd8d	0.16191693
2	0x3e80e209	0.2517245
3	0xbe5102eb	-0.2041127
4	0xbe0b4e32	-0.13604048
5	0x3e16bfee	0.14721653
6	0xbe177abb	-0.14792912
7	0x3d4a231f	0.0493499
8	0xbe389d0d	-0.1802866
9	0x3e299964	0.1656242
10	0x3db4fd3a	0.08837362
11	0xbe341c31	-0.17588879
12	0x3e7f664a	0.24941364
13	0x3dcd32d9	0.10019464
14	0x3da6d3c4	0.0814586
15	0x3e43e088	0.1912862
16	0x3efd22ae	0.4944052
17	0x3f15e29d	0.5854891
18	0x3e4f5ed8	0.20251024
19	0x3f02e24f	0.5112657
20	0x3e8515cc	0.25993192
21	0xbdccc132	-0.099977866
22	0x3c500b41	0.012697996
23	0xbdae0f2f	-0.0849899
24	0x3b6e1034	0.0036325576
25	0x3e383205	0.17987831
26	0xbf145a32	-0.5795013
27	0x3c878e3d	0.016547317
28	0x3e05ef69	0.13079609
29	0xbd93c9d4	-0.0721623
30	0x3d908460	0.070564985
31	0x3d2697a2	0.040671952
32	0x3d8f4e99	0.06997413
33	0x3dbda734	0.09260407
34	0xbe86e4c4	-0.2634641
35	0x3dd419e1	0.103564985
36	0x3c51ceed	0.012805683
37	0xbde0396d	-0.10948453
38	0x3d98c820	0.07460046
39	0xbe64c215	-0.22339661
40	0xbe2581d3	-0.16162805
41	0xbe2e618f	-0.17029403
42	0xbd8724cd	-0.06598816
43	0x3ce7c242	0.028290872
44	0x3d6c4a8a	0.057688273
45	0xbe31040e	-0.17286703
46	0x3d388729	0.045050774
47	0x3de61315	0.11234108
48	0x3e681278	0.22663295
49	0xbc893099	-0.016746806
50	0x3ddc8ec3	0.10769417
51	0x3dc8aa6f	0.09798133
52	0x3c1a93a2	0.0094346125
53	0xbde3bd74	-0.1112012
54	0xbe2ce307	-0.16883479
55	0x3e413b86	0.18870363
56	0x3d408845	0.047004957
57	0x3e3a19f3	0.18173961
58	0x3f1ea5d1	0.61971766
59	0x3ed5158a	0.41617996
60	0x3e188805	0.14895637
61	0x3e64f9b6	0.22360882
62	0xbc5e461b	-0.013566519
63	0xbe4824a7	-0.19545232
64	0x3e84c645	0.25932518
65	0xbc783333	-0.015148926
66	0x3e873573	0.26407966
67	0x3d34c579	0.044133637
68	0xbf0dbcee	-0.5536641
69	0x3e1c5f38	0.15270698
70	0xbde2ab53	-0.11067834
71	0xbd99cb0a	-0.0750943
72	0x3dba42c3	0.09094765
73	0xbe758773	-0.23977451
74	0x3e86b869	0.2631257
75	0x3e610b73	0.21977024
76	0x3e8080ef	0.2509837
77	0x3e02af1e	0.12762114
78	0x3e2b8a1a	0.167519
79	0x3c8b4853	0.01700226
80	0x3d261fbe	0.040557615
81	0xbe2013a2	-0.1563249
82	0x3e809322	0.25112253
83	0x3e12478b	0.14285104
84	0xbcc504ac	-0.02405008
85	0xbc719bde	-0.014746634
86	0xbd039e3a	-0.03213332
87	0xbe49aa00	-0.19693756
88	0xbe05a870	-0.13052535
89	0xbd9fb9f8	-0.077991426
90	0xbe6b12bf	-0.2295637
91	0xbe1d2186	-0.1534482
92	0xbcbcb959	-0.0230376
93	0x3e5e8490	0.21730256
94	0xbe1e9b27	-0.15488873
95	0x3d0b3c21	0.03399289
96	0xbcb7984b	-0.022411486
97	0x3c976304	0.018479832
98	0xb9f2adc3	-0.000462873
99	0xbec4ec6b	-0.38461623
100	0xbd863731	-0.06553496
101	0xbe8fe84f	-0.28106925
102	0xbd2add39	-0.04171488
103	0xbe63a625	-0.22231348
104	0xbe91e4e1	-0.28494933
105	0x3df8357a	0.12119575
106	0xbe54dad3	-0.207866
107	0xbe299d2a	-0.1656386
108	0xbd8e87f7	-0.06959527
109	0xbcfc20e9	-0.030777412
110	0x3f37cd3f	0.71797556
111	0xbe1999b6	-0.15000042
112	0xbddad353	-0.10684838
113	0xbe122edb	-0.14275686
114	0x3e83690f	0.2566609
115	0xbe273453	-0.16328554
116	0xbe83d5bb	-0.25749
117	0xbb94a866	-0.004536676
118	0xbe4f7207	-0.20258342
119	0x3c45e6d8	0.012078963
120	0x3e37880f	0.17922996
121	0x3e1bbc34	0.15208513
122	0x3e3cca98	0.18436658
123	0xbe00b337	-0.12568365
124	0xbe27422f	-0.16333841
125	0xbe3c14be	-0.18367288
126	0xbd303fd8	-0.043029636
127	0xbcf71820	-0.03016287
128	0xbd699789	-0.05702928
129	0xbe7ea18d	-0.24866314
130	0xbe5171d3	-0.20453577
131	0x3e421c37	0.18956076
132	0x3e67d683	0.22640423
133	0xbcb30d82	-0.021857027
134	0x3e3274c7	0.1742736
135	0x3e0762df	0.1322131
136	0xbcd28c61	-0.025701704
137	0xbe8839f0	-0.26606703
138	0xbe497752	-0.19674423
139	0x3d26dd11	0.04073817
140	0x3d07df40	0.033171892
141	0xbedf090f	-0.435616
142	0xbf0c5a14	-0.5482495
143	0xbc8675fb	-0.01641368
144	0x3e1fb87b	0.15597717
145	0xbd9bcc67	-0.07607346
146	0xbe94cd03	-0.29062662
147	0x3a38ad72	0.00070448883
148	0xbe9fadc1	-0.3118725
149	0x3e18e84c	0.14932364
150	0xbe3302b6	-0.17481503
151	0xbe793349	-0.2433597
152	0x3e440963	0.19144206
153	0xbe2df339	-0.16987313
154	0x3cc4e45f	0.024034677
155	0xbf20c32b	-0.627978
156	0xbe81fd9f	-0.2538881
157	0xbee0dd06	-0.43918628
158	0xbcb15aa2	-0.021649662
159	0xbeb492ae	-0.35268158
160	0xbe7456b4	-0.238612
161	0x3cb16f41	0.021659495
162	0x3cd8a059	0.026443647
163	0xbb9b9623	-0.0047481223
164	0xbea35b10	-0.31905413
165	0xbec2fc0c	-0.38082922
166	0x3efe46f1	0.496635
167	0x3e2353ca	0.15949932
168	0xbe3def6a	-0.1854836
169	0xbd2cd89b	-0.04219876
170	0xbdaf79e3	-0.0856817
171	0xbe182ecc	-0.14861602
172	0x3cf21bf4	0.029554345
173	0xbe86632b	-0.26247534
174	0x3e4feac3	0.20304398
175	0xbd40b562	-0.04704798
176	0xbe295a28	-0.16538298
177	0x3e2fc679	0.17165555
178	0xbe427cea	-0.18992963
179	0x3e147334	0.14497072
180	0xbdf08b69	-0.117453404
181	0x3d8103fa	0.062995866
182	0xbdb45fed	-0.08807359
183	0xbe29a752	-0.16567734
184	0x3af71cbc	0.0018853168
185	0xbda50347	-0.08057266
186	0xbe6479ee	-0.22312137
187	0x3e728d41	0.23686697
188	0x3d8c537c	0.06851861
189	0xbdd255b9	-0.102702565
190	0x3e1f76f4	0.15572721
191	0x3e0d3c3c	0.13792509
192	0x3e6c43f3	0.23072796
193	0x3e6f527d	0.2337131
194	0x3d6f3f4a	0.058409967
195	0xbe11ccc9	-0.14238276
196	0xbe828ce7	-0.25498125
197	0x3deace0b	0.11465081
198	0x3e69a50e	0.2281687
199	0xbe3c051b	-0.18361323
200	0xbe222024	-0.15832573
201	0x3e007509	0.12544645
202	0xbe4efee8	-0.20214427
203	0x3e4831bb	0.1955022
204	0xbe8799d2	-0.26484543
205	0xbe80e298	-0.25172877
206	0xbdd1022b	-0.10205492
207	0xbe0e72f8	-0.13911045
208	0xbe5cdeb0	-0.21569324
209	0x3e8447b1	0.25835946
210	0x3e0d37ef	0.13790868
211	0xbe7cd5d0	-0.24690938
212	0xbea455a5	-0.32096592
213	0xbd0e3a0e	-0.034723334
214	0xbc092217	-0.008369944
215	0xbe3f84eb	-0.18703048
216	0xbdf3edcf	-0.11910593
217	0x3e1d2a93	0.15348272
218	0xbe1b8f32	-0.15191343
219	0xbe7c3a60	-0.24631643
220	0xbdc033a1	-0.093848474
221	0xbe4c84eb	-0.19972579
222	0x3f0fa3f7	0.56109565
223	0xbe753e6b	-0.23949592
224	0xbe1f4092	-0.15551975
225	0xbdf5bce7	-0.11998921
226	0x3e2fa4bb	0.17152683
227	0x3e66fcd4	0.22557384
228	0xbda25f17	-0.07928293
229	0xbe469fba	-0.19396868
230	0xbe16f62b	-0.14742343
231	0x3de43652	0.11143173
232	0x3e0d09f5	0.1377333
233	0x3de984ba	0.11402269
234	0x3d0cc9e2	0.034372218
235	0x3d82808a	0.06372173
236	0x3e783940	0.24240589
237	0xbe628866	-0.22122344
238	0xbdfa0951	-0.12208808
239	0x3e03583a	0.12826625
240	0x3cd341d9	0.025788235
241	0x3da1269d	0.07868693
242	0x3e1dcff4	0.15411359
243	0x3e83ff19	0.25780562
244	0xbe208069	-0.15673985
245	0x3e7d57ed	0.24740572
246	0x3df69efd	0.12042043
247	0xbe18d5d8	-0.14925325
248	0xbdcfda29	-0.101490326
249	0xbca16495	-0.019701282
250	0x3dc69ef8	0.0969829
251	0xbe2864e7	-0.16444741
252	0x3c9d3975	0.019192437
253	0x3eb49b3a	0.35274678
254	0x3f321323	0.6956045
255	0x3ebc9863	0.36835012

static_linear1.bias f4 [20]
0	0x3d4f97e5	0.050681967
1	0xbf1d9614	-0.61557126
2	0x3d8ae7f6	0.06782524
3	0x3df65ac5	0.12029032
4	0xbeb065db	-0.3445271
5	0xbe58f23f	-0.2118616
6	0x3e18b009	0.14910902
7	0x3eba6c56	0.3641078
8	0xbe5b4fbc	-0.21417135
9	0xbceff1da	-0.029290128
10	0x3e73cd2f	0.2380874
11	0x3f214982	0.6300279
12	0xbdff6a5d	-0.12471459
13	0x3e1ee0bc	0.15515417
14	0x3e3ba272	0.18323687
15	0x3e992186	0.2990839
16	0x3d527542	0.051381357
17	0xbdfcc2ef	-0.12341868
18	0xbe0f7c1e	-0.1401219
19	0xbe3c9305	-0.18415459

static_linear2.weight f4 [20, 20]
0	0xbdb9dff6	-0.0907592
1	0xbd842b2d	-0.064535476
2	0x3dd14b40	0.10219431
3	0x3df1e896	0.1181194
4	0xbdce12fe	-0.10062216
5	0xbe282959	-0.16422023
6	0x3e135536	0.14387974
7	0x3e151008	0.14556897
8	0x3df72f9b	0.12069627
9	0x3e4747f9	0.19461049
10	0xbdd84f30	-0.10561979
11	0x3d97d86c	0.07414326
12	0xbdd28856	-0.1027991
13	0x3d5d764d	0.0540679
14	0x3d568b15	0.052378733
15	0xbe608fa7	-0.21929799
16	0x3e367371	0.17817475
17	0x3ddd51d3	0.10806622
18	0xbdbbe277	-0.09174054
19	0xbd109a5b	-0.035303455
20	0x3da3e53e	0.08002709
21	0x3e1ff5ce	0.15621111
22	0xbe037bbc	-0.1284017
23	0x3c3e621f	0.011620074
24	0xbdee4324	-0.116339
25	0x3e52723e	0.20551392
26	0xbe201d5e	-0.15636203
27	0x3d9cde9f	0.07659649
28	0xbe162e16	-0.14666018
29	0x3e61b404	0.22041327
30	0xbd14d75a	-0.036338188
31	0x3e07edef	0.13274358
32	0x3e468ae7	0.19388925
33	0x3d68f7d1	0.05687696
34	0x3de4dda9	0.11175091
35	0xbe5fae85	-0.21843918
36	0xbdd73e47	-0.10509925
37	0x3d5877db	0.052848678
38	0x3de1e25a	0.11029501
39	0x3d912985	0.07087997
40	0x3df48056	0.11938541
41	0xbe6a8e5e	-0.22905871
42	0xbc782b94	-0.015147109
43	0x3991bfed	0.0002779955
44	0xbe9be6b4	-0.3044945
45	0xbd0d9e92	-0.034575053
46	0xbd83b128	-0.06430274
47	0x3f40fb89	0.7538381
48	0xbe3088eb	-0.1723973
49	0xbe2f0c1c	-0.17094463
50	0x3c9cf6ed	0.019160712
51	0x3f02902c	0.5100124
52	0xbc24bd3f	-0.010054885
53	0xbe4e346e	-0.20137188
54	0xbb73200f	-0.0037097966
55	0x3e023c21	0.1271825
56	0xbe3c1d29	-0.18370499
57	0x3df97da2	0.12182166
58	0xbec72a2d	-0.38899365
59	0xbe3b6c48	-0.18303025
60	0xbd0168f1	-0.03159422
61	0xbdbce017	-0.09222429
62	0x3d0a16d2	0.03371317
63	0xbd9c8dc6	-0.07644229
64	0x3e5474a8	0.20747626
65	0x3d84f1f9	0.06491465
66	0x3d470d80	0.04859686
67	0xbecb98cd	-0.39765015
68	0xbe02bc65	-0.1276718
69	0x3db78f87	0.089629225
70	0xbe69ed90	-0.22844529
71	0xbd91868c	-0.07105741
72	0xbc5aa275	-0.013344397
73	0xbd8a3f77	-0.06750386
74	0xbc231d1e	-0.009955673
75	0xbdef1ceb	-0.116754375
76	0x3e5f4801	0.21804811
77	0xbe1f6036	-0.15564045
78	0x3ed079af	0.40717837
79	0x3e650505	0.22365196
80	0xbde627dc	-0.11238071
81	0xbe024d21	-0.12724735
82	0x3c9ed681	0.019389393
83	0x3db24db2	0.087062255
84	0x3e21919e	0.15778205
85	0xbc39fe7f	-0.0113521805
86	0x3e32e989	0.17471899
87	0x3e4327df	0.19058178
88	0x3dfbfc4c	0.12303981
89	0x3dcf69c8	0.10127598
90	0x3dbe9061	0.09304882
91	0x3d5cb88b	0.05388693
92	0xbdc4bd67	-0.09606438
93	0xbe282652	-0.16420868
94	0xbe237ecc	-0.15966338
95	0xbe3e002e	-0.18554756
96	0xbe516432	-0.20448378
97	0x3dd65804	0.104660064
98	0xbdb0dbcb	-0.08635672
99	0xbe58d910	-0.21176553
100	0x3c3c9ea8	0.011512436
101	0x3e1e45f6	0.15456375
102	0x3d21e5cc	0.039525792
103	0xbe2da0fc	-0.16955942
104	0x3e56f3cc	0.20991439
105	0xbcfc6080	-0.030807734
106	0xbe3fc423	-0.18727164
107	0xbefc6a80	-0.49300003
108	0x3e07b8b2	0.1325405
109	0xbda0dc0e	-0.07854472
110	0xbeb7e271	-0.3591495
111	0xbef314a1	-0.47476676
112	0xbe0948ee	-0.13406727
113	0x3c5755ac	0.013142984
114	0x3e4f8c86	0.20268449
115	0x3cce6070	0.02519247
116	0x3dcc7ed6	0.099851295
117	0x3df64060	0.12023997
118	0x3e4807a5	0.19534166
119	0x3d1b19e7	0.0378665
120	0x3e57a2f8	0.21058261
121	0x3e5b443a	0.21412745
122	0xbdface1c	-0.122463435
123	0x3d629f58	0.055327743
124	0x3c22beed	0.009933216
125	0x3d369712	0.044577666
126	0xbe0f14dd	-0.13972802
127	0xbe85f31c	-0.2616204
128	0xbdae25d4	-0.08503309
129	0x3ccbb74f	0.024867682
130	0xbe451228	-0.19245207
131	0xbe5b60bd	-0.21423621
132	0x3e18a93e	0.14908311
133	0xbd4afb33	-0.04955597
134	0xbd5e8ad2	-0.054331608
135	0xbcd8c45b	-0.026460817
136	0x3e1dccd7	0.15410171
137	0x3b425a4d	0.0029655874
138	0x3e6007bc	0.2187795
139	0x3e4c8adf	0.1997485
140	0x3d1215b5	0.035665233
141	0x3d848242	0.06470157
142	0x3d8d2c7f	0.068932526
143	0xbe07e0f7	-0.13269411
144	0x3dc00379	0.09375662
145	0xbdeadb4c	-0.11467609
146	0x3e573c13	0.2101901
147	0xbdf3a40e	-0.11896525
148	0x3e60b079	0.21942319
149	0xbe148be8	-0.14506495
150	0xbdca22dd	-0.09869931
151	0xbe621c8e	-0.22081205
152	0xbdb4d820	-0.08830285
153	0xbe17f502	-0.14839557
154	0x3daf6ccc	0.08565673
155	0x3cf83d7e	0.03030276
156	0xbd8dcbda	-0.06923647
157	0xbe5b56fc	-0.214199
158	0xbb976a94	-0.0046208594
159	0xbe3f1289	-0.18659414
160	0x3dc785cd	0.09742317
161	0x3e410dca	0.18852916
162	0xbe06a10b	-0.1314737
163	0xbd1e4c75	-0.038647134
164	0x3db8c32e	0.090216026
165	0x3d7b2f31	0.061324302
166	0x3e537eb9	0.2065381
167	0xbe3e29f9	-0.18570699
168	0xbdc02998	-0.093829334
169	0x3d286170	0.04110855
170	0xbe2c6651	-0.16835906
171	0xbd6570d2	-0.056015797
172	0x3dd3e791	0.10346902
173	0x3d2d0bdc	0.042247638
174	0x3e3903cc	0.18067855
175	0xbdd5404c	-0.10412654
176	0x3e37f7fe	0.17965695
177	0xbcaced48	-0.021109238
178	0x3ebc9da4	0.3683902
179	0x3e6d12a8	0.23151648
180	0xbd17504d	-0.036941815
181	0xbe557e3f	-0.2084894
182	0x3e4c2159	0.19934596
183	0x3d9a4b1f	0.075338595
184	0x3d9cdbae	0.07659088
185	0x3d063c6c	0.032772467
186	0x3d91285c	0.07087776
187	0xbe233b1c	-0.15940517
188	0xbe2406f7	-0.16018282
189	0xbde93fe7	-0.113891415
190	0x3e123893	0.14279394
191	0xbe570b49	-0.21000399
192	0x3e2b5806	0.16732797
193	0x3dd5ca27	0.10438948
194	0xbd3197c3	-0.043357622
195	0xbe0691be	-0.13141534
196	0xbc8c6ec6	-0.017142665
197	0xbe4be092	-0.19909886
198	0x3d234b45	0.039866704
199	0xbc5d99ce	-0.013525439
200	0xbe2eb537	-0.17061315
201	0x3de137af	0.10996949
202	0xbd04a2ea	-0.03238193
203	0xbe1f89d1	-0.15579917
204	0x3da30187	0.07959276
205	0xbe0b93f4	-0.13630658
206	0x3cddaef5	0.027060965
207	0xbe1a1f83	-0.15051083
208	0xbe5111b1	-0.20416905
209	0xbe584766	-0.21120986
210	0x3db2e68b	0.08735379
211	0xbd44d2d4	-0.048052624
212	0x3dd528e0	0.10408187
213	0xbdbbef41	-0.091764934
214	0x3db653a8	0.08902675
215	0xbe4c5a8b	-0.19956414
216	0x3e0c25c4	0.13686281
217	0x3db00941	0.08595515
218	0x3e59691f	0.21231507
219	0xbdf3e682	-0.119092
220	0xbdac0eb9	-0.084012456
221	0x3dc79dcf	0.097468965
222	0x3e4f894b	0.20267217
223	0x3e4974f5	0.19673522
224	0xbd9008a4	-0.07032898
225	0xbe5c9124	-0.21539742
226	0x3e1a59e8	0.15073359
227	0xbf162e67	-0.58664554
228	0xbd0f4f88	-0.034987956
229	0xbd373641	-0.044729475
230	0xbe93db1d	-0.28878108
231	0xbee1fdc0	-0.44138908
232	0xbde54800	-0.111953735
233	0xbd6ae0d1	-0.057343308
234	0xbd2a6bec	-0.04160683
235	0x3bad38c6	0.005286309
236	0xbd09da53	-0.033655476
237	0xbe1f5d21	-0.1556287
238	0x3f215d46	0.6303295
239	0xbdac1417	-0.08402269
240	0xbd3be86b	-0.045875948
241	0x3e89f8ea	0.2694772
242	0x3ddba79b	0.107253276
243	0x3c74326c	0.0149046
244	0x3db474e1	0.088113554
245	0x3e0cba25	0.13742884
246	0xbcf04487	-0.029329551
247	0xbea7a893	-0.327458
248	0x3e040870	0.12893844
249	0x3e62dd3d	0.22154708
250	0xbea49e1b	-0.32151875
251	0xbea1e24f	-0.31617972
252	0xbd939ccb	-0.0720764
253	0x3e362337	0.17786871
254	0xbddd9c49	-0.10820825
255	0xbd311598	-0.043233484

static_linear2.bias f4 [20]
0	0x3e1a19ea	0.15048948
1	0xbe24622d	-0.16053076
2	0x3eb51714	0.3536917
3	0x3d07030a	0.032961883
4	0xbde436bd	-0.11143253
5	0xbe24af6b	-0.16082542
6	0xbed25e94	-0.41087782
7	0xbd8dc0f4	-0.069215685
8	0xbe3378d8	-0.17526567
9	0xbe1b53b4	-0.15168649
10	0xbba0aa3c	-0.004903106
11	0xbe1f5985	-0.15561493
12	0xbec3279a	-0.3811615
13	0xbe369ef0	-0.17834067
14	0xbe741956	-0.2383779
15	0x3d77a8cd	0.060463715
16	0xbe81ff3c	-0.2539004
17	0x3e5a57c1	0.21322538
18	0xbea205d7	-0.3164508
19	0xbd3f8ccd	-0.046765137

conv1.lin_rel.weight f4 [20, 3]
0	0x3e8c7e4f	0.27440116
1	0xbaabdc08	-0.0013111839
2	0xbf9f7fc8	-1.2460871
3	0xbbe8432d	-0.007088086
4	0xbf4ad986	-0.79238164
5	0xc006c5d3	-2.1058242
6	0x3e17cfc5	0.14825352
7	0xbe008244	-0.12549692
8	0xbfc4c9d5	-1.5374094
9	0xbf0850e0	-0.53248405
10	0xbe5b41cb	-0.21411817
11	0xbe974cec	-0.29550874
12	0x3ef4dfac	0.47826898
13	0xbf0132f6	-0.50468385
14	0x3f7077e1	0.9393292
15	0x3efa64c3	0.48905
16	0xbf3e233a	-0.742725
17	0xbf91d262	-1.1392329
18	0xbe1ee9fa	-0.15518942
19	0x3f10b2bd	0.5652273
20	0x3e97b88e	0.29632992
21	0x3ecffa63	0.40620717
22	0xbe4ff33d	-0.20307632
23	0xbfe520d6	-1.7900646
24	0xbe2ab044	-0.16668802
25	0xbf760f01	-0.96116644
26	0xc015938d	-2.3371308
27	0x3e9ce81b	0.30645832
28	0xbf67c782	-0.905388
29	0x3c87c7eb	0.01657482
30	0xbed48694	-0.41508925
31	0xbe769315	-0.24079545
32	0xbe864ae9	-0.26229027
33	0x3ef33d87	0.4750788
34	0xbf269c20	-0.6508198
35	0xbf7c200c	-0.984864
36	0xbea80746	-0.3281805
37	0xbd3b2545	-0.04568984
38	0x3f7978ab	0.9744975
39	0x3e621b71	0.2208078
40	0x3e582564	0.21108013
41	0x3f1b2eb4	0.6061814
42	0xbdd11989	-0.102099486
43	0xbe6549d4	-0.22391444
44	0x3e833dca	0.2563308
45	0x3cbade58	0.0228111
46	0x3f09c2c8	0.5381284
47	0x3f91948d	1.1373459
48	0x3ea2db73	0.3180805
49	0xbe2d263c	-0.16909117
50	0x3fd7d488	1.6861734
51	0x3e84ef4c	0.2596382
52	0x3f0b58b9	0.54432255
53	0xbf77bb26	-0.9676994
54	0x3e648d0c	0.2231943
55	0xbe1e2563	-0.1544395
56	0x3f715e71	0.9428473
57	0xbf1c209e	-0.6098727
58	0x3e3409c2	0.17581847
59	0x3d8360df	0.06414961

conv1.lin_rel.bias f4 [20]
0	0xbe10a500	-0.14125443
1	0xbcdbbe8a	-0.026824255
2	0x3d26ab0d	0.04069047
3	0x3ecbf1d9	0.39832953
4	0xbf020ebf	-0.5080375
5	0x3f09ef74	0.53881
6	0xbdc5d116	-0.096590206
7	0x3eef4627	0.4673321
8	0x3f36dec1	0.71433645
9	0xbbe99ee4	-0.007129537
10	0x3eff8414	0.49905455
11	0x3e5ed585	0.21761139
12	0xbefdd637	-0.49577495
13	0xbeb53745	-0.3539373
14	0xbd01d997	-0.03170165
15	0x3d889946	0.066698596
16	0xbf17c0e3	-0.59278697
17	0x3ec5cabb	0.38631234
18	0xbe7b3930	-0.24533534
19	0xbec93864	-0.39300835

conv1.lin_root.weight f4 [20, 3]
0	0x3e35aca0	0.17741632
1	0xbed5ab6a	-0.4173234
2	0xbf9d078d	-1.2267929
3	0x3e5a4ad5	0.21317609
4	0x3d61c186	0.0551162
5	0xc001ee3f	-2.0301664
6	0xbe5d6d16	-0.21623644
7	0xc0059121	-2.086983
8	0xbda5d527	-0.08097296
9	0xbd05be50	-0.0326522
10	0x3e7efd1d	0.24901243
11	0xbea20dd4	-0.31651175
12	0xbeea305c	-0.4574002
13	0x3d021c26	0.031765126
14	0x3e48ad19	0.19597282
15	0x3d35c62a	0.044378437
16	0xbe6ecf74	-0.23321325
17	0xbed44b23	-0.41463575
18	0xbd86762a	-0.06565507
19	0x3de2eb09	0.11079986
20	0xbf02ebd7	-0.51141113
21	0xbec8e8e2	-0.39240175
22	0xbf793a71	-0.973548
23	0xbf61987e	-0.8812331
24	0x3ead9b94	0.3390776
25	0x3e84b273	0.25917396
26	0xbfabfc24	-1.3436322
27	0xbe82e8e8	-0.25568318
28	0x401751de	2.3643718
29	0xbfdd6752	-1.7297156
30	0x3dd32909	0.10310561
31	0xbf2272de	-0.63456523
32	0xbf50756b	-0.81429166
33	0xbea3d505	-0.31998459
34	0xbe840c68	-0.25790715
35	0xbf871964	-1.0554624
36	0x3ea23cb9	0.31686953
37	0x3eb73cb5	0.35788503
38	0x3f1fd610	0.6243601
39	0x3e589261	0.21149589
40	0xbdda6eb6	-0.10665648
41	0x3eb7437d	0.35793677
42	0xbcd87ddf	-0.026427208
43	0x3e45fdec	0.19335145
44	0x3e567a0c	0.20944995
45	0x3dd01cbc	0.10161731
46	0x3f193afa	0.59855616
47	0x3fe20a63	1.765942
48	0xbd306f4c	-0.04307489
49	0x3f53579e	0.8255557
50	0x3fe24aa9	1.7679034
51	0xbebfd54e	-0.37467426
52	0xbfb5de43	-1.4208454
53	0x3f1652dc	0.58720183
54	0x3e3fdb1b	0.18735926
55	0xbd866ca3	-0.065636896
56	0x40088b92	2.1335187
57	0x3e32715e	0.17426059
58	0xbf19e708	-0.6011815
59	0xbf6bf38e	-0.9216851

conv2.lin_rel.weight f4 [20, 20]
0	0xbdff7c7c	-0.124749154
1	0xbda7d462	-0.08194806
2	0x3e5517e0	0.20809889
3	0xbd365b2c	-0.044520542
4	0x3d9767d2	0.07392849
5	0xbca432c7	-0.020043744
6	0xbdcb7a52	-0.0993544
7	0x3d495f58	0.049163193
8	0xbdd85423	-0.10562923
9	0x3dd3e3c8	0.1034618
10	0x3d356902	0.044289596
11	0x3e0ac7f6	0.13552842
12	0x3da17e5e	0.07885431
13	0xbde6d37a	-0.11270805
14	0x3e5f4221	0.2180257
15	0xbe612a70	-0.21988845
16	0xbe1e10d2	-0.15436104
17	0xbd4601a6	-0.048341416
18	0xbe253ce8	-0.16136515
19	0x3d2da557	0.04239401
20	0xbe5942d2	-0.21216896
21	0xbe6469f9	-0.2230605
22	0xbdbfbbd0	-0.09361994
23	0xbd194bf9	-0.03742597
24	0x3de44eee	0.11147867
25	0xbd44d8ae	-0.048058204
26	0xbe569b76	-0.20957741
27	0x3ca81407	0.020517362
28	0x3e1f61e9	0.15564694
29	0xbe168079	-0.14697446
30	0x3dd82433	0.105537795
31	0x3dfcb586	0.1233931
32	0x3b24c782	0.002514333
33	0xbdc6d62c	-0.09708819
34	0x3e158307	0.14600764
35	0xbda21553	-0.079142235
36	0x3e04b7b6	0.12960705
37	0x3e3a148b	0.18171899
38	0x3e2e4dad	0.17021818
39	0x3e527a75	0.20554526
40	0xbe6d9140	-0.2319994
41	0xbca246f2	-0.01980922
42	0xbe01d722	-0.12679723
43	0x3daa06cf	0.0830208
44	0x3c80dc99	0.01573019
45	0xbdda30b7	-0.10653823
46	0xbdb39ba3	-0.0876992
47	0x3dffcb5d	0.1248996
48	0xbe14629a	-0.14490739
49	0xbd578fe6	-0.052627467
50	0x3d893486	0.06699471
51	0xbddf5cb9	-0.10906357
52	0x3d5fcece	0.054640584
53	0x3e436f22	0.19085363
54	0xbe3ba809	-0.18325819
55	0x3e0e3fcf	0.13891529
56	0x3db85021	0.089996584
57	0x3d44d808	0.048057586
58	0xbe31fc9d	-0.1738152
59	0xbe11d08d	-0.14239712
60	0x3dd61761	0.10453678
61	0xbc0f7045	-0.0087547945
62	0x3d7925b0	0.060826957
63	0xbd0fa158	-0.03506598
64	0xbcd828ed	-0.026386702
65	0x3df9c3fb	0.121955834
66	0xbc9eb0a9	-0.019371348
67	0xbe039e78	-0.1285342
68	0x3e3b3f3b	0.1828584
69	0xbe087200	-0.13324738
70	0xbe0dfab0	-0.13865161
71	0x3e0fc627	0.14040433
72	0x3cba1d45	0.022719035
73	0xbe1108f3	-0.1416357
74	0xbda0f4bd	-0.0785918
75	0xbd7aeaa4	-0.061258927
76	0xbe56deae	-0.20983383
77	0xbc30ac9c	-0.010783341
78	0xbe57ddf4	-0.21080762
79	0x3d8b7faa	0.06811459
80	0x3d8f1528	0.06986457
81	0x3e1cc64f	0.15310024
82	0x3da46a7d	0.080281235
83	0xbe4ded29	-0.2011
84	0x3ded87f7	0.11598199
85	0x3da28364	0.07935217
86	0x3e209f17	0.15685688
87	0x3c9efdaf	0.019408075
88	0xbe7a41e5	-0.244392
89	0x3d0cfd83	0.034421455
90	0xbcab63ae	-0.020921554
91	0xbe83ae24	-0.25718796
92	0xbe571261	-0.21003105
93	0x3e1873bd	0.148879
94	0xbd2e8719	-0.042609308
95	0xbe577fe4	-0.2104488
96	0xbd0802f8	-0.033205956
97	0x3e2386c7	0.15969382
98	0x3dc81222	0.097690836
99	0x3e4463dd	0.1917872
100	0x3d71e281	0.0590539
101	0x3eafc000	0.34326172
102	0x3dfd340b	0.12363442
103	0x3d9c9b4d	0.07646809
104	0x3d792919	0.06083021
105	0x3ddf3a2c	0.10899767
106	0x3e42f487	0.19038592
107	0xbcad8387	-0.021180881
108	0x3e971bc0	0.2951336
109	0x3e0eb75c	0.13937134
110	0xbe949a4a	-0.29023963
111	0x3d9ebf94	0.077513844
112	0xbe91b368	-0.2845719
113	0xbdf82db4	-0.12118092
114	0x3cb99cd6	0.022657793
115	0xbe744fbb	-0.2385854
116	0xbe032ef9	-0.12810887
117	0xbe3119a4	-0.17294937
118	0xbe6a457e	-0.22878072
119	0xbe6a6dda	-0.22893468
120	0xbdfee7d2	-0.1244656
121	0xbdb2bfe9	-0.0872801
122	0xbdad00ba	-0.08447404
123	0x3dca2c88	0.09871775
124	0x3e49e3da	0.19715825
125	0xbe0aff06	-0.13573846
126	0x3e0d499f	0.13797615
127	0xbd7989ad	-0.060922313
128	0xbd079605	-0.033102054
129	0xbc147805	-0.009061818
130	0x3e3723aa	0.17884699
131	0xbd8f7e27	-0.070064835
132	0xbda45b35	-0.08025209
133	0x3e0e99b0	0.13925815
134	0x3cfdb4f1	0.030970069
135	0xbdc3eb85	-0.09566406
136	0x3e1ef06e	0.15521404
137	0xbd833853	-0.06407227
138	0xbd042488	-0.0322614
139	0x3e46c97f	0.19412802
140	0xbdfc2106	-0.12310986
141	0x3c366491	0.011132375
142	0xbd991594	-0.07474819
143	0xbd85e42f	-0.06537663
144	0xbe146a34	-0.14493638
145	0xbd294567	-0.041325953
146	0x3e620518	0.22072256
147	0xbcde5f0c	-0.027144931
148	0x3e401398	0.18757474
149	0x3e1df1f5	0.1542433
150	0x3e23db76	0.16001686
151	0xbe427707	-0.18990718
152	0x3df751bf	0.12076139
153	0xbd9e767e	-0.07737444
154	0xbdcd8ab8	-0.10036224
155	0x3e453740	0.19259357
156	0x3dcba1b4	0.09942952
157	0x3d225365	0.039630312
158	0xbdb8696f	-0.09004485
159	0x3daa0aeb	0.08302864
160	0x3de99e7d	0.11407182
161	0xbe16d2fd	-0.14728923
162	0x3cd31278	0.025765643
163	0xbe40865e	-0.18801257
164	0x3c68f783	0.014219168
165	0xbe3e2ee3	-0.18572573
166	0xbdb8ce2e	-0.09023701
167	0xbdf9b5f8	-0.12192911
168	0xbe198c49	-0.14994921
169	0x3d81301a	0.06308003
170	0xbe40d409	-0.18830885
171	0x3e3b5d7b	0.18297379
172	0x3d73a4da	0.059483387
173	0xbe3756fc	-0.17904276
174	0xbbaef923	-0.005339758
175	0xbe2c547b	-0.16829102
176	0x3e20a263	0.15686946
177	0xbccb653f	-0.024828551
178	0xbe27c4d2	-0.16383675
179	0x3e585349	0.21125521
180	0x3d812fc2	0.06307937
181	0x3d8538fe	0.06505011
182	0x3d818d23	0.06325748
183	0xbc419836	-0.011816075
184	0x3e1a56a8	0.15072119
185	0xbe331852	-0.17489746
186	0x3c6ce466	0.014458751
187	0xbe54620e	-0.2074053
188	0xbe65b285	-0.22431381
189	0xbe3085c2	-0.17238525
190	0x3d21ec25	0.039531846
191	0x3e45f797	0.1933273
192	0xbe0c9ef0	-0.13732505
193	0x3d050b98	0.03248176
194	0x3e49cd04	0.19707114
195	0xbddb1a01	-0.10698319
196	0xbe54f100	-0.20795059
197	0x3cbbc1f2	0.022919629
198	0x3d931b2f	0.07182919
199	0x3e5b6b0b	0.21427552
200	0xbe1099c7	-0.14121161
201	0xbb16ea70	-0.002302792
202	0xbe0289fc	-0.1274795
203	0xbd9058f4	-0.070482165
204	0xbd880aeb	-0.066427074
205	0x3e060a99	0.1308998
206	0x3d956a0a	0.07295616
207	0x3e1de9e4	0.15421253
208	0x3c219704	0.009862665
209	0xbe40ba1c	-0.18820995
210	0x3df6475d	0.1202533
211	0x3dffca23	0.124897264
212	0xbe5acc32	-0.21366957
213	0xbb88749b	-0.004164291
214	0x3d10f2cb	0.035387795
215	0xbe6d3118	-0.23163259
216	0xbd6f7644	-0.058462396
217	0x3e35d6a1	0.17757656
218	0xbddccb09	-0.107809134
219	0x3e4eb346	0.20185575
220	0x3df35468	0.118813336
221	0x3d29ab91	0.041423384
222	0x3cf85d35	0.030317882
223	0x3e500745	0.20315273
224	0xbe5377c7	-0.2065116
225	0xbdac59e8	-0.08415586
226	0xbe396da9	-0.18108238
227	0x3d4082cc	0.046999738
228	0xbde38355	-0.11109034
229	0x3d1f93a4	0.03895916
230	0xbd947696	-0.07249181
231	0xbe4de22a	-0.20105806
232	0xbe1438e1	-0.14474823
233	0x3e11cd67	0.14238511
234	0xbcfe34bc	-0.031031005
235	0xbe6b333c	-0.22968763
236	0x3e2a1a14	0.1661151
237	0xbd168576	-0.036748372
238	0xbe0188f9	-0.12649907
239	0x3df938a7	0.12169009
240	0xbc206973	-0.009790766
241	0xbed5a018	-0.41723704
242	0xbb8d23e3	-0.0043072565
243	0x3e2bed1b	0.16789667
244	0x3e1faed7	0.1559404
245	0x3dedae82	0.1160555
246	0x3dc86d1c	0.09786436
247	0xbde70745	-0.112806834
248	0xbe88eed3	-0.26744708
249	0xbe9117db	-0.28338513
250	0xbe3b792c	-0.18307942
251	0xbdf2fcdc	-0.11864635
252	0x3eb8a076	0.36059922
253	0xbe2a5caa	-0.16636911
254	0xbe1ed249	-0.15509905
255	0x3c164371	0.009171353

conv2.lin_rel.bias f4 [20]
0	0xbdec808b	-0.11547955
1	0xbc852b02	-0.01625586
2	0x3d68ee89	0.05686811
3	0xbe56bcde	-0.20970485
4	0x3d73dda5	0.05953755
5	0x3e2a253a	0.16615763
6	0x3cbb6e1f	0.022879658
7	0xba914005	-0.0011081701
8	0xbc8dbe2f	-0.0173026
9	0xbe620e90	-0.22075868
10	0xbdcdb1df	-0.10043692
11	0x3c86d6cf	0.01645985
12	0xbd0a9ac3	-0.033839
13	0x3e1425d9	0.14467563
14	0xbe4cc691	-0.19997622
15	0x3e253051	0.16131712
16	0xbcfc169c	-0.0307725
17	0x3da5cb54	0.080954224
18	0xbde02be0	-0.109458685
19	0xbd48b46d	-0.049000192

conv2.lin_root.weight f4 [20, 20]
0	0xbcc3251d	-0.023821408
1	0x3db48026	0.08813505
2	0xbe09112f	-0.13385461
3	0x3e34414d	0.17603035
4	0x3e62155f	0.22078465
5	0xbc004bed	-0.007830602
6	0x3e353c7d	0.17698856
7	0xbdbcc221	-0.09216715
8	0x3e08d347	0.13361846
9	0x3c6afa7a	0.014341945
10	0xbe1ca1b5	-0.15296061
11	0xbe1ee1da	-0.15515843
12	0xbd4837ef	-0.048881467
13	0xbe3db584	-0.18526274
14	0x3dcdceb2	0.100491896
15	0xbe130747	-0.14358245
16	0xbe1edddd	-0.15514322
17	0x3d51c695	0.051214773
18	0xbdec9296	-0.115513965
19	0x3d755ddc	0.059903964
20	0x3e1947a8	0.14968741
21	0x3dfadc0a	0.12249
22	0x3d86dbe6	0.06584911
23	0xbe607138	-0.2191819
24	0x3b2f3a2b	0.0026737552
25	0xbdc7f0e7	-0.09762745
26	0x3dd26111	0.1027242
27	0xbe190ac5	-0.14945515
28	0xbda421f6	-0.0801429
29	0xbdb3abc0	-0.08772993
30	0x3e0ef7d9	0.13961734
31	0xbdbe95a7	-0.09305888
32	0xbe0b7de5	-0.13622244
33	0xbe31965f	-0.17342518
34	0xbd77bd5f	-0.060483333
35	0xbe364577	-0.17799936
36	0xbdce86bd	-0.10084293
37	0x3e229bd7	0.1587976
38	0x3d84c684	0.06483176
39	0x3e50f07c	0.20404238
40	0x3d20c791	0.03925282
41	0xbd4ebea9	-0.050474796
42	0xbe25d07a	-0.16192809
43	0xbdf725a4	-0.12067726
44	0xbe476ed6	-0.19475874
45	0x3e0b3672	0.13594988
46	0x3e1be6cb	0.1522476
47	0xbe4f05c2	-0.2021704
48	0xbe08396e	-0.13303158
49	0xbe607ef8	-0.21923435
50	0xbdad3dab	-0.08459028
51	0x3e0bd5fa	0.13655844
52	0x3cf35b65	0.029706666
53	0x3e119676	0.14217553
54	0x3e37f459	0.17964305
55	0xbe1e6687	-0.15468799
56	0x3e302cad	0.17204542
57	0xbddefa5f	-0.10887598
58	0xbe321777	-0.17391764
59	0xbe3b9897	-0.18319927
60	0x3d432f7d	0.04765271
61	0xbe2ab9a2	-0.16672376
62	0x3d8cdfa6	0.06878595
63	0x3e27511d	0.16339536
64	0xbe5e7317	-0.21723591
65	0xbe4f048e	-0.20216581
66	0xbe036668	-0.12832034
67	0xbc31cbbb	-0.010851796
68	0x3d1a2489	0.0376325
69	0x3e16bb85	0.1471997
70	0x3d9240c4	0.07141259
71	0x3da1bcac	0.078973144
72	0x3df81d89	0.121150084
73	0xbe13bc57	-0.14427315
74	0x3e04d40a	0.12971511
75	0x3e328334	0.17432863
76	0x3d60faa5	0.054926533
77	0x3ddc4800	0.107559204
78	0x3e2bacb5	0.16765101
79	0x3c8b924c	0.017037533
80	0xbe01ca2b	-0.12674777
81	0xbd3028a6	-0.043007515
82	0xbe5144e2	-0.20436433
83	0xbe26f710	-0.16305184
84	0xbe856a57	-0.26057693
85	0xbd6b945a	-0.057514526
86	0xbe62e7d2	-0.22158745
87	0xbd3aae26	-0.045576237
88	0xbeb523c1	-0.3537884
89	0xbe184fc2	-0.14874175
90	0x3dba6faf	0.09103333
91	0xbcbc565d	-0.0229904
92	0x3d9e2ebe	0.07723759
93	0xbe3c756e	-0.18404171
94	0x3e38ab96	0.18034205
95	0xbdec060c	-0.11524591
96	0xbe469b3b	-0.19395153
97	0xbcbd0cdf	-0.023077426
98	0x3dd3c86b	0.10340961
99	0xbe0052f6	-0.12531647
100	0x3e47783b	0.19479458
101	0x3d946723	0.07246234
102	0x3eb71010	0.35754442
103	0x3e595fae	0.21227905
104	0x3ccc6b73	0.02495358
105	0x3d30731d	0.04307853
106	0xbe3d40dd	-0.18481775
107	0x3dcb4597	0.099253826
108	0x3d6f3825	0.058403153
109	0xbe4a3b3f	-0.19749163
110	0xbe4d8791	-0.20071246
111	0x3d5c497d	0.05378102
112	0xbd9620f5	-0.07330505
113	0xbd89dcb6	-0.067315504
114	0xbdd21eda	-0.10259791
115	0xbe868dd9	-0.26280096
116	0xbe5fbabd	-0.21848579
117	0x3e228a15	0.15872987
118	0x3b186bac	0.0023257537
119	0xbe1775bc	-0.14791006
120	0xbe3cf199	-0.18451537
121	0xbca63276	-0.020287734
122	0xbe121e75	-0.14269431
123	0xbe1596ea	-0.1460835
124	0xbd99a051	-0.07501281
125	0x3ded768a	0.11594875
126	0xbdc56006	-0.09637456
127	0xbd52aaa0	-0.051432252
128	0x3e10f95e	0.14157626
129	0x3dca0961	0.0986507
130	0xbe15ce65	-0.14629515
131	0x3c9bf100	0.019035816
132	0xbe4d3e72	-0.20043352
133	0x3cf8ab43	0.030355101
134	0x3e36d748	0.17855561
135	0xbe498d04	-0.196827
136	0x3d673791	0.056449477
137	0xbdf81cee	-0.12114893
138	0x3d2d6b05	0.04233839
139	0x3dd35cf2	0.10320462
140	0xbdf64532	-0.12024917
141	0x3e61baef	0.22043966
142	0xbe32695a	-0.17423001
143	0x3cfe8228	0.031067923
144	0xbe05d72f	-0.13070367
145	0xbd831864	-0.064011365
146	0x3ca36109	0.01994373
147	0x3e5e392d	0.21701498
148	0xbd0f8cdb	-0.03504644
149	0xbd52a810	-0.05142981
150	0xbdac667a	-0.08417983
151	0xbe22daba	-0.1590375
152	0xbc2cb389	-0.010540851
153	0xbde6a575	-0.11262027
154	0x3e45aa12	0.19303158
155	0x3d8f7f10	0.07006657
156	0xbddec063	-0.108765386
157	0x3d672d01	0.056439403
158	0xbd84ee49	-0.06490762
159	0x3e0a8dec	0.13530701
160	0xbdf68f44	-0.120390445
161	0x3e1ae1e0	0.15125227
162	0x3dd7822b	0.105228744
163	0xbd847bf4	-0.06468955
164	0xbe5f669a	-0.21816483
165	0x3e070ae0	0.13187742
166	0x3e05a1e6	0.1305004
167	0xbc9ac344	-0.018891938
168	0xbe09075a	-0.1338171
169	0xbcbd1c0c	-0.023084663
170	0x3d015f53	0.03158505
171	0xbe51fb5c	-0.20506042
172	0xbd6e1008	-0.058120757
173	0x3e0dcea9	0.13848366
174	0x3da3ccb0	0.079980254
175	0xbd90afaf	-0.07064759
176	0xbdfb2e4c	-0.1226469
177	0x3de08485	0.10962776
178	0x3dc79eee	0.0974711
179	0x3d97e22d	0.074161865
180	0xbe00bff6	-0.12573227
181	0x3cc8e738	0.024524316
182	0xbdfad3f9	-0.12247462
183	0x3d7038ee	0.058648042
184	0x3daaa755	0.08332697
185	0x3d02f2b6	0.03196975
186	0xbe4a5fa4	-0.19763047
187	0xbdc6f1e3	-0.09714105
188	0x3b28e365	0.0025770303
189	0xbdc35fd3	-0.095397614
190	0xbd4ac394	-0.049502924
191	0x3df1ba65	0.1180313
192	0xbda8dacf	-0.082448594
193	0xbbb32f9f	-0.0054683234
194	0x3d132ff4	0.035934404
195	0xbd5f95c0	-0.054586172
196	0xbd7bfc4b	-0.061519902
197	0x3e2d9ad0	0.16953588
198	0x3e4127fd	0.1886291
199	0x3c055edb	0.008140291
200	0xbdbee22c	-0.093204826
201	0xbe48858c	-0.19582194
202	0xbe436892	-0.19082859
203	0xbe3a843a	-0.18214503
204	0x3e36680d	0.1781313
205	0xbda529f4	-0.080646425
206	0x3e506998	0.20352781
207	0xbe065bc2	-0.1312094
208	0x3dff368d	0.124615766
209	0x3d8e6c9c	0.06954309
210	0x3a0c9098	0.00053621223
211	0x3d850ed5	0.064969696
212	0xbe253b32	-0.16135862
213	0xbe73eed8	-0.2382158
214	0x3e5189de	0.20462748
215	0x3d922078	0.07135099
216	0x3d4e9eee	0.050444536
217	0x3dd76b58	0.10518521
218	0x3dc77579	0.09739203
219	0xbe1f1392	-0.15534809
220	0xbda3f99a	-0.08006592
221	0xbe05e4a2	-0.13075498
222	0xbe57ded9	-0.21081103
223	0xbe58f640	-0.21187687
224	0xbdb029e2	-0.086017385
225	0xbc934e0e	-0.017981555
226	0xbe0f3e69	-0.13988651
227	0xbdd776c0	-0.10520697
228	0xbd34be89	-0.04412702
229	0xbdee5af1	-0.116384394
230	0x3dccf352	0.10007347
231	0xbe2ad625	-0.16683252
232	0xbe14f936	-0.14548191
233	0x3cce3a26	0.025174212
234	0x3dfd3437	0.12363475
235	0x3e2e74ac	0.17036694
236	0x3e3ce10f	0.18445228
237	0x3e48471d	0.19558378
238	0x3e45de31	0.1932304
239	0xbac90ceb	-0.0015338933
240	0x3df1125c	0.1177108
241	0xbea103a9	-0.31448105
242	0xbeaf874a	-0.34282905
243	0xbe0235db	-0.12715857
244	0x3e1a4890	0.15066743
245	0x3d78dca9	0.060757313
246	0x3d988451	0.07447112
247	0xbe981e5c	-0.29710662
248	0xbb5efe19	-0.0034025966
249	0x3e8b4c45	0.27206627
250	0x3d4aecc7	0.049542215
251	0xbd36a991	-0.044595305
252	0x3a64c83d	0.00087273476
253	0x3dcbbdda	0.09948321
254	0xbe3d3095	-0.18475564
255	0x3da3f6a6	0.08006029

pre_final_linear.weight f4 [20, 40]
0	0xbcdd5d84	-0.02702213
1	0xbdfc532f	-0.123205535
2	0xbe558241	-0.20850469
3	0x3dff7704	0.12473872
4	0xbcd6dc43	-0.026228076
5	0xbc8ca625	-0.017169068
6	0x3eada424	0.33914292
7	0xbe0d4049	-0.13794054
8	0x3d166f75	0.036727387
9	0x3dcf5cf0	0.10125148
10	0x3e070b7b	0.13187973
11	0x3c4866c9	0.012231537
12	0x3d98b684	0.07456687
13	0xbd497f51	-0.049193684
14	0x3e0da976	0.13834175
15	0xbe10528f	-0.14093994
16	0x3ea9fbca	0.33199912
17	0x3d4b591e	0.049645536
18	0x3bd73d7f	0.00656861
19	0x3df5fccc	0.12011108
20	0xbdeee414	-0.11664596
21	0x3dfbef9e	0.12301563
22	0x3df92881	0.12165929
23	0xbd8316eb	-0.06400856
24	0xbdbf1d54	-0.09331766
25	0x3cb54714	0.02212862
26	0xbda6debd	-0.08147953
27	0xbe0bf296	-0.13666758
28	0xbd227989	-0.039666686
29	0x3d4a285a	0.04935489
30	0x3c7d31fa	0.01545381
31	0xbe03cfb6	-0.12872204
32	0xbe0c6602	-0.13710788
33	0x3d125955	0.035729725
34	0x3d4f2661	0.05057371
35	0x3cc57e11	0.024107965
36	0xbd4afe0b	-0.04955868
37	0x3e0b193f	0.1358385
38	0xbc39bc01	-0.0113363275
39	0x3e203afe	0.15647504
40	0xbd18a7d3	-0.037269425
41	0x3e0833e0	0.13301039
42	0x3ebccb42	0.36873823
43	0xbe15b6c8	-0.14620507
44	0xbdb6ea19	-0.08931369
45	0x3bdd1fb1	0.0067481627
46	0xbe93ef49	-0.28893498
47	0xbd1ccfdf	-0.03828418
48	0xbe3b6888	-0.18301594
49	0xbdc93627	-0.09824782
50	0x3dbf79e7	0.09349423
51	0xbe0870f0	-0.13324332
52	0xbdf1512c	-0.117830604
53	0xbe6bd9aa	-0.23032251
54	0xbd9da93c	-0.076982945
55	0x3d0726e0	0.03299606
56	0xbe3e1f61	-0.18566658
57	0x3c19dead	0.009391469
58	0xbe736829	-0.23770203
59	0xbda0c779	-0.078505464
60	0xbdaffcbb	-0.085931264
61	0x3c418114	0.01181056
62	0xbe1cae40	-0.15300846
63	0x3b42f718	0.002974933
64	0x3d926d04	0.07149699
65	0xbdf07ca7	-0.117425255
66	0xbc18306b	-0.0092888875
67	0xbc793f7d	-0.015212891
68	0xbd0595c8	-0.032613546
69	0x3de02534	0.10944596
70	0x3cbf437b	0.023347607
71	0x3d92bbe3	0.07164743
72	0x3dc86fdb	0.0978696
73	0xbde44945	-0.111467876
74	0x3d7ae833	0.0612566
75	0x3e3df387	0.1854993
76	0x3d277e04	0.040891662
77	0xbdf3d11f	-0.11905121
78	0x3e16f158	0.14740503
79	0x3d3a6239	0.04550383
80	0xbd4ce3c5	-0.050021905
81	0x3d8cd634	0.068767935
82	0xbbc528ed	-0.0060168416
83	0x3e454e37	0.19268118
84	0xbe156ec7	-0.1459304
85	0xbed2929d	-0.41127482
86	0x3ec7c546	0.39017695
87	0x3bc0729a	0.0058730366
88	0x3e9bda6e	0.30440086
89	0xbb0f1758	-0.0021833982
90	0x3a8dfb38	0.0010832315
91	0xbd9b8b50	-0.07594931
92	0x3e7f6713	0.24941663
93	0x3cff0fb2	0.031135414
94	0x3dfae4a3	0.1225064
95	0xbdfebe3b	-0.12438627
96	0x3d0eb247	0.034837987
97	0x3c981952	0.018566761
98	0xbe93ef4b	-0.28893504
99	0xbe10467c	-0.14089388
100	0xbcd67314	-0.02617792
101	0xbc09270f	-0.008371129
102	0xbdd0dd3a	-0.101984456
103	0x3da5bd95	0.080928005
104	0x3b80940b	0.003923898
105	0xbe3ebae8	-0.18625987
106	0xbdbb4702	-0.09144403
107	0xbdaee5f3	-0.08539953
108	0xbe11ce3e	-0.14238831
109	0x3d914435	0.070930876
110	0x3e173031	0.14764477
111	0x3e2e816d	0.1704156
112	0xbe4d0cf8	-0.20024478
113	0xbdf04f74	-0.117339045
114	0xbe0edc83	-0.13951306
115	0xbe98d74c	-0.29851758
116	0x3e117776	0.14205727
117	0xbe29deb1	-0.16588856
118	0xbdf90932	-0.12159957
119	0x3cae6fde	0.021293577
120	0x3d688698	0.056768984
121	0x3d7309c1	0.059335474
122	0xbb1220bd	-0.0022297346
123	0x3dbf29a3	0.093341134
124	0x3e121da7	0.14269124
125	0xbe506926	-0.20352611
126	0x3ec82514	0.39090788
127	0x3d887dd3	0.06664624
128	0xbeec9a6e	-0.4621157
129	0x3db54955	0.088518776
130	0xbd7a6cf4	-0.061139062
131	0xbd471748	-0.048606187
132	0xbe694981	-0.22781946
133	0x3e434161	0.19067909
134	0xbc6408ac	-0.013918083
135	0xbdac93ed	-0.08426652
136	0x3e5d5628	0.21614897
137	0x3e0502ee	0.12989399
138	0xbd7e2a8e	-0.062052302
139	0xbe1a50a1	-0.1506982
140	0x3e12e411	0.14344813
141	0xbd47294e	-0.048623376
142	0xbdbeea00	-0.09321976
143	0x3d7f1e7b	0.062284928
144	0x3d61b60e	0.05510526
145	0xbd0270b2	-0.031845756
146	0x3da91c93	0.08257403
147	0x3dd7f858	0.10545415
148	0x3d824f13	0.063627385
149	0x3dd5ae60	0.1043365
150	0xbc0ae792	-0.008478062
151	0x3d91ca29	0.07118637
152	0x3d606ddf	0.05479228
153	0x3d248ffa	0.04017637
154	0xbdcdf889	-0.1005717
155	0x3b5356a1	0.003224768
156	0xbe18a5be	-0.14906976
157	0xbda7bc03	-0.08190157
158	0xbd6684e6	-0.056279086
159	0xbd2d2b47	-0.0422776
160	0x3c6d17a6	0.01447097
161	0xbdd1d016	-0.10244767
162	0x3e2bb0ac	0.16766614
163	0xbe8d06a0	-0.27544117
164	0x3dadad30	0.084802985
165	0xbed1073a	-0.40825826
166	0xbec4325e	-0.38319677
167	0xbdc07770	-0.09397781
168	0xbea4096d	-0.3203844
169	0xbcadcc98	-0.021215722
170	0x3d7f46fa	0.062323548
171	0xbe9bebc3	-0.3045331
172	0xbe94d9bf	-0.29072377
173	0xbedb5905	-0.42841354
174	0xbe982efc	-0.29723346
175	0x3dceddaa	0.10100873
176	0xbf148d9c	-0.5802858
177	0x3dc35092	0.09536852
178	0xbedbc4a6	-0.42923468
179	0xbda9ef62	-0.08297612
180	0xbcb90d5f	-0.022589384
181	0x3dd8f26a	0.10593112
182	0xbe261f03	-0.16222768
183	0x3d7e9119	0.062150095
184	0xbd2b4c45	-0.041820783
185	0xbc30fb4b	-0.0108021
186	0xbcede97d	-0.029042
187	0x3dec1afc	0.11528584
188	0x3d6dc8cc	0.058052823
189	0xbdcf407d	-0.10119722
190	0xbde8b864	-0.11363295
191	0x3c5e908f	0.01358427
192	0xbdd43847	-0.103622966
193	0x3db19cf6	0.08672516
194	0x3c4c247d	0.012459871
195	0x3c0defec	0.008663159
196	0xbd6f2cb0	-0.058392227
197	0xbdfd0ef1	-0.123563655
198	0xbe0498e3	-0.12948947
199	0x3df224a8	0.11823398
200	0x3e04a11e	0.12952086
201	0xbe10c47f	-0.14137457
202	0xbe2455c5	-0.16048343
203	0x3c952100	0.018204212
204	0x3dbf37bb	0.093368016
205	0xbe5abdb2	-0.21361426
206	0x3dcc0a7a	0.09962936
207	0xbc0008f6	-0.007814636
208	0xbdcef6f8	-0.10105699
209	0x3dc61d34	0.09673539
210	0x3d415163	0.047196757
211	0xbdc1cc3f	-0.09462785
212	0xbe08e043	-0.13366799
213	0xbe4e5be5	-0.20152242
214	0x3d22cea5	0.039747853
215	0xbda2db99	-0.07952041
216	0xbd60dc3b	-0.05489753
217	0xbdea8c96	-0.11452596
218	0xbc83da46	-0.016095292
219	0xbd10846a	-0.03528253
220	0xbdd6c50d	-0.10486803
221	0x3ad38a1e	0.0016139185
222	0xbdc57cb5	-0.096429266
223	0x3d79bc40	0.060970545
224	0x3d21eb71	0.039531175
225	0x3dca1c9c	0.09868738
226	0xbdd18a90	-0.10231507
227	0xbdc7b7aa	-0.09751828
228	0x3bccc199	0.0062486646
229	0x3db82011	0.08990491
230	0xbcfbda3b	-0.030743709
231	0x3d96d4cc	0.073648065
232	0x3ddc4fcb	0.10757407
233	0x3df1ccfb	0.11806675
234	0xbe29e9ce	-0.16593096
235	0x3d86ffa4	0.06591728
236	0xbdee20e2	-0.11627366
237	0x3dd949ee	0.10609804
238	0xbe16e5d3	-0.14736108
239	0xbddc574c	-0.10758838
240	0x3dc050fa	0.09390445
241	0xbd262a44	-0.04056765
242	0x3eff8ab5	0.49910513
243	0xbe1347f2	-0.14382914
244	0xbdcf71de	-0.1012914
245	0xbe404dec	-0.18779725
246	0xbef03e46	-0.4692251
247	0x3bfb1061	0.0076618646
248	0xbe25bfe0	-0.16186476
249	0xbe0f0395	-0.1396621
250	0xbc5b6f7e	-0.013393281
251	0xbe293e3c	-0.16527647
252	0xbea006f1	-0.31255296
253	0xbe6cbada	-0.23118153
254	0xbe6c8e6f	-0.23101209
255	0xbc10dba2	-0.008841427

pre_final_linear.bias f4 [20]
0	0xbe37f938	-0.17966163
1	0x3e4c0666	0.19924316
2	0x3a718775	0.0009213605
3	0xbc242bb4	-0.010020185
4	0x3ed97eef	0.42479655
5	0x3bcd12ca	0.0062583433
6	0x3f1a24bb	0.60212296
7	0xbd75c61b	-0.06000338
8	0x3c8046ed	0.01565882
9	0x3ef73caa	0.4828847
10	0x3f22eddf	0.6364421
11	0x3ef48dbf	0.47764394
12	0x3f19645e	0.59918773
13	0x3f416c0c	0.7555549
14	0xbc9a7902	-0.01885653
15	0x3d18e96c	0.037331983
16	0x3e90b3e2	0.2826224
17	0x3b16be88	0.002300175
18	0xbcb8b518	-0.02254729
19	0x3cd6761d	0.026179368

final_linear_com.weight f4 [1, 20]
0	0x3bb21335	0.0054344186
1	0xbd4d58bc	-0.05013345
2	0x3e8d3b47	0.27584288
3	0x3d8b6923	0.068071626
4	0xbecd5463	-0.40103444
5	0x3d1bc629	0.038030777
6	0xbdd4079b	-0.10353013
7	0x3e3930f0	0.18085074
8	0x3e2f96a3	0.17147307
9	0xbe962a7a	-0.29329282
10	0xbe3787e2	-0.17922929
11	0xbe272393	-0.16322164
12	0xbea7ffe0	-0.32812405
13	0xbeb1e171	-0.3474231
14	0x3e3bcd27	0.18339978
15	0xbe3e503b	-0.18585293
16	0xbe258ceb	-0.16167037
17	0x3dc97e4e	0.09838544
18	0x3ec73101	0.38904575
19	0x3d5cdf4c	0.05392389

final_linear.weight f4 [1, 20]
0	0xbde35aab	-0.11101278
1	0x3e4c9235	0.19977649
2	0x3d632aca	0.05546073
3	0x3ddb2ea2	0.10702254
4	0xbd5af1b3	-0.05345316
5	0xbe432dee	-0.1906049
6	0xbe1caea8	-0.15301001
7	0xbe231df2	-0.15929392
8	0xbe4ba111	-0.1988566
9	0xbe506394	-0.20350486
10	0xbd729610	-0.059225142
11	0xbd6f5c2c	-0.05843751
12	0x3e47d49e	0.19514701
13	0x3df725d2	0.120677605
14	0xbd5c4734	-0.053778842
15	0x3de16b90	0.11006844
16	0xbe302cd9	-0.17204608
17	0xbc72f238	-0.014828257
18	0xbd84ccc9	-0.06484372
19	0xbe48a98f	-0.19595931

final_linear1.weight f4 [1, 20]
0	0xbd6ac6bd	-0.057318438
1	0x3c2cabb6	0.010538986
2	0xbf79e529	-0.97615296
3	0x3e2e6dc7	0.17034064
4	0xbe54cad8	-0.20780504
5	0x3e2011a1	0.15631725
6	0x3e85ef5c	0.2615918
7	0xbdada1ff	-0.08478164
8	0x3e4b33fb	0.19844048
9	0xbce854d2	-0.028360758
10	0xbe3dcbc2	-0.18534759
11	0x3e148eb9	0.1450757
12	0x3e24a499	0.16078414
13	0x3e1a58ce	0.15072939
14	0x3e4aede4	0.1981731
15	0x3d3931ac	0.045213386
16	0x3e823b6c	0.2543596
17	0x3e3cae01	0.18425752
18	0x3e4808e5	0.19534643
19	0xbdf2a0e1	-0.118470915

final_linear2.weight f4 [1, 20]
0	0xbdb647f9	-0.089004464
1	0x3e0078b9	0.12546052
2	0xbc67c77b	-0.014146681
3	0x3e0ec211	0.13941218
4	0x3e2553f9	0.16145314
5	0xbe446ce1	-0.19182159
6	0xbe115ea9	-0.14196266
7	0x3e02dd6b	0.12779777
8	0xbe34cff1	-0.17657448
9	0xbdfeefab	-0.12448057
10	0xbd7d4e73	-0.061842393
11	0x3db98fd6	0.09060638
12	0x3da96f99	0.08273239
13	0x3cdf5909	0.027264135
14	0x3df7fcb5	0.12108747
15	0xbdfcc03a	-0.12341352
16	0x3e2c18e2	0.16806367
17	0x3c85b437	0.016321285
18	0x3bb668aa	0.005566676
19	0x3dce97bb	0.10087534

TopKpool.select.weight f4 [1, 20]
0	0x3d11fbe1	0.0356406
1	0xba120053	-0.00055695063
2	0xbc87e2d8	-0.01658766
3	0xbe623dbb	-0.22093861
4	0x3c15aef0	0.009135947
5	0x3e0a09b7	0.13480268
6	0x3d5b8db1	0.053601924
7	0xbd8ec374	-0.069708735
8	0x3e4bfde5	0.19921072
9	0x3d05ac16	0.032634817
10	0x3c6e6a5f	0.014551728
11	0xbe51c1bf	-0.20484065
12	0xbdbaa36b	-0.09113201
13	0x3e15377a	0.14571944
14	0x3da02342	0.07819225
15	0x3e17f504	0.1483956
16	0xbd275821	-0.04085553
17	0x3de37c9a	0.1110775
18	0xbdcace33	-0.09902611
19	0x3e2ef529	0.17085709

SAGpool.gnn.lin_rel.weight f4 [1, 20]
0	0x3e034334	0.12818605
1	0x3d8dd600	0.06925583
2	0x3e05fc16	0.13084444
3	0x3cd3c476	0.025850516
4	0xbe0e68a1	-0.139071
5	0x3d88a2c8	0.06671673
6	0xbe43eb25	-0.1913267
7	0xbda5eb6d	-0.081015445
8	0xbcfb3b3d	-0.030667895
9	0x3e1cd20e	0.15314505
10	0x3e611f60	0.21984625
11	0xbddf4aff	-0.10902976
12	0x3e4095d3	0.18807153
13	0x3c771df1	0.015082822
14	0xbd83ac15	-0.064293064
15	0x3d221d48	0.039578706
16	0x3cb72d40	0.022360444
17	0x3e2bb91a	0.1676983
18	0x3b666773	0.0035156875
19	0x3e554007	0.20825206

SAGpool.gnn.lin_root.weight f4 [1, 20]
0	0x3dddb697	0.10825842
1	0xbe034f22	-0.12823156
2	0xbdc06b1c	-0.093954295
3	0xbdafea69	-0.08589632
4	0x3e460786	0.19338807
5	0xbdca457a	-0.09876533
6	0x3e18c685	0.14919479
7	0x3dfcc086	0.123414084
8	0x3e2ff1d4	0.17182094
9	0x3e63182c	0.2217719
10	0xbdcbc427	-0.099495225
11	0xbe635cf2	-0.22203425
12	0xbe3e8c4a	-0.18608204
13	0x3cbc43ee	0.02298161
14	0x3d9d4d27	0.07680731
15	0x3e1b7473	0.1518114
16	0x3d93cbd9	0.07216615
17	0x3e004f24	0.1253019
18	0x3c38dbb2	0.011282848
19	0x3c3050d2	0.010761457
