family-EHR-graphs/results/G2__model.pth (torch, 56319 bytes, 24 tensors)

lstm.weight_ih_l0 f4 [80, 20]
0.07535354 0.12987423 -0.15714419 0.08915096 0.19823653 -0.19417505 -0.23238435 0.16745654
-0.28102446 -0.14706239 0.09150518 0.02598271 0.01924938 0.084418625 0.20163208 -0.09039768
-0.10892181 -0.2909054 0.028730262 0.13330749 0.23065272 0.18470556 -0.19952527 0.13609123
0.0231182 -0.12507139 -0.11867591 -0.029687963 0.12085071 0.12993452 0.0024440351 0.23711774
0.10789007 -0.110802785 -0.26312688 -0.099189654 0.1639656 -0.10684245 0.07400816 0.01751707
-0.018856922 0.12669368 -0.2530589 -0.117623314 -0.12596224 0.14794563 0.21208324 -0.11950298
0.19195463 -0.090054594 0.16483612 0.060234327 0.12069729 0.06603117 0.14390646 0.13997948
-0.057089973 -0.118163854 -0.20872192 -0.20326738 0.18026829 0.042849183 -0.13137601 0.17692891
-0.29026687 0.06307818 0.2528915 -0.18066859 -0.10391745 0.111996725 0.20033221 -0.019062346
-0.12142786 -0.014300479 0.035512004 -0.036650136 0.08072972 0.30159318 0.13269101 -0.12781838
-0.23819634 0.14897588 -0.08277378 -0.13996394 0.21165845 -0.1729778 0.1114458 -0.1726414
0.185082 -0.10753545 0.18964335 -0.16361183 0.038209878 -0.011779462 0.093450256 0.175884
0.18417169 -0.086892225 0.116380885 -0.010730388 -0.16059302 -0.274954 0.14061558 0.14523995
-0.21058154 0.112523645 0.03188346 0.024066305 -0.0933215 0.06987786 0.084303975 -0.14934117
0.1978781 0.040208682 0.021852933 0.026801543 0.13823284 0.08959477 -0.19802472 0.25132102
-0.1861221 -0.07099662 0.11911941 0.2564787 -0.028428061 -0.036888074 -0.0349833 -0.015193801
0.22118114 0.23520653 0.1279534 0.15373652 0.2001127 0.1624248 -0.025730532 -0.07199043
0.13863093 0.009947795 -0.06427886 -0.14035577 0.025433006 -0.2430967 0.022052484 -0.2670897
-0.012010011 0.13514847 0.0038544533 -0.14023261 0.019163264 -0.124092974 0.119667366 -0.12116765
-0.07685257 -0.055097584 -0.17381483 -0.049245283 -0.13386576 0.016288506 0.03454233 -0.2073302
-0.09272892 0.0009111038 -0.013762012 0.041296136 -0.15145117 0.05547502 -0.046906345 0.055581275
0.101854175 0.012559883 0.219216 -0.06747341 -0.07914791 -0.025610084 0.09761016 0.16762984
0.12611698 -0.0072929426 0.035763748 -0.11483144 -0.068568684 -0.0866396 -0.2601033 -0.18408757
-0.082439445 0.1906636 0.118827514 0.2766527 0.07152994 -0.038394257 0.23986073 -0.107651554
-0.08464496 -0.17922531 0.06981243 0.0255808 -0.08061887 -0.037683055 -0.024526207 0.034429982
0.17212711 -0.0200516 0.016884409 -0.03633284 -0.04116187 -0.21623497 -0.008878912 -0.26546022
-0.10857886 -0.18439326 0.05193464 0.0005865545 0.10000388 -0.05379342 0.07855319 0.116413996
-0.041736852 0.031278223 0.10007518 -0.17041433 0.15261966 -0.044943247 0.15174693 0.1695759
-0.008058673 -0.117125295 -0.1243957 0.07278318 0.06792158 0.10384028 -0.09295929 -0.07220239
0.20411648 -0.18303907 0.035082806 -0.09567231 -0.25565428 0.32458204 0.08183519 -0.09503462
-0.15308236 0.1834627 0.024417127 0.037051454 0.027792584 -0.034792807 0.18220504 0.29911658
0.067164905 0.078916006 -0.011431086 0.13061816 -0.12340947 -0.060940083 0.0651526 -0.025107823
00000000: f552 9a3d c0fd 043e 68ea 20be c794 b63d
00000010: 84fe 4a3e d3d5 46be 2af6 6dbe ba79 2b3e
00000020: 70e2 8fbe 8697 16be 1167 bb3d b1d9 d43c
00000030: e0b0 9d3c ace3 ac3d a478 4e3e 6b22 b9bd
00000040: 6612 dfbd 8df1 94be ba5b eb3c c281 083e
00000050: 3a30 6c3e 7423 3d3e 5a50 4cbe 805b 0b3e
00000060: 6162 bd3c b712 00be 5b0c f3bd 2c34 f3bc
00000070: 9480 f73d 8e0d 053e 1b2c 203b fece 723e
00000080: 78f5 dc3d 92ec e2bd 91b8 86be f223 cbbd
00000090: 99e6 273e 37d0 dabd 9791 973d f57f 8f3c
000000a0: d579 9abc fdbb 013e f090 81be 7ee4 f0bd
000000b0: 3ffc 00be 0f7f 173e 592c 593e fabd f4bd
000000c0: c18f 443e 8b6e b8bd cdca 283e 45b8 763d
000000d0: 2430 f73d 5a3b 873d 375c 133e c856 0f3e
000000e0: 2dd7 69bd e4ff f1bd 33bb 55be 5325 50be
000000f0: 4098 383e a082 2f3d 6f87 06be da2c 353e
00000100: dc9d 94be 222f 813d ff7a 813e 3001 39be
00000110: acd2 d4bd 8a5e e53d e323 4d3e a328 9cbc
00000120: 2baf f8bd 8e4c 6abc 0975 113d 741e 16bd
00000130: a055 a53d 6c6a 9a3e 27e0 073e d2e2 02be
00000140: bee9 73be 228d 183e 4d85 a9bd b552 0fbe
00000150: febc 583e 1821 31be b23d e43d e8c8 30be
00000160: 2386 3d3e 8c3b dcbd de31 423e dc89 27be
00000170: f681 1c3d a5fe 40bc d962 bf3d ef1a 343e
00000180: 8197 3c3e 8df4 b1bd 1a59 ee3d 82ce 2fbc
00000190: 7f72 24be c5c6 8cbe 88fd 0f3e c8b9 143e
000001a0: b0a2 57be cc72 e63d 3b98 023d b326 c53c
000001b0: 581f bfbd 201c 8f3d 90a7 ac3d e4ec 18be
000001c0: 8fa0 4a3e dcb1 243d ec04 b33c e98e db3c
000001d0: e98c 0d3e 767d b73d fec6 4abe 26ad 803e
000001e0: cb96 3ebe ad66 91bd e1f4 f33d 2d51 833e
000001f0: f7e1 e8bc f317 17bd a64a 0fbd 6cef 78bc
00000200: 4f7d 623e fbd9 703e 3706 033e 1b6d 1d3e
00000210: 58ea 4c3e b052 263e d6c8 d2bc b86f 93bd
00000220: 44f5 0d3e 14fc 223c a3a4 83bd 6cb9 0fbe
00000230: e158 d03c 57ee 78be 69a7 b43c fbbf 88be
00000240: a3c5 44bc 5c64 0a3e ff9a 7c3b 2399 0fbe
00000250: 47fc 9c3c 7524 febd 2a14 f53d bf26 f8bd
00000260: e164 9dbd 01ae 61bd 84fc 31be 6cb5 49bd
00000270: 1b14 09be 796f 853c 427c 0d3d 5e4e 54be
00000280: a9e8 bdbd 24d7 6e3a 107a 61bc 2326 293d
00000290: 0416 1bbe c639 633d de20 40bd 31a9 633d
000002a0: ec98 d03d f8c7 4d3c 297a 603e 802f 8abd
000002b0: 4d18 a2bd 3dcc d1bc d6e7 c73d 28a7 2b3e
000002c0: cf24 013e a3f9 eebb 027d 123d bf2c ebbd
000002d0: bd6d 8cbd 1a70 b1bd 422c 85be 7481 3cbe
000002e0: 03d6 a8bd 523d 433e d75b f33d 6ca5 8d3e
000002f0: 4a7e 923d 4c43 1dbd 0d9e 753e 6b78 dcbd
00000300: 565a adbd d786 37be d2f9 8e3d d38e d13c
00000310: 821b a5bd 8c59 1abd 2feb c8bc 7406 0d3d
00000320: 1742 303e 4143 a4bc 2c51 8a3c bed1 14bd
00000330: 5999 28bd b36c 5dbe db78 11bc 67ea 87be
00000340: 985e debd 96d1 3cbe 6bb9 543d 02c3 193a
00000350: d6ce cc3d 7d56 5cbd 7fe0 a03d 766a ee3d
00000360: 43f4 2abd 981d 003d 37f4 cc3d 1881 2ebe
00000370: 5448 1c3e 6916 38bd 8c63 1b3e 4ea5 2d3e
00000380: 8608 04bc 63df efbd 2cc3 febd 590f 953d
00000390: 781a 8b3d 36aa d43d 7161 bebd d9de 93bd
000003a0: e903 513e 986e 3bbe fdb2 0f3d d8ef c3bd
000003b0: 1ee5 82be 9e2f a63e 3599 a73d 83a1 c2bd
000003c0: 9fc1 1cbe a5dd 3b3e 6d06 c83c 44c3 173d
000003d0: 46ad e33c e782 0ebd f593 3a3e cf25 993e
000003e0: c18d 893d b79e a13d 7349 3bbc c4c0 053e
000003f0: 1bbe fcbd 4f9c 79bd ba6e 853d ecae cdbc

lstm.weight_hh_l0 f4 [80, 20]
0.22831143 -0.12594067 -0.010013588 0.011079134 -0.03474571 0.21887203 -0.11602547 -0.008181525
-0.14572313 0.21515417 0.18426524 -0.0298309 0.055052087 -0.3086555 -0.1482138 -0.20478387
-0.13958025 0.068357974 -0.18022442 0.010453224 0.04937713 -0.08254397 -0.08466978 -0.15328166
-0.20030501 0.049715366 0.14971037 -0.1377491 -0.118182935 0.2700746 0.24349461 -0.13189113
-0.112269446 -0.12398907 -0.13151634 0.027874172 0.030448647 0.087692566 0.01625479 -0.20660786
0.1411242 -0.0013294313 -0.101169154 -0.23236585 -0.0023857544 0.0021969501 -0.14032038 -0.030357486
0.032639813 -0.061141282 -0.22257133 -0.11818297 0.029186182 0.15520704 -0.036259465 -0.12844212
0.16643341 0.2516564 0.11490805 -0.016607242 -0.12962148 0.042846367 0.14932713 0.2188768
-0.22236772 0.034557972 -0.08926979 0.023744088 0.03546665 0.06286017 -0.11699064 0.0034896303
-0.07593646 -0.17925726 -0.2264164 -0.045503993 0.037371885 -0.0554002 0.20780386 -0.0076234783
-0.19361818 -0.05984612 0.18188736 0.06649831 0.15387309 0.103961706 0.14089334 0.20396154
0.14288093 0.026154457 -0.12345769 0.15495524 0.14673108 0.12959234 0.07096693 0.16314991
-0.096209794 0.09129068 -0.04171557 0.11284433 0.2601767 -0.047444478 -0.16101341 0.043406736
0.05363348 0.11232768 -0.06323313 -0.11896612 0.02341235 -0.2129585 0.0075208996 -0.0534761
-0.026975883 -0.21500672 -0.3110623 -0.16868098 -0.14625297 -0.17680886 0.01931644 -0.11477034
0.17246051 -0.13328832 0.12452863 -0.14293468 -0.031641804 -0.28034374 -0.14436284 -0.110237464
-0.134809 -0.22372074 -0.11048037 -0.050600864 -0.029814778 -0.18247716 0.086071454 0.14630468
0.26945105 0.0074059125 0.07847533 0.20585527 -0.09771956 -0.13064486 -0.049122468 0.16668826
-0.1639548 0.14124373 -0.11510464 -0.046618897 -0.16307004 -0.24456842 -0.043680143 0.12210724
-0.24755773 -0.21032566 -0.010833314 -0.17039202 0.18844166 -0.01057698 -0.008299559 -0.2657735
0.13567108 -0.06753128 -0.0048014135 0.035909228 0.0058108647 -0.059852306 -0.27511534 -0.12929305
-0.18652885 0.07234514 0.13360907 0.10988961 0.0680167 -0.22450292 0.09596041 -0.1853915
-0.09976259 0.012234237 -0.09959985 -0.06585516 -0.022102451 -0.0649852 0.18534711 0.14245722
0.005271554 0.15570973 0.14434879 -0.09047696 0.2747009 -0.065008886 0.32403454 0.16212837
-0.09055516 -0.07075331 0.038727127 -0.3369545 -0.02931192 0.16054922 -0.26075792 -0.25260168
-0.08124854 -0.29666296 -0.16431026 0.10791023 -0.13343409 0.11775023 0.040960636 -0.10782819
-0.25518852 0.09148955 0.18487433 -0.29453093 0.024651367 -0.19491291 0.04108315 -0.17505857
0.22022316 -0.033965737 -0.035158202 -0.105141036 -0.04901263 -0.12957922 0.07738516 -0.09426204
-0.105750784 0.06489864 0.08890149 0.1150517 0.16763301 -0.095912516 -0.014744541 0.17988282
0.060548753 -0.14661437 0.037960343 0.12674588 0.1100265 -0.17896259 0.011149853 0.10579224
0.105910316 0.122221135 -0.02268928 0.16357158 0.021019613 -0.10738461 0.067421995 -0.06943809
-0.08627197 0.112103924 0.049169607 0.119302064 -0.13186543 -0.2668703 0.0173906 -0.07864394
00000000: 79ca 693e 97f6 00be 0810 24bc 4285 353c
00000010: 8551 0ebd fd1f 603e c39e edbd ce0b 06bc
00000020: 7238 15be 6051 5c3e 07b0 3c3e ee5f f4bc
00000030: 4c7e 613d 1808 9ebe 5cc5 17be ddb2 51be
00000040: 20ee 0ebe 44ff 8b3d c08c 38be 0044 2b3c
00000050: ac3f 4a3d d00c a9bd 5a67 adbd def5 1cbe
00000060: c21c 4dbe 57a2 4b3d ad4d 193e 1a0e 0dbe
00000070: e509 f2bd 3847 8a3e a756 793e 780e 07be
00000080: 86ed e5bd fbed fdbd 38ac 06be 6058 e43c
00000090: 716f f93c 2998 b33d c428 853c 0391 53be
000000a0: dd82 103e 5040 aeba c631 cfbd 50f1 6dbe
000000b0: 515a 1cbb b5fa 0f3b 25b0 0fbe 43b0 f8bc
000000c0: 53b1 053d 486f 7abd bde9 63be ea09 f2bd
000000d0: dc17 ef3c 98ee 1e3e ce84 14bd 5586 03be
000000e0: 856d 2a3e 1cd9 803e e954 eb3d e90b 88bc
000000f0: 7ebb 04be ac7f 2f3d 36e9 183e 3d21 603e
00000100: 5db4 63be a98c 0d3d 14d3 b6bd f682 c23c
00000110: 7a45 113d d5bc 803d ca98 efbd 48b2 643b
00000120: 9384 9bbd 378f 37be b3d9 67be 6562 3abd
00000130: 4313 193d 52eb 62bd 89ca 543e 5fce f9bb
00000140: d843 46be 3521 75bd ae40 3a3e 4430 883d
00000150: e890 1d3e e0e9 d43d 5846 103e 4bdb 503e
00000160: 614f 123e df41 d63c 63d7 fcbd 96ac 1e3e
00000170: ac40 163e dbb3 043e 1c57 913d c510 273e
00000180: a409 c5bd 9cf6 ba3d f2dd 2abd ee1a e73d
00000190: e135 853e 2455 42bd b3e0 24be 43cb 313d
000001a0: c8ae 5b3d 0e0c e63d 5f80 81bd 82a4 f3bd
000001b0: 42cb bf3c cb11 5abe e171 f63b c109 5bbd
000001c0: 87fc dcbc b92a 5cbe 8f43 9fbe b5ba 2cbe
000001d0: 57c3 15be 620d 35be 833d 9e3c b60c ebbd
000001e0: 7d99 303e bc7c 08be de08 ff3d 785d 12be
000001f0: d69a 01bd 3789 8fbe dad3 13be 2ec4 e1bd
00000200: 5f0b 0abe 0d17 65be 8843 e2bd da42 4fbd
00000210: 1f3e f4bc 4bdb 3abe 3b46 b03d e5d0 153e
00000220: 7df5 893e 4cad f23b acb7 a03d b9cb 523e
00000230: 3121 c8bd c4c7 05be a434 49bd 54b0 2a3e
00000240: c4e3 27be 32a2 103e fbbb ebbd 75f3 3ebd
00000250: d5fb 26be 2570 7abe f3e9 32bd 5c13 fa3d
00000260: c67f 7dbe 9c5f 57be 367e 31bc 3f7b 2ebe
00000270: daf6 403e 124b 2dbc e0fa 07bc 7713 88be
00000280: 5ced 0a3e d74d 8abd 2d55 9dbb 8e15 133d
00000290: 1169 be3b b127 75bd ebdb 8cbe 6665 04be
000002a0: 6b01 3fbe b029 943d d1d0 083e ce0d e13d
000002b0: 574c 8b3d 18e4 65be e486 c43d 45d7 3dbe
000002c0: 5450 ccbd 1c72 483c 02fb cbbd 12df 86bd
000002d0: 3310 b5bc f616 85bd a2cb 3d3e 4ee0 113e
000002e0: 00bd ac3b 5f72 1f3e 2bd0 133e fc4b b9bd
000002f0: 99a5 8c3e 6123 85bd dbe7 a53e fb04 263e
00000300: fc74 b9bd 1de7 90bd 56a0 1e3d 4d85 acbe
00000310: 8d1f f0bc 0467 243e 1082 85be 0255 81be
00000320: a265 a6bd 35e4 97be f340 28be 0a00 dd3d
00000330: f2a2 08be 0827 f13d 57c6 273d 07d5 dcbd
00000340: 12a8 82be e05e bb3d b24f 3d3e c2cc 96be
00000350: aaf1 c93c 4097 47be ce46 283d 8e42 33be
00000360: 2e82 613e a81f 0bbd 0c02 10bd 2f54 d7bd
00000370: 78c1 48bd 6ab0 04be 1c7c 9e3d 750c c1bd
00000380: de93 d8bd 94e9 843d fc11 b63d 3aa0 eb3d
00000390: fda7 2b3e c86d c4bd 1693 71bc 3433 383e
000003a0: f801 783d 1422 16be 4e7c 1b3d acc9 013e
000003b0: 9355 e13d f841 37be dfad 363c 9aa9 d83d
000003c0: 82e7 d83d 134f fa3d dede b9bc 4f7f 273e
000003d0: 5331 ac3c 76ec dbbd 8b14 8a3d 8f35 8ebd
000003e0: 5caf b0bd be96 e53d 1266 493d a454 f43d
000003f0: bb07 07be 39a3 88be bb76 8e3c 1310 a1bd

lstm.weight_ih_l0_reverse f4 [80, 20]
-0.15273003 0.18921863 0.04816039 0.021811794 0.17631564 -0.029090425 -0.021919684 -0.16090636
0.07057168 0.023248069 -0.19697809 0.2087726 0.07604651 0.22354142 -0.089979805 0.032136664
0.035714433 -0.073918074 0.06644952 0.10722264 -0.20203185 -0.14410423 -0.0028264495 0.15812612
0.05780645 0.116435066 -0.17172018 -0.26583293 -0.21947807 0.17727824 0.06684943 -0.22567025
-0.104890056 0.19026272 0.14357157 0.109232314 0.15940626 -0.09277546 -0.2244413 -0.015667928
-0.09069538 0.037749007 -0.08553614 -0.17684174 -0.07571199 0.06663612 -0.02109583 -0.08079991
0.109941974 -0.14881434 0.002339964 -0.086550094 0.22268553 0.0036465046 -0.24735644 -0.0025220325
-0.13942227 0.05270783 -0.10436748 0.049240977 -0.109884836 -0.11033036 0.10617847 -0.020237582
-0.005337561 -0.16828097 -0.2152619 0.021120591 0.18157223 -0.19489509 0.21606672 0.11848861
0.13438398 0.21893397 0.08936008 -0.05714952 0.104447275 0.21046501 -0.17617194 0.19466276
-0.111488745 0.113836706 -0.21762456 -0.034999855 0.06301673 0.15645528 -0.035924386 -0.08657456
-0.13191013 0.16016917 -0.15401526 -0.1583442 0.04955139 -0.105617434 -0.21726084 -0.11900889
0.11527331 -0.018226415 0.06877271 -0.12698779 -0.23229457 -0.0050629647 -0.08229134 -0.2894864
0.22733112 0.1283137 -0.13232166 0.18234421 0.16958277 0.014683976 -0.3677136 0.02400102
-0.25252846 -0.2385648 0.18921627 0.050425112 -0.3209608 0.16643524 -0.121825054 -0.014293077
-0.20275061 -0.1462428 -0.016320596 0.030430727 0.07167652 -0.07069363 0.0037915804 0.17943154
0.06263597 0.18733013 0.17701685 -0.02834333 -0.07867069 -0.03560711 -0.23946987 -0.080888025
-0.14451297 -0.17930932 -0.035700526 0.120990984 -0.16200152 -0.042485923 0.21893045 -0.09845023
-0.061752837 -0.11521759 -0.18750116 -0.1012066 -0.047258984 -0.017190777 0.054970182 -0.019438747
0.09870292 0.1702721 -0.14036222 0.015251806 0.23036835 0.17750868 -0.12003417 -0.11415002
-0.15613367 0.0075082583 -0.24548334 0.17729624 0.16591917 0.12661912 -0.122455075 0.15735711
0.040126316 -0.0038947342 -0.071117274 -0.10773539 0.09165407 0.20330122 -0.26873398 0.20415185
0.117385045 -0.20520869 -0.12828489 -0.06371456 0.09971558 0.022675894 -0.13189773 0.075691015
-0.08424406 -0.2418985 0.13933948 0.25605577 -0.0057311472 0.17724702 -0.0641267 -0.0063299253
-0.008858617 0.1879047 0.22642805 -0.088387355 -0.21423672 -0.005216215 -0.24099408 -0.18387263
0.30400807 0.10705446 0.027627867 0.27833727 0.20190555 0.039453913 0.069950014 0.31574035
0.10823807 -0.062117618 -0.14262073 0.06784646 0.0056968397 0.025768774 -0.009515637 -0.07081389
0.10404776 0.08370879 -0.08580645 -0.3460359 0.08149696 -0.15564038 0.12205994 -0.094078586
0.085940465 0.10538308 0.29934448 0.14783941 -0.024395898 0.1205625 -0.18390156 0.036518004
0.10419316 -0.026609441 -0.10040221 0.011629011 -0.18277687 -0.094302215 -0.2557481 0.038668785
-0.0373503 0.12312865 0.023966692 0.0032717315 0.07224836 -0.035477202 -0.0046897046 -0.27300355
-0.020028776 -0.018039994 0.21193117 0.1867505 0.14139739 0.0057112826 -0.23750173 -0.18391196
00000000: 4365 1cbe 87c2 413e d443 453d a6ae b23c
00000010: 168c 343e 0b4f eebc e990 b3bc a3c4 24be
00000020: e387 903d bc72 be3c a0b4 49be 7cc8 553e
00000030: 46be 9b3d 0be8 643e 5547 b8bd bca1 033d
00000040: 4c49 123d 5c62 97bd b016 883d 8b97 db3d
00000050: 70e1 4ebe 0f90 13be f43b 39bb d0eb 213e
00000060: 75c6 6c3d 8275 ee3d 6ad7 2fbe 411b 88be
00000070: dcbe 60be 6d88 353e 5be8 883d 1a16 67be
00000080: 99d0 d6bd 3bd4 423e 6d04 133e 31b5 df3d
00000090: 653b 233e 0f01 bebd f1d3 65be 075a 80bc
000000a0: 80be b9bd b49e 1a3d 922d afbd 0016 35be
000000b0: e30e 9bbd 8578 883d 29d1 acbc 6c7a a5bd
000000c0: 4229 e13d c962 18be 155a 193b 2d41 b1bd
000000d0: ad07 643e 32fa 6e3b 024b 7dbe af48 25bb
000000e0: b6c4 0ebe 2ae4 573d 9ebe d5bd e8b0 493d
000000f0: 4d0b e1bd e2f4 e1bd 1974 d93d 49c9 a5bc
00000100: b5e6 aebb d951 2cbe 9e6d 5cbe 1705 ad3c
00000110: 12ee 393e 9492 47be 9840 5d3e 28aa f23d
00000120: f49b 093e 3a30 603e 6b02 b73d 9d15 6abd
00000130: 74e8 d53d 2484 573e 6b66 34be ad55 473e
00000140: 3654 e4bd 3823 e93d f9d8 5ebe 025c 0fbd
00000150: ea0e 813d d035 203e 7325 13bd 014e b1bd
00000160: 7313 07be 6303 243e 2db6 1dbe fb24 22be
00000170: 66f6 4a3d f44d d8bd a079 5ebe efba f3bd
00000180: 6a14 ec3d 904f 95bc b5d8 8c3d 1609 02be
00000190: a1de 6dbe 3ae7 a5bb 5d88 a8bd 9037 94be
000001a0: 7dc9 683e ab64 033e 547f 07be 71b8 3a3e
000001b0: 1ba7 2d3e 0f95 703c f544 bcbe c99d c43c
000001c0: 694b 81be 554a 74be e9c1 413e 908a 4e3d
000001d0: f954 a4be 006e 2a3e 6a7f f9bd 832d 6abc
000001e0: db9d 4fbe acc0 15be c5b2 85bc dc49 f93c
000001f0: 24cb 923d d2c7 90bd 2a7c 783b e7bc 373e
00000200: 4a47 803d 78d3 3f3e e843 353e 4530 e8bc
00000210: 191e a1bd c3d8 11bd 9737 75be 9fa8 a5bd
00000220: 35fb 13be dd9c 37be b73a 12bd 1fca f73d
00000230: bae3 25be b805 2ebd 4e2f 603e 46a0 c9bd
00000240: 8bf0 7cbd 33f7 ebbd 4e00 40be 6845 cfbd
00000250: a392 41bd acd3 8cbc 6a28 613d 023e 9fbc
00000260: c224 ca3d cf5b 2e3e 1dbb 0fbe b6e2 793c
00000270: aee5 6b3e d6c4 353e 7ad4 f5bd 7cc7 e9bd
00000280: 81e1 1fbe d607 f63b fc5f 7bbe 258d 353e
00000290: b7e6 293e 71a8 013e bac9 fabd 3922 213e
000002a0: 7e5b 243d cc3e 7fbb efa5 91bd 5fa4 dcbd
000002b0: 21b5 bb3d 322e 503e 8097 89be 2f0d 513e
000002c0: 9267 f03d 3a22 52be 1d5d 03be c77c 82bd
000002d0: af37 cc3d ccc2 b93c 3310 07be e403 9b3d
000002e0: 2688 acbd 3eb4 77be 02af 0e3e be19 833e
000002f0: 59cc bbbb 3e80 353e dc54 83bd 436b cfbb
00000300: bc23 11bc 176a 403e c1dc 673e 6e04 b5bd
00000310: df60 5bbe c8ec aabb 27c7 76be 1b49 3cbe
00000320: f2a6 9b3e 5e3f db3d d653 e23c 3982 8e3e
00000330: 54c0 4e3e 6d9a 213d f441 8f3d b8a8 a13e
00000340: ecab dd3d 0b6f 7ebd 2b0b 12be 16f3 8a3d
00000350: 8eac ba3b 0919 d33c 79e7 1bbc df06 91bd
00000360: fe16 d53d 846f ab3d 4bbb afbd 9e2b b1be
00000370: e1e7 a63d 3160 1fbe 90fa f93d 46ac c0bd
00000380: 8e01 b03d 16d3 d73d ae43 993e 3763 173e
00000390: e8d9 c7bc 79e9 f63d b150 3cbe e793 153d
000003a0: 3963 d53d 0bfc d9bc ad9f cdbd 9b87 3e3c
000003b0: dc29 3bbe 8521 c1bd 6af1 82be 2963 1e3d
000003c0: a1fc 18bd e02a fc3d cc55 c43c 8c6a 563b
000003d0: f3f6 933d 8b50 11bd 18ac 99bb 1fc7 8bbe
000003e0: 6313 a4bc 9cc8 93bc 7c04 593e 863b 3f3e
000003f0: 7aca 103e b625 bb3b a733 73be 6b53 3cbe

lstm.weight_hh_l0_reverse f4 [80, 20]
0.16591361 -0.22018743 -0.03166247 -0.269153 -0.09103119 -0.0070784045 -0.12468934 -0.13220376
0.20274545 -0.06831424 -0.14185777 -0.2342386 0.08775141 0.08395893 0.043731265 0.2283413
-0.049358033 -0.21081369 0.0877833 -0.21965261 -0.043656956 -0.13803008 -0.13899507 -0.06702452
-0.1816183 -0.10026559 0.18179332 0.018442178 -0.17952435 0.23836775 0.19387314 -0.1393794
0.011778865 0.11953927 0.28710935 0.17532687 -0.10720535 -0.318963 0.30866107 -0.033531424
-0.22632541 -0.082500406 -0.2533055 0.0034037037 -0.17577569 -0.097634085 -0.05674348 -0.17348918
0.066702686 0.01728599 0.09855486 -0.0684441 0.036702946 -0.051818322 0.013186197 -0.111445345
0.08500434 -0.082346365 0.15323217 -0.07610906 0.1261344 -0.07776103 -0.11522077 -0.27545917
0.13170417 0.10103148 0.14855096 0.0990988 0.19770052 0.22842182 -0.028548913 -0.09397262
-0.24753156 0.06941397 0.20283554 0.122533485 0.084169954 -0.2892402 0.12640962 0.13249318
-0.11559609 -0.13085036 0.15654346 -0.13038081 -0.07246992 -0.13022728 -0.015692255 -0.11659735
0.0811223 -0.07859193 0.061216343 -0.1389855 -0.10558255 -0.0462181 0.012255741 0.07127857
-0.20034741 -0.21236655 -0.10694754 0.00017704954 -0.052958626 -0.18407498 -0.2009648 -0.00822077
0.15700324 -0.27776664 0.19987378 0.12411375 0.09760865 0.10270962 0.14347835 0.07592862
0.1487445 -0.12121606 0.032643415 -0.124299034 -0.12664558 0.11794877 0.18821204 -0.25129318
-0.25795126 -0.01706842 -0.14979024 -0.15831141 -0.12786637 -0.061445225 -0.033780843 -0.21491803
-0.16086787 0.014006067 -0.17844048 -0.15796849 -0.24792203 0.0720478 -0.004403854 0.067131326
-0.021095827 -0.2811019 -0.014237939 -0.12230849 0.1411211 -0.14710444 -0.2570238 -0.05613971
0.067666225 0.10579659 0.100015976 -0.04748006 0.12743278 0.12940693 0.19928885 0.053001728
0.17376187 0.07647187 0.1861822 -0.094073616 -0.20683122 -0.15142484 0.020151388 -0.14141673
0.107940376 0.008848608 0.0031655382 0.041570526 -0.09407456 -0.17245713 0.008440168 -0.09520083
0.20189312 0.009611248 -0.04619842 0.022084923 -0.25687233 0.14050417 0.012787569 0.1764476
-0.19006748 -0.108014 0.25262976 -0.10868451 0.05919123 -0.1690062 0.12981562 -0.008302424
0.08376568 0.11525621 -0.073146105 -0.17566027 -0.02274199 0.03643372 -0.11865467 0.010974284
0.04458516 -0.32171118 0.13540891 0.038767915 0.008105119 0.077991605 0.1055866 -0.27164367
-0.29236385 0.0091222925 -0.15199406 -0.08457344 -0.25494507 -0.15936008 0.028395858 -0.30459952
0.09821492 0.09599742 0.036022678 -0.06659187 -0.3107657 -0.24350509 0.13233238 -0.020120885
-0.026066074 -0.03669562 0.014855285 -0.1578765 -0.14666964 -0.17263645 -0.089314595 -0.27197936
-0.14609061 0.13796487 0.06349788 -0.037373416 -0.026493408 0.22884163 -0.15064768 -0.10928746
0.0716372 -0.07040916 0.13737983 0.06541322 -0.20590188 -0.19712427 -0.13441716 -0.09609939
-0.053435005 -0.039039828 0.12791264 0.098819025 0.11147949 -0.16345255 0.072853394 0.091408096
-0.05309562 0.26467267 -0.06887498 -0.10345198 0.1080884 -0.2578303 0.25698724 0.020609027
00000000: 42e5 293e d078 61be 82b0 01bd 6cce 89be
00000010: 8f6e babd f6f1 e7bb 205d ffbd 6c60 07be
00000020: 819c 4f3e 56e8 8bbd 2a43 11be 3edc 6fbe
00000030: 03b7 b33d a9f2 ab3d 8e1f 333d 4dd2 693e
00000040: a62b 4abd 8bdf 57be bbc7 b33d 9dec 60be
00000050: a3d1 32bd c257 0dbe b954 0ebe 2744 89bd
00000060: 26fa 39be 0c58 cdbd 0728 3a3e 0d14 973c
00000070: 3bd5 37be ad16 743e ae86 463e 79b9 0ebe
00000080: 24fc 403c 01d1 f43d ffff 923e e388 333e
00000090: 7b8e dbbd 1e4f a3be d308 9e3e 3f58 09bd
000000a0: d9c1 67be f9f5 a8bd 42b1 81be ac10 5f3b
000000b0: 8bfe 33be 61f4 c7bd da6b 68bd 26a7 31be
000000c0: 6b9b 883d 599b 8d3c 21d7 c93d 6c2c 8cbd
000000d0: d455 163d 733f 54bd eb0a 583c 753d e4bd
000000e0: c116 ae3d 36a5 a8bd e5e8 1c3e 11df 9bbd
000000f0: 6029 013e 2d41 9fbd def8 ebbd fc08 8dbe
00000100: 75dd 063e 98e9 ce3d be1d 183e 50f4 ca3d
00000110: 0172 4a3e 69e7 693e 69df e9bc b874 c0bd
00000120: ea78 7dbe e928 8e3d 1fb4 4f3e d6f2 fa3d
00000130: 4c61 ac3d 4b17 94be 8671 013e 4bac 073e
00000140: a5bd ecbd a3fd 05be ee4c 203e 8c82 05be
00000150: 1c6b 94bd 4d5a 05be 0b8d 80bc 97ca eebd
00000160: 7323 a63d cef4 a0bd fdbd 7a3d 3752 0ebe
00000170: aa3b d8bd 314f 3dbd 4ecc 483c 80fa 913d
00000180: df27 4dbe 9e76 59be 5007 dbbd 60a6 3939
00000190: 25eb 58bd 277e 3cbe b7c9 4dbe 69b0 06bc
000001a0: 75c5 203e 6e37 8ebe b6ab 4c3e 5a2f fe3d
000001b0: 0be7 c73d 6c59 d23d fdeb 123e 7780 9b3d
000001c0: 7a50 183e 2040 f8bd 1ab5 053d 7e90 febd
000001d0: 61af 01be 208f f13d a8ba 403e 80a9 80be
000001e0: 3012 84be 12d3 8bbc 9d62 19be 631c 22be
000001f0: 67ef 02be fdad 7bbd c85d 0abd 7913 5cbe
00000200: 8cba 24be b479 653c 1ab9 36be 7ec2 21be
00000210: 46df 7dbe cc8d 933d 344e 90bb 267c 893d
00000220: 28d1 acbc 97ec 8fbe 3f46 69bc e07c fabd
00000230: 0d82 103e 8ca2 16be a098 83be c1f2 65bd
00000240: 9794 8a3d e2ab d83d 2dd5 cc3d 747a 42bd
00000250: bd7d 023e 4083 043e 6012 4c3e 5718 593d
00000260: a2ee 313e 499d 9c3d 8ca6 3e3e aba9 c0bd
00000270: 90cb 53be 1d0f 1bbe 8614 a53c 8ccf 10be
00000280: d80f dd3d c0f9 103c eb74 4f3b db45 2a3d
00000290: 2aaa c0bd 9a98 30be a148 0a3c a7f8 c2bd
000002a0: 12bd 4e3e 7f78 1d3c 8e3a 3dbd 71eb b43c
000002b0: c584 83be 53e0 0f3e f482 513c aeae 343e
000002c0: 0da1 42be 7236 ddbd b058 813e fc95 debd
000002d0: 8172 723d f60f 2dbe 63ee 043e e406 08bc
000002e0: 578d ab3d 730b ec3d a0cd 95bd 49e0 33be
000002f0: 694d babc 863b 153d 3801 f3bd 7ccd 333c
00000300: ee9e 363d 54b7 a4be a2a8 0a3e 1bcb 1e3d
00000310: 55cb 043c 10ba 9f3d ca3d d83d e114 8bbe
00000320: b7b0 95be ab75 153c 55a4 1bbe d734 adbd
00000330: 2988 82be 4a2f 23be 6e9e e83c 78f4 9bbe
00000340: e724 c93d 4c9a c43d 848c 133d 5161 88bd
00000350: af1c 9fbe 6659 79be 2482 073e 8ed4 a4bc
00000360: 8588 d5bc 254e 16bd 9563 733c 61aa 21be
00000370: 9130 16be 9cc7 30be 92ea b6bd e140 8bbe
00000380: c798 15be aa46 0d3e 2d0b 823d de14 19bd
00000390: b408 d9bc 7655 6a3e 6343 1abe 1bd2 dfbd
000003a0: 86b6 923d ad32 90bd 4cad 0c3e 5ef7 853d
000003b0: f1d7 52be f2da 49be a7a4 09be c2cf c4bd
000003c0: aade 5abd 3ae8 1fbd 88fb 023e a161 ca3d
000003d0: 5c4f e43d 1b60 27be 2934 953d 2b34 bb3d
000003e0: cb7a 59bd 2d83 873e 530e 8dbd a2de d3bd
000003f0: 735d dd3d 5502 84be d593 833e 43d4 a83c

combined_linear1.weight f4 [20, 54]
-0.032461643 0.06029407 0.12859909 0.076977566 -0.03428961 0.063203916 -0.07243506 -0.107159264
0.0508924 -0.113739654 -0.044547264 -0.12941013 -0.07845367 -0.052604895 0.07798113 -0.054413915
-0.05334272 0.07294653 -0.07882792 -0.07762942 -0.10972826 -0.09892309 0.030006671 0.10241079
0.104124956 -0.022992168 0.12244756 -0.07896609 0.0034722113 0.00421667 -0.08664491 -0.07260396
-0.0048371097 0.02923788 -0.09333148 -0.025589557 -0.07911029 -0.004948687 0.00060519023 -0.113643765
-0.12050038 -0.09883975 -0.06029016 -0.035730444 -0.10323505 -0.06122922 -0.13457942 -0.08134707
-0.1336216 -0.10072573 -0.047686446 -0.07130436 -0.116445154 0.014267183 -0.01720106 0.121193215
-0.108305 -0.13103433 -0.09419975 0.11310027 0.1058824 0.07562873 -0.013452898 -0.022342147
0.07946546 0.117869504 -0.13146323 -0.058490746 -0.11759469 -0.06365901 -0.083576374 0.05759604
0.12508708 -0.11001907 -0.12305767 0.011798038 -0.016158136 0.08697548 0.07233225 0.037842687
-0.07261029 0.034669507 0.094108075 -0.09605919 -0.0029095467 -0.011133612 0.06989808 0.07923807
0.020807816 0.109622985 -0.020716717 -0.09099281 0.10593242 0.07829904 0.06862275 0.020804146
-0.089990705 -0.12042404 -0.012254896 -0.032094784 0.040526174 0.05048251 0.06854707 0.05325312
0.086549565 -0.07238387 0.12239201 0.12774312 0.021980664 0.4249374 0.39713085 0.32859668
-0.036584944 0.2969258 0.14001863 0.056829937 0.20633887 0.15179178 0.16127798 0.09049784
-0.29652447 0.16670069 -0.04868419 0.11888455 -0.029776 0.0045879036 0.032472868 -0.043304242
-0.06115736 0.116953924 -0.030863851 -0.14814669 0.061476745 -0.22929293 -0.085197076 -0.013040139
-0.041282978 -0.012133491 -0.22111289 0.045191094 0.040212877 -0.15875624 -0.047700763 -0.01939981
-0.1256139 0.15493752 -0.08912542 0.14442103 0.095170714 0.08517014 -0.14303699 -0.10102788
0.02012568 0.024045132 0.006090633 0.057819836 0.092962965 -0.019663792 -0.042041365 -0.119815595
-0.107676804 0.0707315 0.038664497 -0.2827083 -0.3658412 -0.34105885 -0.04384514 -0.1909717
-0.19900557 -0.05106723 -0.09521817 0.046190962 -0.053609584 -0.061556693 0.37107325 -0.08159502
0.019061215 0.009918406 0.15175901 -0.059087127 0.1797571 -0.013637118 0.0029989337 -0.0021069737
0.046996262 0.03051433 0.068456285 0.24884035 0.20296495 0.010942309 -0.0106763635 0.12517987
0.2099418 0.20490453 0.040638916 0.020484315 -0.15999356 0.0868995 0.010021103 0.014774883
0.096171856 0.07773896 0.07055982 -0.13871448 -0.12601273 0.07418909 0.1409327 0.067665584
0.16392373 0.09132986 0.04768835 -0.08549891 0.015156919 -0.11684973 -0.047555942 0.06741373
0.007793831 -0.16176245 -0.20628977 -0.38428682 -0.08742652 -0.2594909 -0.24539496 0.12305273
-0.123535104 -0.17213014 -0.05510257 -0.14834061 0.5975089 -0.082089156 0.02014717 0.0029817603
0.1334382 0.18944263 -0.0040035206 0.28518897 0.22294344 0.17710294 0.0888266 0.060591277
0.041731652 0.071446456 0.10463007 0.099274255 0.17280126 0.13226974 0.28790438 0.023158498
0.14136212 0.020589873 0.09011167 0.0719754 0.045952357 -0.08695304 -0.015717458 0.05912994
00000000: 80f6 04bd eaf6 763d 7baf 033e 6aa6 9d3d
00000010: 4373 0cbd 0e71 813d d558 94bd 5176 dbbd
00000020: 8d74 503d 56f0 e8bd 3177 36bd 1784 04be
00000030: 51ac a0bd 3b78 57bd 92b4 9f3d 20e1 5ebd
00000040: e57d 5abd fe64 953d 8870 a1bd 2cfc 9ebd
00000050: 36b9 e0bd 3098 cabd 8dd0 f53c c0bc d13d
00000060: 773f d53d 125a bcbc c9c5 fa3d f9b8 a1bd
00000070: 0a8e 633b fe2b 8a3b e372 b1bd 63b1 94bd
00000080: 9e80 9ebb 4784 ef3c 9324 bfbd 31a1 d1bc
00000090: 9304 a2bd 9828 a2bb a1a5 1e3a 10be e8bd
000000a0: e7c8 f6bd 7f6c cabd d1f2 76bd 165a 12bd
000000b0: e66c d3bd 7ecb 7abd 30cf 09be 4b99 a6bd
000000c0: 1ad4 08be 4b49 cebd dd52 43bd 0508 92bd
000000d0: cc7a eebd e7c0 693c 3de9 8cbc 2634 f83d
000000e0: 03cf ddbd dd2d 06be cceb c0bd 1da1 e73d
000000f0: dfd8 d83d 3ce3 9a3d 8b69 5cbc e106 b7bc
00000100: c9be a23d 9165 f13d 4c9e 06be fe93 6fbd
00000110: 7cd5 f0bd a85f 82bd 172a abbd d3e9 6b3d
00000120: d416 003e ae51 e1bd a905 fcbd 8f4c 413c
00000130: 115e 84bc 3320 b23d ee22 943d ef00 1b3d
00000140: b4b4 94bd 9d01 0e3d bcbb c03d aeba c4bd
00000150: 18ae 3ebb c169 36bc b926 8f3d 9247 a23d
00000160: 2775 aa3c 0482 e03d 1bb6 a9bc 705a babd
00000170: 19f3 d83d 3f5b a03d 168a 8c3d 756d aa3c
00000180: 0c4d b8bd e1a0 f6bd c2c8 48bc d275 03bd
00000190: c6fe 253d c0c6 4e3d 6862 8c3d f21f 5a3d
000001a0: e640 b13d ff3d 94bd aaa8 fa3d 18cf 023e
000001b0: cb10 b43c 6591 d93e bc54 cb3e d33d a83e
000001c0: 18da 15bd a906 983e 0b61 0f3e 82c6 683d
000001d0: 7f4a 533e 4e6f 1b3e 0e26 253e ee56 b93d
000001e0: 0ed2 97be 96b3 2a3e 1369 47bd be79 f33d
000001f0: ccec f3bc 2056 963b 4502 053d ca5f 31bd
00000200: 2480 7abd 8a85 ef3d 30d6 fcbc c4b3 17be
00000210: 0acf 7b3d c4cb 6abe ce7b aebd 4fa6 55bc
00000220: 5718 29bd 8dcb 46bc 6b6b 62be 4c1a 393d
00000230: 42b6 243d ff90 22be e061 43bd 5aec 9ebc
00000240: eea0 00be f1a7 1e3e 6387 b6bd 1be3 133e
00000250: dde8 c23d af6d ae3d 4a78 12be b5e7 cebd
00000260: 9cde a43c 4cfa c43c ef93 c73b 7ed4 6c3d
00000270: 5e63 be3d f615 a1bc 9133 2cbd e161 f5bd
00000280: a885 dcbd addb 903d aa5e 1e3d 24bf 90be
00000290: 8a4f bbbe 449f aebe f696 33bd 168e 43be
000002a0: 1ec8 4bbe df2b 51bd be01 c3bd bc32 3d3d
000002b0: b995 5bbd df22 7cbd 50fd bd3e 4a1b a7bd
000002c0: 4426 9c3c cf80 223c b766 1b3e 5805 72bd
000002d0: 3f12 383e 386e 5fbc c289 443b 2715 0abb
000002e0: 277f 403d 30f9 f93c cf32 8c3d 01d0 7e3e
000002f0: 0bd6 4f3e 5f47 333c eaeb 2ebc 272f 003e
00000300: fcfa 563e 7ed2 513e fe74 263d b9ce a73c
00000310: 5ad5 23be 5df8 b13d 8d2f 243c 5a12 723c
00000320: c0f5 c43d 9b35 9f3d ab81 903d 2b0b 0ebe
00000330: 7b09 01be 73f0 973d a950 103e 4194 8a3d
00000340: 9fdb 273e 260b bb3d dc54 433d 0d1a afbd
00000350: ba54 783c e94e efbd 05ca 42bd 3610 8a3d
00000360: 6563 ff3b 0ea5 25be a03d 53be 3ec1 c4be
00000370: ad0c b3bd fedb 84be d148 7bbe 1203 fc3d
00000380: f9ff fcbd e242 30be 3cb3 61bd 9ae6 17be
00000390: 58f6 183f 5c1e a8bd ae0b a53c a369 433b
000003a0: 06a4 083e 40fd 413e f72f 83bb 4a04 923e
000003b0: 494b 643e 795a 353e b8ea b53d 8f2e 783d
000003c0: cfee 2a3d 8552 923d 4a48 d63d 4d50 cb3d
000003d0: d0f2 303e b871 073e 3468 933e e4b6 bd3c
000003e0: 3bc1 103e 18ac a83c 788c b83d d767 933d
000003f0: 8a38 3c3d 6f14 b2bd e6c1 80bc 3c32 723d

combined_linear1.bias f4 [20]
-0.017657941 0.03539664 -0.40529034 0.4362156 0.5123416 0.22266501 -0.33178866 0.5094828
-0.20432417 0.35845882 0.1177262 0.04999766 -0.20170666 -0.43467048 0.12581833 -0.29599974
-0.053913664 0.33488643 -0.12560174 -0.036468316
00000000: 63a7 90bc 11fc 103d 3782 cfbe a757 df3e
00000010: d228 033f 4c02 643e 34e0 a9be 776d 023f
00000020: 5b3a 51be ea87 b73e 6f1a f13d 59ca 4c3d
00000030: 318c 4ebe 218d debe 85d6 003e 478d 97be
00000040: 93d4 5cbd 3c76 ab3e be9d 00be cd5f 15bd

combined_linear2.weight f4 [20, 20]
-0.13546678 0.045682825 -0.18571928 0.16294001 0.11718581 -0.18106376 0.029908547 0.12218093
0.16047268 -0.12921795 -0.10341864 0.15360636 0.0048354263 0.15128185 0.09190237 -0.21621674
0.10811277 0.017644465 -0.050517533 -0.09797447 0.1936412 -0.057645563 0.38779727 -0.26422703
-0.2923334 0.048067342 -0.04136657 -0.39121467 0.17143576 0.09219441 0.21034384 0.19010654
-0.007665886 0.014736079 0.15915611 0.19230737 -0.030371321 -0.46425143 -0.008129575 -0.20106067
-0.033570737 0.18065462 0.19754587 -0.081962995 -0.2602912 -0.20053357 0.16737908 -0.3444731
0.025541315 -0.10733158 -0.05334632 0.03740259 0.10257513 0.08640933 0.16290067 0.13934866
-0.15863252 -0.34661573 0.14121267 0.17725283 -0.1101962 0.15545683 -0.38168788 0.18149309
0.5091834 0.2287552 -0.22617981 0.57052314 0.04662238 0.031055978 -0.19209635 0.010307051
-0.08015096 -0.12648293 -0.10353361 -0.15333606 -0.114517435 0.31940022 0.11468323 0.12680559
-0.12389318 -0.21625212 0.16336495 -0.07439138 -0.16008544 -0.050866287 -0.040606014 -0.27423194
0.15791488 -0.15116139 -0.04402069 0.18161505 -0.021308146 0.22470012 0.0032183398 0.229467
-0.12489728 -0.17515102 -0.19273676 0.0034364124 -0.13708691 -0.20663646 -0.18686756 -0.18803784
-0.052258037 0.11464525 0.096111804 -0.13631661 0.091339074 -0.18762714 -0.121734895 -0.17836039
-0.042765137 -0.095765784 0.20869982 -0.041379772 -0.12166471 -0.13372199 -0.029436868 -0.0825902
0.0853012 0.15979561 -0.1347863 -0.17020018 -0.12834102 0.09440748 0.06980134 -0.11009752
0.07548589 -0.13335486 -0.14201431 -0.1728584 -0.058510095 -0.1353035 -0.029175293 0.040771723
-0.21221647 0.11829696 0.18062569 0.130219 -0.15600154 0.04051961 -0.08371625 0.097034305
-0.1683762 -0.06192672 -0.115063995 0.06115972 -0.21072209 0.055269442 0.013771986 0.16837454
-0.11174427 0.046353467 -0.09018674 0.03001642 -0.13852175 -0.07637886 0.16213791 0.09328784
-0.07096519 -0.06439028 -0.3474907 0.16965191 0.5264423 0.08373069 -0.1987502 0.40479544
-0.08455234 0.15879254 0.11424885 -0.0244366 -0.15059306 -0.095417745 -0.20097613 0.026694138
0.0811829 0.22648638 0.045163352 -0.05167616 -0.053788677 0.15359327 -0.16472258 -0.045089915
-0.10639895 -0.030826366 0.07460049 -0.20096639 0.08379567 -0.097327136 -0.15534082 0.13642685
-0.08523144 0.13034251 0.06148893 -0.006145969 0.17373061 0.0117752915 0.20258355 0.20564331
0.0026658939 -0.071561135 -0.22781922 0.17752957 -0.049091887 0.0677303 -0.037408587 -0.1348601
-0.055502616 -0.017665576 0.12893921 0.024410104 -0.17960852 -0.015906697 -0.14589606 0.1778309
-0.050243136 0.14581333 -0.12863341 -0.19478711 -0.016827138 0.0015857392 -0.142483 0.13630648
-0.13414732 0.037802882 0.09149949 -0.0330446 -0.14645256 -0.00608458 0.06972841 0.1022895
-0.14802445 -0.09142477 0.08800587 0.092779115 -0.08380755 -0.16408041 0.10282912 -0.12132543
0.05135618 0.084686905 -0.14164467 -0.17047042 0.065920256 -0.17002313 -0.19995028 0.116543554
-0.07425724 -0.05103378 -0.009355352 -0.07123256 0.14269795 0.20530108 0.22027133 0.068039484
00000000: ceb7 0abe ea1d 3b3d 322d 3ebe bfd9 263e
00000010: 1dff ef3d c768 39be c502 f53c ff39 fa3d
00000020: f352 243e b651 04be 27cd d3bd fc4a 1d3e
00000030: 7f72 9e3b a1e9 1a3e 4f37 bc3d ec67 5dbe
00000040: 3a6a dd3d 208b 903c 79eb 4ebd d7a6 c8bd
00000050: e149 463e c11d 6cbd 5d8d c63e c448 87be
00000060: b9ac 95be 43e2 443d fe6f 29bd 4a4d c8be
00000070: db8c 2f3e 6cd0 bc3d 6064 573e 4aab 423e
00000080: 1d32 fbbb 986f 713c d2f9 223e 39ec 443e
00000090: 47cd f8bc 5db2 edbe e931 05bc d9e2 4dbe
000000a0: 7881 09bd 86fd 383e 7749 4a3e 37dc a7bd
000000b0: e344 85be ac58 4dbe 6c65 2b3e c75e b0be
000000c0: 053c d13c a9d0 dbbd ac81 5abd 7533 193d
000000d0: e912 d23d 60f7 b03d 6fcf 263e 6ab1 0e3e
000000e0: 9070 22be 9e77 b1be 0e9a 103e c481 353e
000000f0: 8cae e1bd 1330 1f3e 986c c3be 53d9 393e
00000100: d859 023f ce3e 6a3e ae9b 67be ce0d 123f
00000110: 1cf7 3e3d 1b69 fe3c e8b4 44be e8de 283c
00000120: 3026 a4bd be84 01be 6e09 d4bd 2104 1dbe
00000130: 1e88 eabd 6d88 a33e 0bdf ea3d 53d9 013e
00000140: b5bb fdbd 3271 5dbe 2449 273e 825a 98bd
00000150: 70ed 23be 2b59 50bd 7e52 26bd 2168 8cbe
00000160: 70b4 213e 0dca 1abe 0a4f 34bd 4cf9 393e
00000170: 6c8e aebc ca17 663e c8ea 523b 66f9 6a3e
00000180: 25ca ffbd ca5a 33be c95c 45be 6f35 613b
00000190: 8360 0cbe 8298 53be 365a 3fbe fe8c 40be
000001a0: 860c 56bd 21cb ea3d 44d6 c43d 9596 0bbe
000001b0: fb0f bb3d 5421 40be 2550 f9bd 1ba4 36be
000001c0: 7f2a 2fbd da20 c4bd 68b5 553e d67d 29bd
000001d0: 592b f9bd 6bee 08be 9625 f1bc 0d25 a9bd
000001e0: 65b2 ae3d 76a1 233e 6b05 0abe f548 2ebe
000001f0: d46b 03be b558 c13d 01f4 8e3d cf7a e1bd
00000200: 5998 9a3d 2d8e 08be 336c 11be cb01 31be
00000210: 48a8 6fbd 008d 0abe 0601 efbc 4000 273d
00000220: 464f 59be ad45 f23d f1f5 383e 2158 053e
00000230: debe 1fbe e4f7 253d 6d73 abbd ecb9 c63d
00000240: d06a 2cbe dfa6 7dbd aca6 ebbd 9d82 7a3d
00000250: 88c7 57be 3662 623d e5a3 613c 606a 2c3e
00000260: 2eda e4bd 22dd 3d3d d3b3 b8bd ffe4 f53c
00000270: a5d8 0dbe 856c 9cbd 7b07 263e b20d bf3d
00000280: 3356 91bd 0ddf 83bd 4dea b1be 3bb9 2d3e
00000290: ecc4 063f ff7a ab3d 2c85 4bbe 5941 cf3e
000002a0: c729 adbd 839a 223e 4dfb e93d 442f c8bc
000002b0: 1135 1abe 616a c3bd b0cc 4dbe aaad da3c
000002c0: 3843 a63d 0cec 673e 35fd 383d 62aa 53bd
000002d0: 8451 5cbd 8e47 1d3e 09ad 28be 34b0 38bd
000002e0: b1e7 d9bd 9387 fcbc 24c8 983d 22ca 4dbe
000002f0: 109d ab3d 7353 c7bd aa11 1fbe 7bb3 0b3e
00000300: d28d aebd 8278 053e d1db 7b3d 2064 c9bb
00000310: 70e6 313e 27ed 403c 1072 4f3e 2994 523e
00000320: 47b6 2e3b a58e 92bd 7149 69be 50ca 353e
00000330: 9314 49bd 2fb6 8a3d bf39 19bd c418 0abe
00000340: b656 63bd 66b7 90bc a408 043e b3f7 c73c
00000350: 4ceb 37be c34e 82bc c765 15be 4e19 363e
00000360: bfcb 4dbd 1750 153e 7ab8 03be 4676 47be
00000370: 11d9 89bc 94d8 cf3a 10e7 11be ed93 0b3e
00000380: ea5d 09be 32d7 1a3d 1664 bb3d c659 07bd
00000390: a9f7 15be 2861 c7bb c5cd 8e3d 287d d13d
000003a0: b993 17be e93c bbbd 6c3c b43d fa02 be3d
000003b0: 4ba3 abbd b204 28be 1398 d23d 7879 f8bd
000003c0: dc5a 523d 5470 ad3d 4d0b 11be cc8f 2ebe
000003d0: 3301 873d 8b1a 2ebe c4bf 4cbe 63ae ee3d
000003e0: 2e14 98bd cc08 51bd 3147 19bc 60e2 91bd
000003f0: 691f 123e 723a 523e cf8e 613e 4958 8b3d

combined_linear2.bias f4 [20]
-0.17095451 -0.24123931 -0.28496057 0.31411204 -0.2467095 0.16722928 0.20435447 0.16008359
0.18177938 -0.21304522 -0.22062366 -0.05452577 -0.07344268 -0.08898579 -0.009299082 0.005021535
0.07496376 0.17524165 -0.06539683 -0.084860384
00000000: b30e 2fbe 7007 77be 5ae6 91be 4bd3 a03e
00000010: 6aa1 7cbe 273e 2b3e 4c42 513e f4ec 233e
00000020: 6024 3a3e 8728 5abe 2beb 61be 6a56 5fbd
00000030: 1e69 96bd 2f3e b6bd 2d5b 18bc b08b a43b
00000040: 9a86 993d 8c72 333e c6ee 85bd 48cb adbd

combined_conv1.lin_rel.weight f4 [20, 43]
0.08157869 -0.070375055 -0.94821024 0.08766288 0.118896864 -0.049696095 0.013882157 0.0023609374
0.07080767 0.1015591 -0.11739691 0.069526225 0.061741196 -0.02349544 0.1861314 0.15143159
0.015490444 0.06415125 0.07116637 0.12453107 0.11043069 -0.12001348 -0.10475942 0.065270156
-0.045628376 0.02362788 0.0053269914 -0.088319376 0.13362154 0.038007572 0.1205742 0.038947985
-0.017777016 0.030807316 0.04827226 -0.10209111 0.045248043 0.116105355 -0.121208824 0.024980187
-0.014261308 -0.060065318 -0.069051586 -0.103606924 0.032947704 0.05691931 0.031135596 -0.009426993
-0.051522568 -0.06917167 -0.11946979 0.12466653 -0.07479453 0.07518551 -0.14912334 0.05633334
-0.13254438 -0.08877891 0.035450075 -0.014572229 -0.0048274808 -0.09434811 -0.112803206 0.012930753
0.15106098 -0.07044942 -0.007943567 -0.0115094995 0.06359266 -0.14828712 -0.016212853 -0.061675765
0.011517952 0.052738957 -0.02843196 -0.08205756 -0.12962773 0.14526132 0.03463743 -0.12175087
0.07691299 -0.04350468 -0.06872181 0.14467351 0.14027523 0.09080775 -0.14912623 -0.03953371
0.0039211996 0.08965672 0.09732717 -0.12876059 0.098160475 0.14903419 -0.11627219 0.012007678
-0.03628388 0.058848903 0.0324809 -0.10405456 -0.16889507 0.14312594 -0.15683207 0.03774896
0.09940107 0.08364111 -0.13160889 -0.010175565 0.05670709 0.18263316 0.15893754 -0.12951468
-0.001257687 0.20542812 0.13500886 -0.01590978 0.05443408 -0.017516427 0.06630712 0.117197335
0.067953825 -0.094125345 -0.090725556 -0.016489225 -0.0047140857 -0.037312042 0.01610353 -0.11168973
-0.12027584 0.053050764 -0.38830462 0.52125424 -0.076964416 -0.17310677 0.041535676 -0.035506234
-0.045161486 -0.25129503 -0.030780124 0.006843892 0.04187277 -0.25107363 0.123966135 0.006295345
0.0009391244 -0.17323531 -0.036278088 -0.17268045 -0.2055886 -0.19223353 -0.071414515 -0.009083673
-0.17831898 -0.123176076 -0.093364924 -0.21737473 -0.08436762 -0.18728861 -0.12537776 -0.05685028
-0.014326229 -0.08000943 0.02159075 -0.135947 -0.11774348 -0.05196469 -0.045562696 -0.054545414
0.06725809 -0.18374385 -0.006860624 -0.21643187 -0.1233929 0.13199657 0.12314307 -0.020722369
0.11260914 -0.116604224 0.033087324 0.017353283 0.087133676 -0.1567983 0.06655446 0.10476603
-0.06649045 0.1321781 0.1306045 -0.081795536 -0.052540477 -0.13670774 -0.1288027 0.06833557
0.13814878 -0.133671 -0.03207538 -0.029621664 0.1083007 0.085341446 0.1034663 -0.104113676
0.08056511 -0.078969985 0.10129373 0.03813689 -0.13769321 -0.029458513 0.14619717 0.016281351
-0.10882677 -0.08873946 0.14841993 -0.13024731 -0.024259645 -0.0907532 -0.05441692 0.049224045
-0.033075802 -0.8137027 -0.13965689 -0.090562314 -0.05078261 -0.13351332 0.030347202 0.093015835
-0.082435176 -0.11118272 0.058538824 0.0508194 0.07598503 0.16548045 0.048437573 0.047274776
0.032418717 -0.12928438 0.13944289 0.048481334 0.0033121286 -0.06687236 0.10805053 0.02473785
-0.08276089 0.099722885 0.028054282 -0.08389494 -0.12919477 0.11731319 -0.06842219 -0.11194076
-0.10524586 -0.07726744 -0.13459538 -0.05161934 0.07226672 0.05998702 -0.08689771 0.013867221
00000000: ba12 a73d cc20 90bd e8bd 72bf 9988 b33d
00000010: 3380 f33d 228e 4bbd fd71 633c f5b9 1a3b
00000020: 9d03 913d 38fe cf3d cb6d f0bd c463 8e3d
00000030: 56e4 7c3d 8279 c0bc 3b99 3e3e e210 1b3e
00000040: a2cb 7d3c bb61 833d acbf 913d 250a ff3d
00000050: 7c29 e23d a1c9 f5bd 1b8c d6bd 5cac 853d
00000060: d2e4 3abd 418f c13c 0b8e ae3b cae0 b4bd
00000070: 16d4 083e d4ad 1b3d 9bef f63d ec87 1f3d
00000080: 1ba1 91bc a05f fc3c 22b9 453d 2515 d1bd
00000090: 0356 393d a5c8 ed3d 553c f8bd 40a3 cc3c
000000a0: 43a8 69bc 0d07 76bd eb6a 8dbd de2f d4bd
000000b0: 2cf4 063d 3924 693d 1410 ff3c ad73 1abc
000000c0: 5409 53bd e0a9 8dbd 94ac f4bd 2a51 ff3d
000000d0: e02d 99bd dcfa 993d cab3 18be cabd 663d
000000e0: b7b9 07be b8d1 b5bd 1934 113d 5cc0 6ebc
000000f0: d82f 9ebb 9539 c1bd 5e05 e7bd 82db 533c
00000100: bbaf 1a3e c947 90bd bc25 02bc 5792 3cbc
00000110: de3c 823d 94d8 17be d1d0 84bc ba9f 7cbd
00000120: cbb5 3c3c ce04 583d 24ea e8bc cb0d a8bd
00000130: 22bd 04be 62bf 143e fadf 0d3d 8558 f9bd
00000140: 8f84 9d3d f731 32bd 05be 8cbd 4b25 143e
00000150: 4fa4 0f3e 6af9 b93d 8cb4 18be 19ee 21bd
00000160: 687d 803b f19d b73d 7853 c73d d1d9 03be
00000170: 5c08 c93d 6b9c 183e 1d20 eebd dabb 443c
00000180: 689e 14bd 8c0b 713d b10a 053d 8f1a d5bd
00000190: d4f2 2cbe 9b8f 123e 9698 20be a79e 1a3d
000001a0: ca92 cb3d 084c ab3d 7bc4 06be 6ab7 26bc
000001b0: b245 683d 3004 3b3e 86c0 223e 7f9f 04be
000001c0: f9d8 a4ba c05b 523e c33f 0a3e 3a55 82bc
000001d0: 45f6 5e3d 9c7e 8fbc 07cc 873d 2805 f03d
000001e0: 602b 8b3d cac4 c0bd 52ce b9bd 6914 87bc
000001f0: 9e78 9abb 83d4 18bd 8deb 833c 96bd e4bd
00000200: 2e53 f6bd c24b 593d ddcf c6be eb70 053f
00000210: 859f 9dbd e742 31be 5021 2a3d fc6e 11bd
00000220: 40fb 38bd bea9 80be 9926 fcbc ba42 e03b
00000230: c882 2b3d b98c 80be f5e1 fd3d 2e49 ce3b
00000240: 922f 763a 9964 31be 5598 14bd 25d3 30be
00000250: d185 52be ded8 44be c641 92bd b0d3 14bc
00000260: 4099 36be bd43 fcbd 1c36 bfbd 7b97 5ebe
00000270: eec8 acbd 96c8 3fbe 0763 00be d7db 68bd
00000280: 8fb8 6abc fcdb a3bd 16df b03c b135 0bbe
00000290: 7e23 f1bd edd8 54bd f39f 3abd 036b 5fbd
000002a0: 9cbe 893d 5927 3cbe 16cf e0bb 51a0 5dbe
000002b0: 6bb5 fcbd 1c2a 073e 6f32 fc3d f5c1 a9bc
000002c0: 9f9f e63d 32ce eebd 9386 073d 7928 8e3c
000002d0: 2473 b23d bc8f 20be b44d 883d 938f d63d
000002e0: 252c 88bd b259 073e 30bd 053e 6b84 a7bd
000002f0: af34 57bd 1dfd 0bbe dbe4 03be 85f3 8b3d
00000300: e076 0d3e 0de1 08be 7961 03bd 22a9 f2bc
00000310: c2cc dd3d 7fc7 ae3d 24e6 d33d 8d39 d5bd
00000320: 52ff a43d 04bb a1bd 1673 cf3d 6d35 1c3d
00000330: 73ff 0cbe fb52 f1bc b6b4 153e 7860 853c
00000340: 92e0 debd 09bd b5bd 65fb 173e 8d5f 05be
00000350: 2abc c6bc d0dc b9bd 47e4 5ebd 279f 493d
00000360: 7e7a 07bd d24e 50bf 3702 0fbe bc78 b9bd
00000370: 6d01 50bd b7b7 08be b29a f83c 167f be3d
00000380: c6d3 a8bd c4b3 e3bd 68c6 6f3d 0128 503d
00000390: 0a9e 9b3d b573 293e 7a66 463d 32a3 413d
000003a0: 7dc9 043d 2063 04be 1eca 0e3e 5d94 463d
000003b0: 4c10 593b 60f4 88bd 9949 dd3d 08a7 ca3c
000003c0: 8b7e a9bd 833b cc3d 18d2 e53c 1cd1 abbd
000003d0: a24b 04be e641 f03d ef20 8cbd 3241 e5bd
000003e0: 248b d7bd 643e 9ebd 5fd3 09be cd6e 53bd
000003f0: 9300 943d f3b4 753d 6df7 b1bd 5733 633c

combined_conv1.lin_rel.bias f4 [20]
0.07544699 -0.15055618 0.0020047917 -0.0016229954 -0.0688178 0.16520768 0.03268153 -0.031062443
-0.041874845 0.026970528 0.048968855 0.020152185 0.013644434 -0.083902135 0.13231748 0.021465436
-0.14156444 -0.033678386 0.011711616 0.09646282
00000000: f483 9a3d 662b 1abe d362 033b b0ba d4ba
00000010: 59f0 8cbd 342c 293e 11dd 053d aa76 febc
00000020: f584 2bbd 4cf1 dc3c 9193 483d 3216 a53c
00000030: e78c 5f3c e2d4 abbd 3c7e 073e 48d8 af3c
00000040: 45f6 10be 59f2 09bd 14e2 3f3c 4d8e c53d
